pishgu/models/test_org_domain/eth.pt (torch, 446383 bytes, 33 tensors)

conv2Da.weight f4 [64, 2, 2, 2]
0.1453259 -0.11448441 -0.679572 0.08931161 -0.08797949 0.04212753 0.02566957 0.14646141
0.1409214 -0.2659192 -0.65690273 0.42040518 -0.05150742 0.47888145 -0.30919063 0.019674664
0.00627439 -0.04135009 0.23409171 0.10880493 0.222775 -0.0020423154 0.15282327 0.1287568
-0.10819222 0.12630448 -0.5245953 0.52957076 -0.07591422 -0.103990026 0.041463353 -0.0041654585
0.2464324 0.057382107 0.48072085 0.11195737 0.00062177976 -0.12720667 0.012740969 0.048901647
-0.0045071044 0.00043071923 -0.01163185 -0.0006411761 -0.00017016167 0.0047895955 -0.034821764 -0.028776037
-0.058842476 -0.059697215 -0.7038939 -0.2948238 -0.099991195 -0.04337881 0.23053682 0.0220394
0.017203154 -0.057489958 -0.40705547 -0.12919937 -0.039676685 0.1215032 0.14037131 -0.0040416694
0.07944991 -0.22844832 -0.31310195 0.38018382 0.07437847 -0.056513228 0.011073614 -0.036536682
0.013996863 -0.057667825 -0.62187046 0.3937141 0.03239905 0.11750421 0.09250484 0.08969984
-0.15902096 -0.02811289 0.5936079 -0.68479365 0.109093525 0.10708773 0.10947642 0.089948684
-0.029810958 0.123436354 0.5204139 -0.7780008 -0.10327171 0.15275492 0.18120359 -0.29610762
0.22828496 0.053337842 0.25173825 -0.07544739 0.017366067 -0.08616778 -0.008249067 0.06553898
-0.030266868 -0.022410737 -0.875259 -0.2968747 -0.12127226 -0.014319769 -0.09129685 -0.01741722
0.011335541 -0.20575681 -0.22589636 -1.2722832 0.17842098 -0.10163284 0.09584999 -0.0027247067
0.14364873 0.12126817 -0.49639326 0.78339016 -0.36024478 0.12176974 0.00024157553 0.097075686
0.016209733 -0.3015822 -0.57002246 -1.3081198 0.11984696 -0.09393369 0.12755501 0.1161694
-0.04540783 0.007478687 -0.5462512 0.51855093 0.23503058 -0.0064123766 0.14803384 0.022898562
0.09220886 0.033614147 0.34631723 0.18079312 0.048980843 0.06825905 -0.009940143 0.040236495
-0.038694505 -0.021779623 0.0151822185 0.49966648 -0.041411605 -0.07726455 0.09856491 0.004711932
0.1043246 0.07503369 -0.4110758 -0.8818784 0.17616911 0.19954908 -0.016923876 -0.1619013
-0.11434921 0.071774945 -0.9714153 0.0884655 -0.06468779 0.051114857 -0.07509768 -0.22351894
0.14799683 -0.2867957 -0.028477335 -1.5712501 0.0029179263 0.020387404 -0.09757144 -0.21028337
-0.08528818 0.0064012473 -0.90760046 -0.26669207 -0.27016032 -0.08140124 0.038590528 0.022719543
-0.19309086 -0.109697364 -0.59432936 0.1300031 0.00512624 0.19138856 0.031174129 -0.12212953
0.10895046 0.09270117 0.31265807 0.024217658 -0.011469147 -0.0064983107 0.06540967 -0.037272964
0.033583928 -0.15342192 -0.6648838 0.12734781 0.10437088 0.23614365 -0.092812344 0.009623021
0.036237698 0.085856006 0.57855016 0.526653 0.10638978 0.15907905 0.06395399 0.04282893
-0.1731351 -0.024812844 -1.0130237 0.18719578 -0.09281912 0.15833256 -0.06575189 -0.047598984
0.06591789 0.04827684 0.38119632 0.53687716 -0.18670349 0.11160952 -0.03631994 0.086508594
-0.09926844 0.061838027 -0.50095457 0.54117143 0.140245 0.0399658 0.05007229 0.16046585
-0.23914358 -0.014648756 0.1987999 -0.7430364 0.03697595 0.19914222 -0.01036194 -0.19444458
00000000: 50d0 143e cd76 eabd 6ef8 2dbf 01e9 b63d
00000010: 972e b4bd eb8d 2c3d fd48 d23c fbf9 153e
00000020: b34d 103e 9026 88be c72a 28bf 593f d73e
00000030: 72f9 52bd f32f f53e 3c4e 9ebe c32c a13c
00000040: 6699 cd3b b65e 29bd bdb5 6f3e 1ed5 de3d
00000050: 211f 643e 5ed8 05bb b47d 1c3e d3d8 033e
00000060: e293 ddbd f655 013e e14b 06bf f391 073f
00000070: ea78 9bbd b9f8 d4bd 7ad5 293d 667e 88bb
00000080: c658 7c3e 8009 6b3d 0b21 f63e e849 e53d
00000090: effe 223a 7742 02be 7fbf 503c 184d 483d
000000a0: 55b0 93bb 28d2 e139 8493 3ebc 9a14 28ba
000000b0: 6d6d 32b9 0af2 9c3b 44a1 0ebd b9bb ebbc
000000c0: cf04 71bd 1185 74bd 6432 34bf 25f3 96be
000000d0: 2fc8 ccbd fbad 31bd d811 6c3e f98b b43c
000000e0: a1ed 8c3c 977a 6bbd 9369 d0be d74c 04be
000000f0: 0584 22bd abd6 f83d 7fbd 0f3e fb6f 84bb
00000100: a2b6 a23d 5bee 69be e64e a0be 74a7 c23e
00000110: bd53 983d 6a7a 67bd 1a6e 353c 7da7 15bd
00000120: 1953 653c 1935 6cbd e732 1fbf e594 c93e
00000130: deb4 043d 0ca6 f03d 2d73 bd3d 8db4 b73d
00000140: 64d6 22be 014d e6bc b0f6 173f a34e 2fbf
00000150: 6d6c df3d d050 db3d 2c35 e03d 0437 b83d
00000160: 1c36 f4bc 33cc fc3d d839 053f 0f2b 47bf
00000170: 1e80 d3bd c96b 1c3e 6f8d 393e 6b9b 97be
00000180: 88c3 693e c878 5a3d d6e3 803e 2984 9abd
00000190: 4843 8e3c bc78 b0bd 1827 07bc 4d39 863d
000001a0: 39f2 f7bc b996 b7bc f910 60bf f6ff 97be
000001b0: 975d f8bd 779d 6abc d8f9 babd 8fae 8ebc
000001c0: b4b8 393c eab1 52be 6051 67be 2dda a2bf
000001d0: fdb3 363e e124 d0bd 004d c43d fe90 32bb
000001e0: a718 133e 725b f83d 4227 febe 428c 483f
000001f0: 0172 b8be 6a62 f93d 704f 7d39 9ecf c63d
00000200: 46ca 843c fb68 9abe feec 11bf 7870 a7bf
00000210: 5372 f53d 4e60 c0bd c89d 023e 39ea ed3d
00000220: 90fd 39bd c60f f53b 1ed7 0bbf c1bf 043f
00000230: dbab 703e ea1e d2bb 2f96 173e c495 bb3c
00000240: 00d8 bc3d fdae 093d 7e50 b13e d521 393e
00000250: 23a0 483d 67cb 8b3d fbdb 22bc 06cf 243d
00000260: 217e 1ebd 2e6b b2bc d7be 783c 49d4 ff3e
00000270: 379f 29bd e03c 9ebd 66dc c93d 8d66 9a3b
00000280: 23a8 d53d 43ab 993d 8778 d2be c8c2 61bf
00000290: ad65 343e 9856 4c3e f1a3 8abc 74c9 25be
000002a0: eb2f eabd befe 923d acae 78bf 662d b53d
000002b0: 087b 84bd d05d 513d d0cc 99bd 26e2 64be
000002c0: 7b8c 173e e3d6 92be 4d49 e9bc b91e c9bf
000002d0: ae3a 3f3b 7c03 a73c 89d3 c7bd 8654 57be
000002e0: 92ab aebd 8ec1 d13b 8158 68bf dd8b 88be
000002f0: 7452 8abe b1b5 a6bd 1a11 1e3d 561e ba3c
00000300: 9cb9 45be 03a9 e0bd f825 18bf 881f 053e
00000310: 05fa a73b 5dfb 433e e360 ff3c 0c1f fabd
00000320: 6b21 df3d 1cda bd3d b814 a03e 1c64 c63c
00000330: 17e9 3bbc c8ef d4bb 81f5 853d 89ab 18bd
00000340: 4d8f 093d a31a 1dbe d335 2abf 7767 023e
00000350: 66c0 d53d a4cf 713e 6614 bebd e0a9 1d3c
00000360: fb6d 143d 46d5 af3d dd1b 143f bbd2 063f
00000370: e3e2 d93d 9ee5 223e 4ffa 823d 636d 2f3d
00000380: 544a 31be 4e44 cbbc c3aa 81bf 40b0 3f3e
00000390: f317 bebd ee21 223e eda8 86bd 27f7 42bd
000003a0: f5ff 863d f0bd 453d 2a2c c33e c870 093f
000003b0: 332f 3fbe 8893 e43d 38c4 14bd 6b2b b13d
000003c0: 404d cbbd df49 7d3d 8f3e 00bf 368a 0a3f
000003d0: 639c 0f3e 2eb3 233d 9a18 4d3d 2951 243e
000003e0: 0ee2 74be 5601 70bc 3392 4b3e a237 3ebf
000003f0: 1874 173d f0eb 4b3e 20c5 29bc 7b1c 47be

conv2Da.bias f4 [64]
0.15981679 0.3834685 0.12891074 0.05403078 0.055821814 -0.08976236 0.030417765 0.26803565
0.15391733 0.22047402 0.14224042 0.13891289 -0.19680153 0.15840545 0.0651856 0.15667021
0.16140978 0.35907033 0.24363886 0.045633323 0.13173181 0.035780057 0.038228884 0.049730442
0.025190247 -0.15684322 0.160589 0.16615517 0.038815737 0.10240037 0.33227763 0.23084642
-0.1216402 0.20312107 0.1609388 0.4432249 0.11262596 0.26492286 0.2502116 0.115674324
0.42124167 0.06754545 0.03445828 0.09581399 0.021987779 0.08648418 0.04314289 0.19045287
0.17013346 -0.22600895 0.06393483 0.14082141 0.08382335 0.1185107 -0.07251799 0.16681878
-0.12219188 0.19072519 0.046060607 -0.038699556 0.33980432 -0.12299726 -0.00073634065 0.26618865
00000000: 03a7 233e fc55 c43e 2d01 043e 614f 5d3d
00000010: 6aa5 643d 54d5 b7bd ad2e f93c f83b 893e
00000020: 819c 1d3e f1c3 613e 79a7 113e 2e3f 0e3e
00000030: 5786 49be 0a35 223e 0780 853d 286e 203e
00000040: 9b48 253e 11d8 b73e 777c 793e 02ea 3a3d
00000050: b4e4 063e 1c8e 123d e495 1c3d 26b2 4b3d
00000060: c75b ce3c 829b 20be 7171 243e 9524 2a3e
00000070: 40fd 1e3d 49b7 d13d 4b20 aa3e 0163 6c3e
00000080: 7f1e f9bd f8fe 4f3e 24cd 243e 60ee e23e
00000090: 70a8 e63d f8a3 873e bc1b 803e a9e6 ec3d
000000a0: fdac d73e 4555 8a3d 2024 0d3d 203a c43d
000000b0: b71f b43c 9e1e b13d 99b6 303d 1406 433e
000000c0: 7737 2e3e e46e 67be 44f0 823d 7d33 103e
000000d0: 94ab ab3d bdb5 f23d 5084 94bd 8bd2 2a3e
000000e0: bd3f fabd 774d 433e 0caa 3c3d 6d83 1ebd
000000f0: d5fa ad3e fde5 fbbd fc06 41ba e149 883e

cbam1.ChannelGate.mlp.1.weight f4 [4, 64]
-0.063583165 -0.09060491 -0.13221435 0.082555786 -0.061224908 0.024737325 0.094698265 -0.087549746
0.03728726 0.08364884 -0.10116707 -0.09954056 0.009593246 0.06417676 0.06598568 -0.10122378
-0.08228997 0.01290262 -0.030203538 0.05176593 0.08974066 0.02264463 0.03139935 0.1291299
0.04338605 -0.011167309 -0.029556422 -0.13166137 0.089406975 0.061309773 -0.022906074 -0.0105954595
-0.076690935 -0.01839255 -0.09215054 0.08667748 -0.10506998 0.092280865 0.04811197 -0.13256906
-0.05276616 0.004432705 0.11448834 0.021774385 0.047334094 -0.102096245 -0.013506323 -0.10485535
-0.1448542 -0.018098135 0.10155695 -0.20225216 0.03069973 -0.047929738 0.07348728 -0.102272555
0.00916299 -0.0032384072 -0.10805305 -0.029077945 0.04868163 0.090908796 -7.815651e-09 -0.002840217
-2.1170126e-06 -7.3671604e-06 -2.6955515e-06 2.7835625e-07 1.1288546e-07 2.2397511e-08 -4.925847e-08 1.3382937e-06
2.2939426e-07 -2.5844327e-06 -3.630837e-06 -1.3977655e-06 8.0577104e-07 1.0388488e-06 1.6146619e-06 4.6665746e-06
-7.4844536e-07 -7.220522e-07 -2.8099605e-06 2.395801e-07 -1.524308e-06 3.0472847e-07 -1.5778301e-06 -2.631116e-07
-2.4225483e-06 1.5223009e-07 -2.120572e-06 -3.62147e-06 3.2610365e-06 -3.4295629e-06 -2.5513366e-06 -2.1962696e-06
-2.1368926e-06 2.1340794e-07 -3.3684814e-06 3.1073466e-06 3.753513e-10 -2.0170323e-06 -1.0205198e-06 -4.066717e-06
-4.628856e-06 -7.172506e-08 2.4143992e-07 -2.546399e-08 4.910864e-07 -4.082018e-06 3.029031e-07 -9.010532e-07
1.645708e-08 1.7300724e-06 -1.9971774e-06 -2.937947e-06 -1.1037246e-07 1.6426516e-06 7.809366e-07 -4.820237e-06
1.2539781e-06 -2.126441e-06 -1.5703546e-06 4.569761e-07 -3.6626955e-06 -1.7464225e-07 -1.4873275e-10 -9.839036e-07
-0.034705203 -0.01580672 -0.02390251 -3.2740043e-11 0.00064285076 -2.4589678e-11 0.0005137008 -0.044882067
-0.02946617 -0.002782032 -0.009797732 -0.005693496 -1.7006578e-10 7.705593e-09 -0.035505913 0.0038628485
-0.062304456 0.01386078 0.0060966834 -0.0020161716 -0.009980559 6.1688404e-11 -5.5469643e-11 -0.0043512643
-0.0016087721 -0.02102412 -0.009072632 -0.02458651 -5.2071705e-11 -0.010116999 -0.031952336 4.57151e-08
0.0030676473 0.038368847 0.00034026123 6.923136e-11 -6.4977246e-09 0.029103504 -0.053408682 0.0024097872
-0.029318402 -0.001810256 -0.05037924 -7.291869e-11 -0.029984083 0.005299291 -0.021201078 -0.04603185
-0.0052176854 0.0020385173 -0.020450795 -0.004849569 -0.0072496408 0.0006540764 -0.017918585 -0.040678035
-0.000447251 0.0023243742 -0.00012583048 -0.0038980246 0.0034455904 -0.066956624 5.056772e-11 0.0009714223
-0.056160316 -0.01508207 0.045777757 1.5202194e-10 -0.00014730499 -8.178992e-12 -0.060399238 -0.037223525
-0.049029548 -0.03847574 -0.015703734 -0.070427865 -3.7923817e-10 4.3391385e-05 0.011942819 0.0083123725
-0.053080082 -0.08710798 0.0071143596 0.0065730214 -0.12846862 3.6577914e-11 4.4822382e-11 -0.004346602
-0.0029913813 -0.035690155 -0.036057483 -0.075952314 7.478489e-11 0.0047463286 -0.055366248 -0.0013844314
0.0016179157 0.010471119 -9.1616384e-05 -1.6255074e-10 0.00020375295 -0.05575115 0.014680161 -0.02883597
0.011102114 0.017307835 -0.06840998 -7.8580184e-11 -0.06577973 -0.08167621 -0.035704996 0.024184749
-0.043301534 -0.02581488 -0.057023037 -0.039783746 0.012454724 0.0030444504 -0.04723217 -0.0062550902
0.0009270693 -0.015996244 0.0022465012 0.0053352225 -0.062112276 -0.051053863 -8.197655e-11 -0.041304536
00000000: e437 82bd 118f b9bd 3363 07be 0213 a93d
00000010: f8c6 7abd eea5 ca3c 2af1 c13d 484d b3bd
00000020: 87ba 183d 1550 ab3d ae30 cfbd ecdb cbbd
00000030: fd2c 1d3c 1b6f 833d 8023 873d 6a4e cfbd
00000040: a587 a8bd 8365 533c 696d f7bc 8308 543d
00000050: f3c9 b73d 3b81 b93c 9b9c 003d a13a 043e
00000060: 92b5 313d 17f7 36bc 4f20 f2bc 3dd2 06be
00000070: 011b b73d f51f 7b3d 85a5 bbbc 9498 2dbc
00000080: 2310 9dbd f9ab 96bc 6cb9 bcbd f683 b13d
00000090: ee2e d7bd c0fd bc3d 0f11 453d 2fc0 07be
000000a0: 5421 58bd 3a40 913b dd78 ea3d 3260 b23c
000000b0: 65e1 413d d617 d1bd a049 5dbc 67be d6bd
000000c0: a954 14be 8a42 94bc 17fd cf3d 311b 4fbe
000000d0: 007e fb3c f951 44bd 8080 963d 4674 d1bd
000000e0: 5e20 163c 753b 54bb eb4a ddbd df34 eebc
000000f0: 6466 473d 642e ba3d 9945 06b2 ef22 3abb
00000100: 0012 0eb6 6d33 f7b6 39e5 34b6 fe70 9534
00000110: 706b f233 a664 c032 4390 53b3 6c9f b335
00000120: 6a4f 7634 3770 2db6 4ea9 73b6 db9a bbb5
00000130: 2a4c 5835 936e 8b35 5cb7 d835 9295 9c36
00000140: c6e8 48b5 0dd3 41b5 c192 3cb6 a39f 8034
00000150: d396 ccb5 9099 a334 d4c5 d3b5 c841 8db4
00000160: 1093 22b6 b074 2334 264f 0eb6 6108 73b6
00000170: 2ed8 5a36 7127 66b6 a137 2bb6 a063 13b6
00000180: 8967 0fb6 2125 6534 120e 62b6 cf87 5036
00000190: 005a ce2f 5a5c 07b6 cbf8 88b5 d574 88b6
000001a0: 9251 9bb6 4507 9ab3 409f 8134 e8bb dab2
000001b0: 33d3 0335 45f8 88b6 af9e a234 e8df 71b5
000001c0: 805d 8d32 d634 e835 3f07 06b6 8c29 45b6
000001d0: e705 edb3 1479 dc35 8ea1 5135 85bd a1b6
000001e0: 5c4e a835 fab3 0eb6 f9c4 d2b5 5156 f534
000001f0: a1cc 75b6 4c85 3bb4 8c88 23af ac0e 84b5
00000200: 0b27 0ebd 187d 81bc 32cf c3bc 03fe 0fae
00000210: fc84 283a 084b d8ad e1a9 063a 42d6 37bd
00000220: 0a63 f1bc c052 36bb ab86 20bc 8290 babb
00000230: 43fd 3aaf 8e61 0432 a66e 11bd d827 7d3b
00000240: f532 7fbd 5318 633c b0c6 c73b bf21 04bb
00000250: 8085 23bc 7ca7 872e 44f5 73ae 0d95 8ebb
00000260: 6fdd d2ba c63a acbc 60a5 14bc a669 c9bc
00000270: 8703 65ae c5c1 25bc 74e0 02bd 4958 4433
00000280: 950a 493b a728 1d3d 1765 b239 ca3d 982e
00000290: 9742 dfb1 796a ee3c 10c3 5abd 85ed 1d3b
000002a0: 252d f0bc 1d46 edba 765a 4ebd 9359 a0ae
000002b0: 2ea1 f5bc ada5 ad3b e2ad adbc e58b 3cbd
000002c0: 1ef9 aabb a598 053b 6d88 a7bc 22e9 9ebb
000002d0: 658e edbb 5376 2b3a ffc9 92bc 039e 26bd
000002e0: 037d eab9 8754 183b 5df1 03b9 0076 7fbb
000002f0: 6acf 613b 8e20 89bd 3166 5e2e 0ca7 7e3a
00000300: 5c08 66bd c91a 77bc 7581 3b3d 5f26 272f
00000310: e275 1ab9 e8e2 0fad 3165 77bd b277 18bd
00000320: 35d3 48bd bd98 1dbd 1ea5 80bc 7c3c 90bd
00000330: 077d d0af 25ff 3538 d0ab 433c 9e30 083c
00000340: 806a 59bd ab65 b2bd 931f e93b 8062 d73b
00000350: 478d 03be 12df 202e 8421 452e f16d 8ebb
00000360: 0d0b 44bb d72f 12bd 03b1 13bd e38c 9bbd
00000370: 2674 a42e 1787 9b3b b8c7 62bd cf75 b5ba
00000380: 3e10 d43a 0e8f 2b3c 2c22 c0b8 f7b9 32af
00000390: 84a6 5539 515b 64bd 0f85 703c 6a39 ecbc
000003a0: a4e5 353c 29c9 8d3c 881a 8cbd b6cc acae
000003b0: 86b7 86bd db45 a7bd 673f 12bd 181f c63c
000003c0: f35c 31bd ba79 d3bc fd90 69bd 48f4 22bd
000003d0: e60e 4c3c 6785 473b 8576 41bd 80f7 ccbb
000003e0: 9106 733a 8e0a 83bc 093a 133b 17d3 ae3b
000003f0: 7169 7ebd db1d 51bd b244 b4ae f22e 29bd

cbam1.ChannelGate.mlp.1.bias f4 [4]
-0.08470599 -3.190307e-06 -1.5036954e-05 -0.0071212654
00000000: 567a adbd 0f19 56b6 3a47 7cb7 8159 e9bb

cbam1.ChannelGate.mlp.3.weight f4 [64, 4]
-0.092533 7.3525706e-07 0.0123171555 0.00025597922 -0.17740501 -7.6836915e-07 -9.378338e-10 -1.1841798e-10
0.25181088 4.4423962e-07 0.0038236356 0.00023363098 0.060914956 1.6522867e-07 9.2528256e-11 3.917399e-10
0.076556616 -4.89962e-07 0.0026903024 -1.3093901e-05 -1.0966407e-07 -1.3967765e-09 -3.1729126e-11 2.048162e-10
-0.15208994 -1.2603163e-06 0.04660071 -0.0042208484 0.001585122 2.5734766e-07 -5.2960036e-08 -1.1169528e-09
-0.16209097 1.18599544e-07 0.07354414 0.1902325 0.055841234 3.8985448e-07 0.14837119 -0.19443046
0.057784162 -4.7636846e-08 -7.007572e-11 -8.121093e-11 -0.3213534 7.110777e-08 -2.5204633e-10 -4.719688e-10
0.08032491 -7.606493e-10 -8.9675756e-10 -3.216732e-11 0.06267065 5.67174e-06 1.7057149e-10 1.08526695e-10
0.03545026 -7.7206556e-07 0.037970256 -0.0066203764 0.14571968 6.781576e-07 -1.503944e-07 -3.929053e-09
0.050345186 -8.036174e-06 3.6904796e-10 2.5873625e-10 0.22977848 1.0073328e-06 -0.0595322 0.019407073
-0.22384502 -1.7193362e-06 -0.000781984 -2.8577801e-08 0.06478825 -1.455831e-09 7.8891543e-10 1.9083729e-10
0.14825436 1.1527086e-07 -0.04840561 0.0738692 -0.02404727 3.8639809e-07 1.8983852e-10 5.4753596e-10
-3.5979192e-05 -5.8209633e-07 -9.5456525e-11 -1.1420016e-09 0.018824227 -2.634803e-07 -0.0057672034 -0.00086877344
-0.11283087 8.645227e-07 -4.043065e-11 4.409989e-10 0.02224759 -2.9438908e-08 -9.103454e-12 -8.124838e-11
-0.14409445 9.537491e-07 0.11879825 -0.013178564 -0.17884009 2.3126427e-06 0.07284555 -0.009365211
-0.11967999 -2.5516982e-07 5.278431e-10 -1.758439e-10 0.058529805 1.2099175e-06 -3.4092396e-09 8.1808404e-10
0.42586175 1.8889993e-06 -3.5257384e-09 -3.3879274e-10 0.036160503 -1.1725626e-06 6.977042e-11 -3.9506381e-10
-0.0018817019 1.3980521e-07 -8.3388346e-10 -2.576411e-11 -0.021440858 1.4821513e-06 -0.003986878 -5.471034e-05
0.30795208 2.3225225e-07 -3.2321854e-10 2.8341374e-10 0.12666544 7.306485e-06 1.7015342e-10 -1.3810707e-10
-0.12704825 5.5359465e-07 2.9298697e-10 5.533547e-11 0.24208288 2.3355733e-06 -0.011870465 0.0015417304
-0.10777517 2.8049826e-06 -0.04388284 0.18383045 -0.16280039 1.0445383e-06 2.1231663e-09 -1.0538102e-10
0.034612868 -1.1731283e-05 -4.5492317e-09 9.031006e-10 0.16868868 1.567099e-06 1.4583992e-09 1.7027357e-10
-0.11243439 -1.1027025e-07 -7.9154705e-10 -4.800654e-10 0.13273007 -8.521124e-08 -2.5351493e-10 -3.8554812e-10
-0.106823616 1.0110178e-06 1.1670829e-09 1.1361239e-10 0.2511304 -4.0759022e-07 -7.188278e-05 -4.080484e-08
-0.06543476 -1.08842805e-07 -0.051249556 0.013423913 -0.19141471 1.3644741e-06 3.8457785e-08 2.0773326e-10
0.047143023 2.938041e-08 -0.11091685 -0.0026880344 -0.057192832 1.244743e-07 8.9873615e-11 -3.6192171e-10
-0.31705207 -6.9874595e-06 -1.1919079e-09 -6.099976e-10 0.19800708 -8.166441e-06 -2.5542735e-10 1.6721857e-10
-0.03939029 -1.445064e-07 -0.02279541 -0.0011331335 0.3011654 -6.1411697e-07 0.00033706776 6.086184e-08
-0.00063399615 7.1050055e-10 1.9618551e-10 7.138659e-10 -0.3904679 1.1724754e-07 -0.06731232 0.013048062
-0.00026711353 -5.423339e-08 -0.00051004696 -9.844395e-09 0.15735474 -2.5082578e-08 -1.4270332e-10 -1.6054631e-10
0.19040461 1.8812109e-07 -8.973808e-11 1.3288173e-10 -0.014057645 -6.9589037e-09 7.6804046e-10 -7.269429e-10
-0.4139715 -4.8832367e-06 0.0009940495 -2.623104e-07 0.10735795 -2.4274637e-08 0.03332245 -0.018202694
-2.689555e-10 -3.9784365e-10 1.3775007e-09 8.0874024e-10 0.0012707629 -2.7214985e-06 0.012920395 0.023778085
00000000: f181 bdbd 7b5e 4535 e5cd 493c f334 8639
00000010: a9a9 35be ed41 4eb5 18e5 80b0 b333 02af
00000020: 5bed 803e d47f ee34 f695 7a3b d7fa 7439
00000030: f681 793d b669 3134 c778 cb2e 7d5c d72f
00000040: b7c9 9c3d ef85 03b5 c94f 303b e0ad 5bb7
00000050: 7680 ebb3 b4f8 bfb0 d28b 0bae a332 612f
00000060: 77bd 1bbe 2328 a9b5 63e0 3e3d 0b4f 8abb
00000070: dec3 cf3a 9829 8a34 2d76 63b3 4883 99b0
00000080: 2dfb 25be cab0 fe33 4f9e 963d 4fcc 423e
00000090: c7b9 643d 314d d134 9eee 173e c718 47be
000000a0: 16af 6c3d 4499 4cb3 2019 9aae b095 b2ae
000000b0: 6f88 a4be e9b3 9833 5e90 8aaf dabb 01b0
000000c0: 6381 a43d f015 51b0 b47f 76b0 2f79 0dae
000000d0: 7859 803d e04f be36 9b8b 3b2f 19a7 ee2e
000000e0: 4b34 113d f13f 4fb5 b386 1b3d beef d8bb
000000f0: 8a37 153e a30a 3635 197c 21b4 5100 87b1
00000100: c136 4e3d 1bd3 06b7 e2e2 ca2f e43d 8e2f
00000110: 0d4b 6b3e b133 8735 09d8 73bd 95fb 9e3c
00000120: a137 65be f1c3 e6b5 0ffe 4cba 407b f5b2
00000130: b4af 843d 8016 c8b0 fdda 5830 ecd3 512f
00000140: fecf 173e d38a f733 f644 46bd bc48 973d
00000150: c8fe c4bc 2672 cf34 cbba 502f 6b81 1630
00000160: 5de8 16b8 5b41 1cb5 3fe9 d1ae 9cf4 9cb0
00000170: 4435 9a3c 7574 8db4 cffa bcbb 66be 63ba
00000180: df13 e7bd 8c11 6835 ddd0 31ae 1471 f22f
00000190: 9440 b63c d8e0 fcb2 5026 20ad c6aa b2ae
000001a0: 7f8d 13be 9202 8035 7f4c f33d e7ea 57bc
000001b0: db21 37be e632 1b36 0c30 953d 8b70 19bc
000001c0: c81a f5bd 46fe 88b4 a817 1130 a857 41af
000001d0: f3bc 6f3d 7364 a235 fa47 6ab1 8cdf 6030
000001e0: 8d0a da3e 8689 fd35 7249 72b1 d740 baaf
000001f0: 091d 143d f260 9db5 416d 992e 4a30 d9af
00000200: 70a3 f6ba 5d1d 1634 5537 65b0 9e9f e2ad
00000210: bda4 afbc 55ee c635 5ba4 82bb c878 65b8
00000220: e5ab 9d3e 0361 7934 f7b0 b1af f0ce 9b2f
00000230: 96b4 013e 3a2a f536 ee15 3b2f afd9 17af
00000240: f018 02be bc9a 1435 4012 a12f 335e 732e
00000250: 93e4 773e d8bc 1c36 577c 42bc e313 ca3a
00000260: 3ab9 dcbd 3c3d 3c36 7ebe 33bd 0d3e 3c3e
00000270: 25b5 26be 1032 8c35 23e7 1131 3ebc e7ae
00000280: 39c6 0d3d 7ad1 44b7 774f 9cb1 0e3e 7830
00000290: babc 2c3e 1d55 d235 dc70 c830 c037 3b2f
000002a0: 0044 e6bd b6cd ecb3 2c94 59b0 99f5 03b0
000002b0: 64ea 073e 60fd b6b3 0e5f 8baf 13f5 d3af
000002c0: 57c6 dabd 4fb2 8735 1467 a030 17d6 f92e
000002d0: 2a94 803e c6d2 dab4 c6bf 96b8 6541 2fb3
000002e0: a902 86bd f7bc e9b3 0eeb 51bd f9ef 5b3c
000002f0: 3802 44be f922 b735 c82c 2533 b767 642f
00000300: 0b19 413d 3460 fc32 6028 e3bd bc29 30bb
00000310: 0843 6abd 3ca7 0534 59a2 c52e f4f7 c6af
00000320: a654 a2be d275 eab6 88d0 a3b0 c4ac 27b0
00000330: 5ec2 4a3e 9902 09b7 346c 8caf d8db 372f
00000340: b657 21bd 9e29 1bb4 71bd babc a785 94ba
00000350: 5a32 9a3e ccd9 24b5 78b8 b039 26b3 8233
00000360: c332 26ba 084d 4330 50b5 572f d939 4430
00000370: 69eb c7be 84c9 fb33 0bdb 89bd 8ac7 553c
00000380: 5f0b 8cb9 3eee 68b3 acb4 05ba 1b20 29b2
00000390: 9a21 213e 2c75 d7b2 6ae7 1caf c585 30af
000003a0: 6df9 423e 55fe 4934 0c56 c5ae e21a 122f
000003b0: 0952 66bc 2a1b efb1 0b1e 5330 0fd2 47b0
000003c0: 13f4 d3be afda a3b6 c44a 823a abd3 8cb4
000003d0: 7cde db3d 7e84 d0b2 1f7d 083d d11d 95bc
000003e0: 1fdc 93af 84b7 daaf 7f52 bd30 094e 5e30
000003f0: ba8f a63a fda2 36b6 10b0 533c 42ca c23c

cbam1.ChannelGate.mlp.3.bias f4 [64]
0.030060453 0.62755644 -0.3315819 -0.0057634665 -0.031253647 -8.991829e-05 0.020194804 -0.23369011
-0.07679477 0.051379383 0.26139206 0.38016734 -0.03918843 0.051178437 0.29191306 0.09779603
0.5176311 0.37890965 0.13688242 -0.08151923 0.36404365 0.515644 0.6943551 0.40550804
0.10964191 -0.033669237 0.09925523 0.07753078 0.3680237 0.14461854 0.043055736 0.28199962
0.028959475 0.056811314 0.054379042 0.5509333 -0.22226636 -0.109243564 -0.10106952 0.38214338
0.2727498 -0.120805115 0.47566885 -0.15885215 0.0156403 -0.18688837 0.18605943 0.24677274
0.088001795 0.20280813 0.32356706 0.045522556 0.24334028 0.027270444 0.062811494 0.40386692
0.37817293 0.13498278 0.13384904 0.062924355 0.41537532 0.021723948 -5.563822e-06 0.16801125
00000000: 5741 f63c 8aa7 203f 1ac5 a9be 76db bcbb
00000010: d303 00bd 8492 bcb8 936f a53c 764c 6fbe
00000020: 9446 9dbd 3073 523d 2ed5 853e 4ba5 c23e
00000030: 0c84 20bd 7ba0 513d a175 953e 4949 c83d
00000040: 7983 043f 7200 c23e e82a 0c3e 8ef3 a6bd
00000050: ee63 ba3e 3f01 043f 41c1 313f c09e cf3e
00000060: f08b e03d c1e8 09bd 5346 cb3d 75c8 9e3d
00000070: 9a6d bc3e e216 143e 365b 303d 4162 903e
00000080: 6c3c ed3c fbb2 683d 8fbc 5e3d f709 0d3f
00000090: cb99 63be 17bb dfbd 89fd cebd 4ca8 c33e
000000a0: dda5 8b3e ac68 f7bd de8a f33e 23aa 22be
000000b0: 1620 803c aa5f 3fbe 5d86 3e3e feb1 7c3e
000000c0: 493a b43d efac 4f3e 95aa a53e dc75 3a3d
000000d0: 322e 793e 4466 df3c 50a3 803d a5c7 ce3e
000000e0: e29f c13e ed38 0a3e b90f 093e 7cde 803d
000000f0: 13ac d43e 6cf6 b13c deb0 bab6 240b 2c3e

cbam1.SpatialGate.spatial.conv.weight f4 [1, 2, 7, 7]
4.9570445e-11 4.3198646e-11 -1.2240884e-11 0.13426921 8.042467e-11 4.275605e-11 -1.4733126e-11 -3.9259013e-11
6.6026286e-12 5.3709433e-12 0.1366915 6.303778e-11 1.501959e-11 5.506203e-11 8.2795056e-12 -5.1053127e-11
1.679697e-11 -0.16648938 1.798179e-11 -7.043522e-12 2.5488705e-11 -1.3986121e-12 6.6580847e-12 8.957241e-12
-0.047940586 1.37510055e-11 1.8088864e-12 -3.3065373e-12 -1.3599842e-12 -2.8175734e-11 9.858463e-12 -0.10161691
-2.9520664e-11 3.8670723e-11 -9.664504e-11 2.226682e-11 5.0457263e-11 7.4838885e-12 -0.053704396 -4.844209e-11
-6.7331106e-11 9.188943e-12 -7.981291e-11 7.601738e-11 -5.690885e-11 -0.16475941 -9.4060496e-11 -2.913368e-11
-5.4529645e-11 6.3164578e-12 -4.4203224e-11 8.21936e-11 0.23472548 -2.5896667e-11 6.1964067e-12 4.7989304e-12
8.883378e-11 -2.5294745e-12 -2.0593008e-11 0.16505708 4.6949687e-11 -3.570954e-11 4.5634996e-11 -3.5022159e-12
4.598662e-11 -2.2185656e-11 -0.10695199 2.9948294e-11 2.9078736e-13 7.5384074e-11 1.3676081e-11 -8.969936e-11
-2.4891313e-11 -0.16977291 -1.6943455e-11 -5.7586227e-11 8.241759e-12 4.703988e-11 -1.44461665e-11 7.322899e-12
-0.08894513 1.3968432e-11 1.0289343e-11 3.52148e-11 -1.2193477e-11 4.347061e-11 -4.7736613e-11 -0.0017258595
-1.820201e-11 6.647919e-12 9.978669e-12 -1.0905527e-11 -1.5832297e-11 -2.5088195e-12 -0.08417492 -4.581914e-11
-3.1219034e-11 -1.8017688e-11
00000000: 5c03 5a2e 5afd 3d2e 0a58 57ad de7d 093e
00000010: 10db b02e 080b 3c2e 0d98 81ad b8a9 2cae
00000020: 314f e82c 28f9 bc2c dbf8 0b3e 1e9f 8a2e
00000030: 1c1d 842d 562a 722e 94a7 112d b688 60ae
00000040: 6abf 932d 317c 2abe 642b 9e2d 68d2 f7ac
00000050: 7633 e02d 50d6 c4ab b242 ea2c d493 1d2d
00000060: 595d 44bd 06e9 712d 0094 fe2b 48ad 68ac
00000070: 9866 bfab 1dd6 f7ad 926e 2d2d 871c d0bd
00000080: 50d5 01ae 5d13 2a2e 5286 d4ae 6cdc c32d
00000090: d4e9 5d2e 70a8 032d 24f9 5bbd f20c 55ae
000000a0: 0b10 94ae 52a7 212d ad82 afae fb29 a72e
000000b0: ab49 7aae b1b6 28be 5ad7 ceae 9c21 00ae
000000c0: ecd2 6fae 983d de2c 6868 42ae e2be b42e
000000d0: e05b 703e 1cca e3ad 4504 da2c ecd8 a82c
000000e0: f958 c32e f6fe 31ac 5523 b5ad b904 293e
000000f0: a67c 4e2e 5e0d 1dae 70b4 482e 5072 76ac
00000100: 5540 4a2e a825 c3ad a509 dbbd c8b6 032e
00000110: e0b2 a32a 76c5 a52e 9897 702d 4040 c5ae
00000120: 41f2 daad f3d8 2dbe 4509 95ad 5444 7dae
00000130: 95fd 102d 32e2 4e2e c023 7ead 68d3 002d
00000140: dd28 b6bd 3abc 752d 1503 352d 57e0 1a2e
00000150: 8a82 56ad 8e2f 3f2e a6f2 51ae 3c36 e2ba
00000160: 481b a0ad 22e7 e92c ee8b 2f2d 21da 3fad
00000170: 2a43 8bad e08a 30ac e763 acbd c483 49ae
00000180: 824d 09ae 3a7c 9ead

conv2Db.weight f4 [128, 64, 2, 1]
0.00059531484 -0.010858805 -0.0040281033 0.019827181 -0.0025598991 0.024880622 0.00054172956 -0.006771713
-0.0038234952 -0.008630965 -3.8051843e-05 0.0017130834 0.0014830208 -0.0024948595 0.0019476413 0.003394585
0.0014129425 -0.0004353291 0.00091955037 0.010790998 -0.0011636743 -0.01867367 0.004053852 -0.0017375658
-0.0014796956 -0.0071250442 0.0019880997 0.0013302242 0.0055082445 -0.015743043 -0.0016239966 -0.008284205
0.005550347 -0.030680139 0.010728178 0.0037993505 -0.0031686958 -0.008008315 -0.00037225266 -0.007213892
0.0040601175 0.014453194 0.0030299255 0.0028642407 0.0034293635 0.0038059824 -0.0018340526 -0.0067407815
0.0035029575 0.009113223 -0.0008529697 -0.0029857142 0.0031202047 0.0025399276 -0.0035571456 -0.010165167
0.00234106 0.0066907224 -0.0042449078 -0.034018647 0.0028517817 -0.029793736 -0.00023262453 -0.00024262993
-0.00025403083 -0.010441386 0.0032159225 0.0012903989 -0.002974037 -0.00787328 0.00062583585 0.025546275
-0.004671281 -0.0067895516 0.017264556 0.024055168 0.0018878175 0.00020220177 -0.0030027279 -0.01701548
0.006786922 -0.0033103528 0.0011316768 -0.0014437193 0.003840751 -0.006583002 -0.0009607895 0.009185275
0.0015610149 -0.0015709129 -0.0015973831 -0.022513025 -0.0022331143 -0.0068538147 -0.01315128 -0.0119157
0.002647306 -0.013942212 0.002553476 -0.00097488455 0.008765024 0.0050585624 -0.0064373263 -0.022107337
0.001233587 -0.0039326474 -0.0062176385 -0.008612707 -0.00029764223 0.008886127 0.00073809124 -0.021575162
-0.0001248874 0.026848108 -0.0010417036 0.00077027985 -0.002491747 -0.016339108 -0.0027783965 -0.004256172
0.02689147 -0.0044101034 -0.00016963483 -8.02038e-05 -1.386242e-07 2.8880404e-06 -0.009049619 -0.007725586
-0.0004417371 -0.00075619516 -0.000585115 -0.0045759687 0.032454167 -0.00023654272 -5.7600366e-05 0.0003550976
2.0831071e-06 -1.1394228e-05 -1.3968781e-07 -5.10055e-06 -2.765623e-05 3.1047286e-05 -0.0001615359 -0.0011162227
0.06931237 -3.783726e-05 -0.0042276946 -0.0011540414 -0.00029944084 -0.0009093542 -7.228285e-05 -0.00022998662
2.9015523e-06 5.871447e-05 0.00017131181 0.00028233073 0.00015595951 4.0223804e-05 -0.00014183263 -0.0017320894
-0.007172564 -4.183333e-05 0.037028145 -0.0008554527 -0.00036065592 -0.00074015756 -6.0063187e-05 -1.0676654e-05
0.031402253 -0.0013053141 6.838358e-05 -0.0004043779 0.00010116111 -0.00039946244 -3.780425e-05 2.8162485e-05
0.000736496 -0.0012298813 3.941005e-06 2.5300795e-05 -0.0006374771 -0.0020105944 -0.0006094713 -0.001158998
0.00018396377 -0.0018915557 -2.0050387e-05 -0.0009873506 0.04089877 -0.00096126157 -0.00037356405 -0.001262687
-4.2325203e-07 9.529839e-05 -0.00057423714 3.9824714e-05 -8.008653e-05 -0.00068993797 -0.00017395617 -0.0016238426
-0.00010096469 2.4929614e-05 -0.004069993 -0.0012800939 -0.008158233 -1.7504972e-06 -0.00035702714 -0.0020070013
-0.00047649507 -0.0010128052 -6.7455025e-05 1.768973e-05 -0.0007967501 -4.0511724e-05 -0.00014129379 -0.00045959887
-0.00020174161 2.2894383e-05 -0.0005762988 -0.0005500922 -0.00027344262 3.8623562e-05 -0.00063112547 -6.942116e-05
-0.00049295445 -0.0007772512 0.00016626692 -0.00094668515 0.00022052343 -0.0006754058 0.015839392 -0.00083473633
-0.00016825063 8.703879e-05 0.030285787 1.1803639e-05 -0.00019682263 -0.00026589437 -0.00042177906 -0.0013075239
1.7537299e-06 0.001097747 -0.00019981265 -0.0004035584 -1.2012689e-06 -0.00062485127 2.1503965e-06 1.8089377e-06
-7.3363284e-05 -0.00080265175 -0.03487431 2.911528e-06 1.2195514e-08 5.0203846e-07 -0.0006647513 -7.066362e-05
00000000: e70e 1c3a 21e9 31bc 2efe 83bb 9d6c a23c
00000010: fbc3 27bb 72d2 cb3c db02 0e3a 3fe5 ddbb
00000020: 9b93 7abb e468 0dbc db99 1fb8 8a89 e03a
00000030: ec61 c23a cc80 23bb ff47 ff3a b077 5e3b
00000040: 7c32 b93a e23c e4b9 fb0d 713a bacc 303c
00000050: 6e86 98ba 86f9 98bc 2dd6 843b 09bf e3ba
00000060: 58f2 c1ba 3479 e9bb c74a 023b eb5a ae3a
00000070: 817e b43b 8ef7 80bc 49dc d4ba 79ba 07bc
00000080: afdf b53b ea54 fbbc 3dc5 2f3c 86fe 783b
00000090: e5a9 4fbb 4f35 03bc e82a c3b9 8362 ecbb
000000a0: bc0a 853b 17cd 6c3c b791 463b fcb5 3b3b
000000b0: 2cbf 603b ca6d 793b 9864 f0ba c6e1 dcbb
000000c0: e091 653b a14f 153c d499 5fba f9ab 43bb
000000d0: 597c 4c3b ea74 263b 001f 69bb cd8b 26bc
000000e0: 786c 193b d93d db3b de18 8bbb 2357 0bbd
000000f0: f5e4 3a3b fe11 f4bc acec 73b9 7a6a 7eb9
00000100: 712f 85b9 5912 2bbc 3ac2 523b 9a22 a93a
00000110: 10e8 42bb eefe 00bc 220f 243a 6c46 d13c
00000120: 8c11 99bb e37a debb 666e 8d3c 580f c53c
00000130: a570 f73a 2006 5439 6ac9 44bb 0c64 8bbc
00000140: d464 de3b 81f2 58bb c654 943a 2e3b bdba
00000150: 1cb5 7b3b 39b6 d7bb 7edd 7bba d67d 163c
00000160: f89a cc3a 17e7 cdba 485f d1ba 3c6d b8bc
00000170: 7159 12bb f795 e0bb 7778 57bc 113a 43bc
00000180: 6d7e 2d3b e06d 64bc 3858 273b 658f 7fba
00000190: 2d9b 0f3c 4cc2 a53b 35f0 d2bb 721a b5bc
000001a0: 50b0 a13a 70dd 80bb 55bd cbbb 501c 0dbc
000001b0: dd0c 9cb9 1e97 113c 777c 413a 65be b0bc
000001c0: 35f4 02b9 90f0 db3c c689 88ba 9bec 493a
000001d0: 944c 23bb 98d9 85bc c215 36bb 5c77 8bbb
000001e0: 804b dc3c a182 90bb 01e0 31b9 1633 a8b8
000001f0: bbd8 14b4 28d0 4136 da44 14bc ea26 fdbb
00000200: f398 e7b9 663b 46ba 6762 19ba 02f2 95bb
00000210: a9ee 043d 7408 78b9 ec97 71b8 652c ba39
00000220: 82cb 0b36 d629 3fb7 18fd 15b4 6425 abb6
00000230: 4dff e7b7 c538 0238 f761 29b9 384e 92ba
00000240: a5f3 8d3d 73b3 1eb8 7988 8abb 3443 97ba
00000250: 45fe 9cb9 ba61 6eba 8f96 97b8 9028 71b9
00000260: 4ab8 4236 2f44 7638 2aa2 3339 ca05 9439
00000270: 1089 2339 fbb5 2838 e8b8 14b9 4707 e3ba
00000280: d407 ebbb 3276 2fb8 d3aa 173d 7540 60ba
00000290: 6b16 bdb9 2207 42ba 5bec 7bb8 e11f 33b7
000002a0: a69f 003d 1317 abba 2869 8f38 af02 d4b9
000002b0: 7526 d438 f16e d1b9 0190 1eb8 7a3e ec37
000002c0: 6911 413a f833 a1ba fa3c 8436 0b3d d437
000002d0: 5d1c 27ba 2dc4 03bb edc4 1fba 85e9 97ba
000002e0: 66e6 4039 14ee f7ba e131 a8b7 fd69 81ba
000002f0: 7885 273d 2cfd 7bba ebda c3b9 bf80 a5ba
00000300: 513b e3b4 efda c738 6788 16ba 7609 2738
00000310: 21f4 a7b8 f4dc 34ba 0168 36b9 1ed7 d4ba
00000320: 01bd d3b8 f01f d137 935d 85bb d3c8 a7ba
00000330: 1caa 05bc a0f2 eab5 5f2f bbb9 e587 03bb
00000340: 16d2 f9b9 1ac0 84ba a476 8db8 6864 9437
00000350: fedc 50ba 22eb 29b8 4328 14b9 51f6 f0b9
00000360: 9a8a 53b9 500d c037 c212 17ba 1034 10ba
00000370: d95c 8fb9 bcff 2138 1d72 25ba 3496 91b8
00000380: 9d39 01ba 72c0 4bba f057 2e39 f72a 78ba
00000390: 4f3c 6739 b70d 31ba 9dc1 813c 35d2 5aba
000003a0: 6f6c 30b9 9888 b638 e619 f83c 3e08 4637
000003b0: 2c62 4eb9 bd67 8bb9 3a22 ddb9 3961 abba
000003c0: b361 eb35 47e2 8f3a cd84 51b9 b194 d3b9
000003d0: 493b a1b5 0fcd 23ba 884f 1036 a0ca f235
000003e0: 9dda 99b8 0c69 52ba 5dd8 0ebd ac63 4336
000003f0: 7084 5132 d2c3 0635 b442 2eba 3e31 94b8

conv2Db.bias f4 [128]
0.057693183 -0.020583747 -0.034062505 0.057018835 -0.05142819 0.003130149 -0.016530037 0.046045355
0.07505407 -0.03910881 -0.0003565948 0.04886713 0.04178304 -0.0199628 0.009336021 0.23731041
0.008670503 -0.013217554 0.011608251 0.08540664 -0.013832464 0.05367998 0.13446927 0.050596986
0.13656123 -0.0016116074 0.11581311 -0.008612959 0.049882703 0.057372652 0.08479434 -0.0023389182
-0.016939795 -0.0016290175 0.053724762 0.007293866 0.06330303 0.017578488 0.017677838 -0.0034119538
-0.07399282 0.026424551 -0.0033520632 -0.018120706 -0.06308168 -0.011091172 -0.0028202857 0.33464846
-0.015611755 -0.00946451 0.036636397 -0.004372452 0.056769025 0.0637944 0.22539404 -0.009964139
-0.009567359 0.10826819 -0.0004545118 0.031322826 -0.013931202 -0.009832183 -0.026976876 0.12652388
-0.0043958323 -0.00090235454 -0.0028763907 -0.055988267 0.11242876 -0.0697934 0.0050385054 0.034000527
0.048633784 -0.05170955 0.080354184 0.009286514 -0.04355861 0.041939847 -0.034797948 -0.003410124
-0.0070426273 -0.010556688 0.118195325 0.028052446 -0.050452158 0.10297695 -0.0018384216 -0.019269362
0.09334985 0.19949338 0.0570539 0.13763207 -0.013438869 0.13128048 -0.02303362 0.24018328
-0.01272355 0.13464043 0.17568976 0.069586754 -0.026567642 0.14975418 0.1813707 0.10056495
0.05813725 0.11209124 -0.014773199 0.1539548 0.17005038 0.1903474 -0.082140446 0.100312896
0.08934829 0.15680596 0.16303603 -0.016442783 0.09099799 0.09605736 0.060259566 -0.0041359295
-0.015631134 0.025990717 -0.0005130501 -0.021546213 -0.09787482 -0.001137678 0.07495128 0.06360695
00000000: b04f 6c3d 3f9f a8bc 2085 0bbd 958c 693d
00000010: 5ea6 52bd 3023 4d3b 006a 87bc 0e9a 3c3d
00000020: f3b5 993d 8f30 20bd 58f5 bab9 e628 483d
00000030: b124 2b3d 0789 a3bc 1cf6 183c 8001 733e
00000040: ba0e 0e3c 718e 58bc 8930 3e3c ade9 ae3d
00000050: 8fa1 62bc 8adf 5b3d 50b2 093e c93e 4f3d
00000060: b5d6 0b3e 923c d3ba 6c2f ed3d 5e1d 0dbc
00000070: ce51 4c3d 96ff 6a3d a8a8 ad3d 8948 19bb
00000080: 53c5 8abc c284 d5ba 7f0e 5c3d 6201 ef3b
00000090: 05a5 813d c300 903c 1dd1 903c 169b 5fbb
000000a0: 8c89 97bd 4d78 d83c 4aae 5bbb e071 94bc
000000b0: f830 81bd bfb7 35bc 8bd4 38bb 0b57 ab3e
000000c0: 72c8 7fbc 0811 1bbc 0c10 163d c946 8fbb
000000d0: a386 683d a3a6 823d b2cd 663e a140 23bc
000000e0: 6ac0 1cbc b6bb dd3d 8b4b eeb9 5d4c 003d
000000f0: b23f 64bc 2a17 21bc 9cfe dcbc 7a8f 013e
00000100: ea0a 90bb fd8b 6cba d481 3cbb f453 65bd
00000110: 0d41 e63d d8ef 8ebd 0c1a a53b 2344 0b3d
00000120: 3834 473d 65cd 53bd bc90 a43d 7626 183c
00000130: 836a 32bd 1ec9 2b3d 4b88 0ebd 637c 5fbb
00000140: d7c5 e6bb f5f5 2cbc 6410 f23d 3ece e53c
00000150: eca6 4ebd 94e5 d23d 31f7 f0ba c8da 9dbc
00000160: 352e bf3d fe47 4c3e 5ab1 693d 6cef 0c3e
00000170: b42e 5cbc 646e 063e 01b1 bcbc 9bf2 753e
00000180: 7076 50bc 2edf 093e 04e8 333e 8083 8e3d
00000190: 62a4 d9bc 2959 193e 3eb9 393e fff4 cd3d
000001a0: 5321 6e3d 1890 e53d 4a0b 72bc 54a6 1d3e
000001b0: b021 2e3e 6eea 423e 4039 a8bd d970 cd3d
000001c0: 3cfc b63d be91 203e ebf2 263e 04b3 86bc
000001d0: 275d ba3d b9b9 c43d bcd2 763d b186 87bb
000001e0: dd0c 80bc 7cea d43c 367e 06ba af81 b0bc
000001f0: 9872 c8bd 241e 95ba 0f80 993d 5c44 823d

cbam2.ChannelGate.mlp.1.weight f4 [8, 128]
-6.247465e-05 8.4913204e-08 7.838668e-11 -0.0020908292 7.98954e-12 -0.020179864 3.4863334e-11 -0.007818811
-0.027804667 -2.4231215e-07 -5.895125e-10 -0.015222536 -0.007882376 -7.87803e-11 -0.0037001257 -0.032758173
-0.003764969 1.2440858e-10 -0.009609213 -0.027765242 -0.019570574 -0.014193902 -0.016793495 -0.015882405
-0.010487187 0.00046047705 -0.016273456 -0.0074684424 -0.000102611055 -0.018662585 -0.018132238 4.069939e-12
1.9277567e-10 -1.5788083e-10 -0.010220709 -0.00014881438 -0.017269636 -0.028363097 -0.023826582 -9.549497e-12
-7.7830126e-05 -0.019502701 6.676487e-11 -0.021912148 2.1819302e-10 7.783334e-11 9.530072e-11 -0.023400038
-1.7506524e-11 -5.4561147e-12 -0.0005174114 -9.559687e-11 -0.003204277 -0.0016077922 -0.02941163 -9.550359e-12
-4.84213e-10 -0.020323383 -2.1841556e-10 -0.0037013856 2.5393615e-10 -1.9093235e-10 -1.7966757e-10 -0.006762871
1.5844964e-13 -7.840273e-11 4.3767368e-11 2.7127307e-11 -0.009152699 -7.901702e-05 -0.0124131795 -0.00085379713
-0.011283409 -0.0058727637 -0.008716803 -0.015059165 -1.6607495e-10 -0.025807675 -9.394532e-11 2.2400283e-11
2.901583e-10 -2.7918272e-11 -0.019837474 -0.019558972 3.6564612e-10 -0.01490068 3.89029e-11 5.2649083e-11
-0.005773253 -0.021943852 -0.01027894 -0.016478345 7.733697e-11 -0.02500929 -7.182638e-11 -0.034365926
1.8011636e-09 -0.01463997 -0.008777276 -0.00048741276 -1.1795506e-06 -0.0081104 -0.00070033444 -0.0056135543
-0.012503979 -0.01971113 -5.8582264e-11 -0.009242712 -0.029642494 -0.014329933 -1.07327695e-10 -0.002251886
-0.009319969 -0.023316914 -0.00930563 -4.5661197e-11 -0.025996078 7.150925e-10 -0.011266295 -0.015100584
-0.0053957165 -0.02961398 1.4696334e-10 3.1721247e-06 -0.0037046156 2.6345343e-11 -0.004139326 -0.0049962783
6.107299e-09 2.6241984e-10 3.930843e-11 3.1110374e-09 -1.0101544e-10 -0.00010390351 5.0109006e-10 2.5394033e-07
-1.9449449e-06 -1.8880078e-10 2.2790028e-10 3.0549646e-08 -1.4573063e-05 6.627634e-11 -8.12345e-09 -0.00013430609
-1.2839744e-08 9.8796964e-11 4.805807e-07 -0.00062176475 5.2816154e-07 2.6275867e-08 4.2390114e-09 -8.1363305e-06
-2.4517635e-06 5.0457675e-07 -7.764943e-05 8.212298e-09 -3.950628e-09 -1.0948324e-06 -0.0018385024 -2.035966e-10
1.9159047e-10 -4.457079e-11 -4.0384394e-09 1.3178145e-09 -0.00010998578 -0.00052627263 -9.1029095e-09 3.146999e-11
1.5473129e-09 1.9475081e-08 -3.5291728e-11 -2.9675051e-05 -2.4024815e-10 2.0861125e-11 1.08950196e-10 -0.0046053976
1.4535584e-10 -6.603282e-11 3.4276093e-07 1.3079698e-10 -5.307006e-10 2.231703e-08 -0.00018269863 5.2614142e-11
-2.912549e-10 3.4890675e-08 3.3509215e-10 -1.5901715e-06 -1.7918967e-11 -1.1380339e-10 1.7074274e-10 1.7960498e-07
7.4750595e-10 -1.8865791e-10 2.1056257e-10 3.1286573e-10 -0.0005493065 -3.6316832e-09 -5.053581e-07 -1.45464e-08
1.9860227e-08 3.2931734e-08 7.0450035e-12 3.8384758e-07 2.4360475e-10 -0.00048133396 3.1311224e-11 -6.166187e-11
-1.9937926e-10 -3.2085116e-11 -1.8230787e-09 4.7857105e-07 1.6119053e-10 -3.0606518e-08 1.2645905e-10 4.757355e-11
-7.2105564e-08 -4.058555e-05 -3.460657e-05 -0.0017394348 -1.2934161e-11 -2.3095175e-05 1.3805365e-10 -0.0006877196
8.4678875e-11 8.4934684e-11 -4.2931557e-08 4.2143458e-09 7.5829765e-10 -0.00012775972 -4.150637e-08 -2.0797523e-05
-0.00013120902 -3.694539e-05 3.3457583e-09 -7.616848e-05 -0.00045713663 -3.7341852e-08 5.1533208e-11 -8.490594e-09
-4.321866e-09 -2.8545153e-05 1.860549e-09 1.7903075e-11 -0.0020342667 -6.090513e-09 3.9872596e-08 1.7112397e-08
-5.0485554e-08 -6.4027336e-05 3.9906675e-10 -7.683699e-10 1.0711959e-08 -2.0549232e-10 -6.346503e-09 1.8097465e-07
00000000: d304 83b8 8759 b633 c75f ac2e 4b06 09bb
00000010: b08d 0c2d 3e50 a5bc a054 192e 781a 00bc
00000020: 9dc6 e3bc 2117 82b4 410b 22b0 f267 79bc
00000030: 1525 01bc 5e3d adae cf7d 72bb 6f2d 06bd
00000040: b3bd 76bb e7c9 082f f66f 1dbc ef73 e3bc
00000050: 7852 a0bc 8a8d 68bc 8392 89bc d11b 82bc
00000060: 73d2 2bbc 2f6c f139 e94f 85bc d6b9 f4bb
00000070: e430 d7b8 47e2 98bc 0f8a 94bc c032 8f2c
00000080: 87f5 532f 8197 2daf c374 27bc 0e0b 1cb9
00000090: 0d79 8dbc ba59 e8bc f72f c3bc 1cff 27ad
000000a0: bb38 a3b8 21c4 9fbc 48d1 922e 1b81 b3bc
000000b0: e0e7 6f2f 4628 ab2e 8991 d12e 70b1 bfbc
000000c0: 30fd 99ad 50f8 bfac e4a2 07ba 4138 d2ae
000000d0: d9fe 51bb 8ebc d2ba a9f0 f0bc fe02 28ad
000000e0: 7619 05b0 397d a6bc 8426 70af f292 72bb
000000f0: 569a 8b2f aeee 51af ed8b 45af 139b ddbb
00000100: 0066 322a d068 acae ad7d 402e 449d ee2d
00000110: 34f5 15bc f1b5 a5b8 a660 4bbc 5bd1 5fba
00000120: 0cde 38bc 5070 c0bb ecd0 0ebc b7ba 76bc
00000130: f199 36af 9e6a d3bc 8396 ceae f408 c52d
00000140: 2684 9f2f 5c92 f5ad 3382 a2bc 233a a0bc
00000150: 1e04 c92f fb21 74bc c618 2b2e 998d 672e
00000160: 8e2d bdbb 98c3 b3bc 0069 28bc 98fd 86bc
00000170: d810 aa2e 48e0 ccbc a8f2 9dae 49c3 0cbd
00000180: cf8c f730 7cdc 6fbc 90ce 0fbc 6f8b ffb9
00000190: 0d51 9eb5 7ce1 04bc a696 37ba e8f1 b7bb
000001a0: 7ddd 4cbc 3c79 a1bc e2d2 80ae be6e 17bc
000001b0: d1d4 f2bc 18c8 6abc 1f04 ecae 6194 13bb
000001c0: c9b2 18bc 1d03 bfbc a476 18bc f0d1 48ae
000001d0: baf5 d4bc 2990 4430 4496 38bc 7168 77bc
000001e0: 8dce b0bb 0499 f2bc 8196 212f b0e0 5436
000001f0: 23c9 72bb 70bc e72d 2fa3 87bb d2b7 a3bb
00000200: 5fd8 d131 4f44 902f 5ce1 2c2e f3c9 5531
00000210: a322 deae c6e6 d9b8 14bd 0930 4b55 8834
00000220: e685 02b6 b296 4faf 3a94 7a2f b135 0333
00000230: d47e 74b7 43be 912e 508f 0bb2 84d4 0cb9
00000240: cb95 5cb2 bf41 d92e 4101 0135 edfd 22ba
00000250: fcc6 0d35 3eb5 e132 bda6 9131 4681 08b7
00000260: fa88 24b6 4072 0735 b8d7 a2b8 1216 0d32
00000270: 17be 87b1 28f2 92b5 e7f9 f0ba 59db 5faf
00000280: eca7 522f 4006 44ae 7dc2 8ab1 7a1e b530
00000290: 2ba8 e6b8 8ff5 09ba 0563 1cb2 0f68 0a2e
000002a0: 3ca9 d430 284a a732 f436 1bae b0ee f8b7
000002b0: ec13 84af 147f b72d 8295 ef2e e0e8 96bb
000002c0: 08d2 1f2f 2c35 91ae b404 b834 14d0 0f2f
000002d0: bce0 11b0 abb3 bf32 ca92 3fb9 4266 672e
000002e0: 7c1e a0af b4da 1533 0738 b82f e06d d5b5
000002f0: ed9d 9dad 9d41 faae cfbb 3b2f 71d9 4034
00000300: 0e79 4d30 7b6e 4faf 1884 672f f0ff ab2f
00000310: 56ff 0fba 3f91 79b1 f2a7 07b5 bee7 79b2
00000320: 1a99 aa32 d370 0d33 c0df f72c 9c13 ce34
00000330: 52ec 852f 8d5b fcb9 4eb5 092e 8c98 87ae
00000340: 4638 5baf a11c 0dae e18f fab0 2777 0035
00000350: 1a3b 312f 3974 03b3 0f0b 0b2f 0e3b 512e
00000360: 74d8 9ab3 673a 2ab8 8626 11b8 bffd e3ba
00000370: 488a 63ad 83bc c1b7 a6ca 172f 1548 34ba
00000380: f835 ba2e fac5 ba2e bf63 38b3 c7cd 9031
00000390: 7470 5030 3df7 05b9 bd44 32b3 5776 aeb7
000003a0: 2795 09b9 cff5 1ab8 34eb 6531 a4bc 9fb8
000003b0: d7ab efb9 cd61 20b3 3ca5 622e 07de 11b2
000003c0: 897f 94b1 4074 efb7 40b6 ff30 247a 9d2d
000003d0: 5551 05bb b844 d1b1 6240 2b33 8ffe 9232
000003e0: 74d5 58b3 6a46 86b8 a763 db2f 3a35 53b0
000003f0: b207 3832 f2f0 61af 6e10 dab1 ef51 4234

cbam2.ChannelGate.mlp.1.bias f4 [8]
-0.040237356 -0.00054697046 0.094251655 -0.00010161283 -0.014253014 0.15335067 -0.008361034 -5.366748e-10
00000000: edcf 24bd 9162 0fba 0307 c13d f918 d5b8
00000010: 7985 69bc f507 1d3e b8fc 08bc 2285 13b0

cbam2.ChannelGate.mlp.3.weight f4 [128, 8]
-1.15327324e-10 -1.3365059e-09 -0.017127495 -3.6853173e-10 -1.0961876e-08 -0.12636681 -3.7514986e-10 4.154953e-11
-1.9174573e-10 -4.6900794e-10 -7.6531825e-05 6.562592e-11 -2.2420624e-11 -0.0003326318 4.4463103e-10 -3.304547e-10
1.6557525e-10 -3.7835166e-10 6.2436186e-05 1.0290602e-11 -1.5161157e-10 -0.0134959025 -7.663821e-11 1.2160205e-10
-0.00025711054 -1.1287453e-09 -0.15992928 -3.7911363e-10 -6.5447644e-08 -0.049219284 0.001993836 -9.040023e-11
2.9767577e-10 3.9173428e-10 -0.00032236092 -1.0175226e-07 -1.962753e-09 -0.00063404057 -1.565782e-10 -9.982655e-11
-0.0077278754 -0.0022767072 0.16013223 4.825552e-10 -0.00021765768 0.05752077 0.0010108635 -4.542614e-10
-2.0843386e-11 1.4955601e-09 0.071271345 -9.1239016e-11 -9.672055e-09 0.30829352 9.3503975e-11 6.469118e-11
0.0023300883 -2.5174953e-09 0.18992831 1.2229588e-10 -1.694235e-09 0.27204534 2.3646102e-10 -3.514506e-11
0.022352075 -5.289592e-10 0.23961133 -1.5530063e-11 0.00031826182 0.2307346 -0.00050652795 -4.067297e-11
-1.0015735e-09 -1.2137438e-10 -2.5238447e-05 -3.5849562e-10 -2.1096605e-10 0.009832309 -0.00011721429 2.1833821e-10
-3.1987957e-10 1.5973936e-10 -1.1000605e-05 -1.8108012e-10 -5.5253735e-10 0.00041409483 2.4074302e-08 1.7475434e-11
0.0021100887 1.2051236e-08 0.02714627 -7.6980436e-13 1.061369e-09 -0.121888556 6.035005e-11 -3.0937405e-11
3.2996246e-05 1.878239e-09 0.056049734 8.1624714e-11 -5.4461875e-09 0.18013655 -1.8158046e-11 3.0214733e-10
-1.7015103e-10 7.257861e-11 -2.3073797e-05 2.2900636e-10 -1.1764024e-09 -0.00014288154 1.4453139e-09 1.542376e-11
-0.003228076 -6.578753e-09 0.106045306 1.9907173e-10 -1.7890153e-08 0.26957172 2.1545304e-08 -2.7148853e-10
0.002065504 6.0634222e-05 0.057419263 -2.0236174e-10 0.008624477 -0.13521732 -0.01421355 7.647612e-11
0.012088617 -0.0006283422 -0.0656153 -5.675401e-11 0.013745096 -0.02173554 -0.048401363 -2.9206343e-10
-5.510946e-12 -6.3448684e-11 -4.8800346e-05 -5.0536203e-10 -2.62332e-10 -0.00021013555 8.96823e-11 3.956093e-10
-0.02798036 -0.00039620354 0.017303187 -2.772299e-11 7.295399e-05 0.1492572 0.0008044957 1.3656185e-10
-0.00027051102 -1.6167851e-08 -0.089704506 2.1518887e-09 -3.5218955e-07 -0.11318592 0.0006012628 1.3047084e-11
-0.009518776 -1.7090705e-06 0.23776582 3.802436e-10 8.3295975e-09 0.1671835 2.0785623e-05 -1.5383368e-11
-0.010442793 3.412802e-07 -0.02873273 -3.1612205e-10 0.000101181555 0.17239441 0.004651727 3.065999e-10
0.019601515 -7.3993576e-08 -0.20499507 -4.6785437e-11 0.0020722712 -0.036772363 0.00814815 -5.1577704e-11
0.012283715 -0.0050903466 0.024473375 -1.6883636e-10 0.0026723142 0.15811652 -7.1040034e-07 4.579819e-10
0.00087321986 4.7410738e-09 0.05083467 -1.714687e-11 -9.206008e-09 0.24191715 5.395215e-06 1.2546766e-10
0.000692323 4.1319113e-09 0.03565139 -5.0116696e-06 -2.2840965e-09 0.25523937 2.0368154e-09 9.5586296e-11
-3.401181e-05 1.6097714e-09 -0.11233258 -1.0484391e-12 -1.21295e-08 -0.123200744 4.4702295e-10 -3.2428383e-11
-1.8395931e-05 9.749896e-10 0.011589289 1.2968875e-10 -4.891678e-10 0.204284 0.0019301856 -1.16037145e-10
3.3251463e-10 -6.55212e-12 0.14216372 2.3408409e-10 0.00055166613 0.11168837 5.137268e-10 2.1026157e-11
0.005865473 -0.00026732893 0.26875892 -5.02342e-10 0.00046885107 0.07999664 -3.1123065e-05 1.2737271e-10
-0.0028105036 5.9422706e-10 0.14699605 -1.098184e-08 -7.3262694e-05 0.3027568 4.4161826e-08 -4.8822113e-11
-3.1119873e-10 -1.1861599e-10 -1.3577857e-05 -1.1355216e-10 -2.826156e-12 -7.269093e-05 -7.3235834e-11 -3.6560536e-11
00000000: 839b fdae 1fb0 b7b0 f64e 8cbc 3b9a caaf
00000010: d752 3cb2 4d66 01be a63d ceaf 9dbc 362e
00000020: a0d3 52af 80eb 00b0 b67f a0b8 1c50 902e
00000030: c236 c5ad 1665 aeb9 4170 f42f 5dab b5af
00000040: 4a0d 362f 4300 d0af 2cf0 8238 c008 352d
00000050: ddb2 26af eb1d 5dbc 7a87 a8ae efb3 052f
00000060: cbcc 86b9 3222 9bb0 80c4 23be 806b d0af
00000070: 398c 8cb3 299a 49bd 04ab 023b ceca c6ae
00000080: 24a6 a32f b35b d72f 8d02 a9b9 e682 dab3
00000090: 1ee1 06b1 be35 26ba d828 2caf 5a85 dbae
000000a0: 1e3a fdbb cf34 15bb b4f9 233e cea4 0430
000000b0: 0a3b 64b9 e69a 6b3d f37e 843a 9cbb f9af
000000c0: 2257 b7ad 588c cd30 b6f6 913d 00a3 c8ae
000000d0: 262a 26b2 a6d8 9d3e 0f9e cd2e e641 8e2e
000000e0: 65b4 183b 3f00 2db1 917c 423e 3b77 062f
000000f0: 98da e8b0 8749 8b3e eefe 812f d291 1aae
00000100: b31b b73c 3266 11b0 ac5c 753e 989a 88ad
00000110: 61dc a639 b145 6c3e 84c8 04ba b1e1 32ae
00000120: bca7 89b0 da73 05af 27b7 d3b7 c615 c5af
00000130: aaf5 67af b117 213c f1d0 f5b8 be10 702f
00000140: 0cdb afaf a2a2 2f2f 3d8f 38b7 8619 47af
00000150: 5ce1 17b0 de1a d939 f3cb ce32 2eb7 992d
00000160: 6a49 0a3b e509 4f32 db61 de3c 40ae 58ab
00000170: 9adf 9130 b5a0 f9bd 0fb6 842e 6c10 08ae
00000180: 7365 0a38 5412 0131 6894 653d a17e b32e
00000190: 2c21 bbb1 b775 383e 49b8 9fad 751b a62f
000001a0: 4215 3baf 209a 9f2e 9a8e c1b7 8fcb 7b2f
000001b0: fbae a1b0 79d2 15b9 76a4 c630 38ab 872d
000001c0: 218e 53bb 530b e2b1 482e d93d b6e1 5a2f
000001d0: ddac 99b2 4e05 8a3e a012 b932 9d40 95af
000001e0: 685d 073b 8051 7e38 7630 6b3d c47f 5eaf
000001f0: ae4d 0d3c 6976 0abe f3df 68bc 3a2c a82e
00000200: 560f 463c 55b7 24ba 5061 86bd 569b 79ae
00000210: 1c33 613c bb0e b2bc 8240 46bd 4690 a0af
00000220: 30e6 c1ac 6f86 8bae f9ae 4cb8 b1e9 0ab0
00000230: f237 90af d557 5cb9 a636 c52e 0f7d d92f
00000240: 1137 e5bc 8ab9 cfb9 6abf 8d3c a0da f3ad
00000250: e0fe 9838 e1d6 183e cbe4 523a be26 162f
00000260: 60d3 8db9 7be1 8ab2 ffb6 b7bd 6de0 1331
00000270: 9014 bdb4 05ce e7bd 109e 1d3a d886 652d
00000280: a4f4 1bbc 3763 e5b5 e278 733e 870a d12f
00000290: f519 0f32 2732 2b3e c95c ae37 4450 87ad
000002a0: 4018 2bbc 3239 b734 e760 ebbc 39ca adaf
000002b0: 6f31 d438 2988 303e 846d 983b 1a8e a82f
000002c0: 5b93 a03c 66e6 9eb3 3aea 51be b8c3 4dae
000002d0: f1ce 073b 9e9e 16bd d17f 053c 55d7 62ae
000002e0: a341 493c eccc a6bb 637c c83c 36a3 39af
000002f0: fe21 2f3b 4ce9 213e 57b2 3eb5 39c7 fb2f
00000300: cbe8 643a ede6 a231 0438 503d 52d3 96ad
00000310: 7428 1eb2 21b9 773e 8b08 b536 02f4 092f
00000320: 037d 353a adf8 8d31 3107 123d ea29 a8b6
00000330: 40f6 1cb1 bcae 823e 09f8 0b31 4d32 d22e
00000340: e7a7 0eb8 cc3e dd30 a00e e6bd 008e 93ab
00000350: 1b62 50b2 ac50 fcbd e3c0 f52f 1d9f 0eae
00000360: f650 9ab7 6600 8630 00e1 3d3c 2398 0e2f
00000370: 2076 06b0 d32f 513e 48fe fc3a 1b2b ffae
00000380: 46cd b62f 4088 e6ac 5e93 113e 68b0 802f
00000390: b09d 103a dfbc e43d 4f36 0d30 b2f2 b82d
000003a0: 2733 c03b 4828 8cb9 c59a 893e 2d15 0ab0
000003b0: 20d0 f539 47d5 a33d 238a 02b8 3b0c 0c2f
000003c0: 6d30 38bb 0357 2330 2286 163e a5aa 3cb2
000003d0: 9ca4 99b8 f002 9b3e 71ac 3d33 d0b8 56ae
000003e0: 5415 abaf 6f6b 02af 74cc 63b7 2fb4 f9ae
000003f0: 80df 46ac a571 98b8 1c0c a1ae 81cb 20ae
