pishgu/models/test_org_domain/hotel.pt (torch, 446681 bytes, 33 tensors)

conv2Da.weight f4 [64, 2, 2, 2]
00000000: da79 193c 1b91 923d b3ed 5d3f b977 7ebe
00000010: fbab 2e3e f3a1 ba3d f5b7 823d 7d3d 8cbc
00000020: 84bb 8fbe 9278 c43e 3439 febe 2ece 813f
00000030: 3cbd ac3d 3fd7 97bd 993e 28bd ca49 c83c
00000040: 873d d2bd 969c aa3c 60d7 c4be 9ec5 7dbe
00000050: 3f73 e43d 3a99 363e 7b70 ac3d a4c3 b93d
00000060: 198c 94bd e1c8 f0bd bdf6 9cbd 61c6 87bf
00000070: db18 1fbe 860a 1f3e 87b3 4f3d e90a 48be
00000080: 9bca 8f39 f41d 4a39 bc54 a039 87e2 8639
00000090: b9f9 8e39 74e0 b23a 3063 81b9 60e1 5cba
000000a0: 3cf6 2cbe 4b53 a8bd 5e99 04bf b915 c9be
000000b0: e6dd aa3c ef7d aebc 6132 c43d 191e bc3d
000000c0: dc4a a7be cdb0 8a3d eca7 13bf 218a 093e
000000d0: ad51 42be 8afd 1abc bd71 a93d f307 04be
000000e0: 23eb 31bd 758d 033d c5fa 23bd 0eef 413d
000000f0: 406e 73bd e6c8 3fbd c141 4abd 7a1e 73bd
00000100: 4718 313e bd69 233c 6e39 59bf 778a f93c
00000110: 9021 863d 70fe 983c 3635 48bc 1ff7 d6be
00000120: a82f ba3c 7ad2 b839 12de 1fbd ed02 dabc
00000130: 2087 a4bc 6d78 11bd fa1a 3abd c1a6 4a3e
00000140: 74da 7ebd 4031 f33d f33c 19bf ec83 adbc
00000150: 710c c63c 7cb2 093d cf94 943d f820 adbd
00000160: 934f ae39 f02c 6fb7 a799 f63b 3ad7 2bba
00000170: a4a4 9bbb 35b1 bcbc bc69 8d37 b940 413c
00000180: 12df 323e 037c 973d 41cf f23e 4c38 5cbe
00000190: c14e 293d 0aa3 0d3e ed94 b53d 2fe5 363e
000001a0: abd6 cbbd e771 9c3d 2b3f 71be 7310 953f
000001b0: bfed e13d 7d9b 4b3e c158 02bd 4c18 713d
000001c0: ef3b 063c f9b3 893c 8348 a83b 708c 683c
000001d0: b0ef 84bc 44f6 32bc f495 89bb 328b ab3a
000001e0: ca64 f2bc 8fbe 893d d32f 05bf 43f6 99be
000001f0: 9cec 0fbc 7eb6 0b3e 4630 ae3b dfa3 5f3d
00000200: fd23 b13e be94 ca3d d18c d13e 0bcc a93e
00000210: 0f6a a73d 3bbb 4ebe 1154 483d b0a1 c4bd
00000220: ccca 18ba 142b a63a 42bc c7b9 5453 dd3a
00000230: 5577 25ba fb02 44ba 3f80 19bb 5cfe bab9
00000240: 8fac 723e 744a 863e c245 dc3e 7aa5 693f
00000250: fb0f 013c cea4 9c3d 4b1c 86bd 670d 8cbd
00000260: 99b4 8c3c f049 d13e f67b 24be c108 543f
00000270: 0a17 7f3d 3d53 6fbe ddeb d6be 4ece b5bb
00000280: b2cd 9bbe 542e 9abe e045 93be 6ce9 80be
00000290: ee87 07bd dff8 f83d d89f 0c3e 052f 41bd
000002a0: 58e2 3ebd dcd3 3cbe f2a3 4cbe 17b4 96bf
000002b0: 0208 08be a008 ec3d 3cbb 30be 7dae a7be
000002c0: 5076 e5bd 048d 96be f7b0 1cbf 8f7b 3fbf
000002d0: 4e7b 843d 2b13 833d 7c7c 09bc 393f 4ebe
000002e0: 0e6e 093d 766e 913c a8b5 c5be 0bb6 75bd
000002f0: 0b33 093d bcf5 633e d13c a53d 375a 29bd
00000300: deb7 8e3d 3472 2c3e 7288 0dbf 9be9 8e3e
00000310: a173 1ebd ad98 283c 2143 3b3b 144b e1bc
00000320: ce52 1dbc afeb 543e 81c6 353f 5e2f 1e3f
00000330: 1799 173e 144c 443e 94a6 203e e2b7 84bd
00000340: 3b3d d2bc 5101 8dbe 3698 2abf 3ddb f9be
00000350: 72e1 c53d 9e84 af3d 0d0c de3d 05a9 63bd
00000360: 3129 c3bd 61ec f93d 5810 6c3f 7033 95be
00000370: a42a bcbc 5fce 6c3e 19cd 173e 46a0 203f
00000380: 9a07 76be 8cb7 7abb 7cdc 4fbf 06c8 9b3d
00000390: 03cd 5dbe 0256 953d 3c35 7abe b048 0bbe
000003a0: c736 32be 18fb 423e 2631 bdbe dd0c 9b3f
000003b0: f121 7b3e 5e79 703e db5f 70be f097 51bd
000003c0: 11de 96bd 254c 933c 3666 64be 2849 1cbc
000003d0: cc25 37be 5ef7 dcbd 0a9e 883d 5bd8 d33d
000003e0: a969 ff3c d4ab d3bd a413 0fbe a54a 4dbf
000003f0: bbe6 163e 195c 723e 79f4 263e 9d14 27bd
0.009367431 0.07156583 0.86690825 -0.24850358 0.17057793 0.091129206 0.06382743 -0.017119164
-0.2807275 0.38373238 -0.49653018 1.0141046 0.08434531 -0.07414102 -0.041075323 0.024449248
-0.10265642 0.02082662 -0.38445568 -0.24782416 0.11154794 0.17831889 0.084198914 0.090705186
-0.07253284 -0.117570646 -0.07664249 -1.0607415 -0.15536825 0.15531358 0.05070832 -0.19535412
0.00027426038 0.0001927538 0.0003058071 0.00025727248 0.00027270408 0.0013647215 -0.00024678698 -0.00084259175
-0.16890806 -0.08219012 -0.5179652 -0.39274386 0.020857763 -0.021300284 0.095799215 0.09185428
-0.326743 0.06772003 -0.57678103 0.13431598 -0.1897647 -0.0094598625 0.08273647 -0.12893657
-0.043437134 0.032117326 -0.040034074 0.04734712 -0.059431314 -0.04682245 -0.049379114 -0.059355237
0.17294417 0.00997394 -0.84853256 0.030461533 0.0654937 0.018676013 -0.012219718 -0.41985413
0.022727802 0.00035252032 -0.039030142 -0.026612723 -0.020083964 -0.035515238 -0.045435883 0.19790174
-0.062220052 0.11874628 -0.59858626 -0.02118107 0.024175854 0.03361748 0.072549455 -0.08453554
0.00033247154 -1.4255973e-05 0.007525641 -0.00065552036 -0.0047498513 -0.023033718 1.6857746e-05 0.011795216
0.17467907 0.073967 0.47423747 -0.2150585 0.04133487 0.13831726 0.08866296 0.17860864
-0.09953054 0.07638913 -0.23559253 1.1645645 0.110316746 0.19883533 -0.031822924 0.058861062
0.008193 0.01680945 0.005135597 0.014193639 -0.016227573 -0.010922972 -0.004198784 0.0013087748
-0.029589076 0.06725799 -0.520261 -0.30070695 -0.008784439 0.13643834 0.0053158132 0.05459964
0.3459777 0.098916516 0.40927747 0.33163485 0.08174526 -0.2018861 0.048908297 -0.09601152
-0.0005828559 0.0012677633 -0.000380965 0.0016885796 -0.00063120323 -0.0007477251 -0.0023422388 -0.00035666197
0.23698638 0.26228678 0.4302197 0.9126812 0.007877345 0.076486215 -0.06548365 -0.06838494
0.01717596 0.40876722 -0.16062912 0.8282586 0.06227783 -0.23371597 -0.41976824 -0.005548275
-0.3043037 -0.3011347 -0.28764248 -0.25178087 -0.033088617 0.121568434 0.1373285 -0.047163982
-0.046602577 -0.18440193 -0.19984415 -1.1773709 -0.13284305 0.115250826 -0.17258924 -0.32750311
-0.11204207 -0.2940446 -0.61207527 -0.7479791 0.06468831 0.064001404 -0.008391496 -0.20141305
0.033552222 0.017752867 -0.38615155 -0.059988063 0.033495944 0.22261709 0.080682404 -0.0413458
0.06968664 0.1684044 -0.55286324 0.27912602 -0.03868449 0.010290307 0.0028573947 -0.02750162
-0.009602262 0.20793031 0.7100602 0.61791027 0.14804493 0.19169647 0.15688545 -0.06480385
-0.025663963 -0.27540067 -0.66638505 -0.48800078 0.09662141 0.085702166 0.10842142 -0.05558111
-0.09529341 0.12203289 0.9221244 -0.29140806 -0.022969551 0.231256 0.14824332 0.6274456
-0.24026337 -0.0038256375 -0.8119581 0.07606511 -0.21660237 0.07291795 -0.2443437 -0.13601947
-0.17403708 0.19041097 -0.3695156 1.21133 0.24524666 0.23483798 -0.23474066 -0.05117029
-0.073665746 0.017980644 -0.22304615 -0.009538926 -0.17885512 -0.10789369 0.066707686 0.10344001
0.031178312 -0.10335508 -0.13972336 -0.80192024 0.14736454 0.23667945 0.16304196 -0.040791143

conv2Da.bias f4 [64]
00000000: b5b1 af3d 888c 983e a8bb ffbd 380d d23c
00000010: 0041 2ebc 6b8c 033d e30c 213e 7c4a 71bd
00000020: 58b5 c83d 9ce5 4abd 008d 973e b819 46bc
00000030: 01fc 33bd 4db0 a63b a3d2 403c c059 3f3e
00000040: a85c 723e f8be 94b8 74ca 533d 88c9 143e
00000050: 4aff 93be d4f7 cb3c 96ca d6bd c584 e3bd
00000060: b0ad 7f3e 8422 11be 3392 5abe a542 9ebd
00000070: 1699 783d d388 02be c171 6f3d d2b3 bbbd
00000080: 63ba aabe f052 c83e 0543 4abe dcdc 58bd
00000090: 0ab5 df3d 333b 973e 765d 4d3c fba2 c7bd
000000a0: 2c9f 8ebc be0d ca3c 82ae 013e e074 78bc
000000b0: 12a9 483d 1b4c 333c d930 fcbd 3585 a03d
000000c0: 7887 283a f2a4 a93e d0ec e63d a844 dc3b
000000d0: b4d0 483e 56aa 8ebd 666b 403d 4191 3cbe
000000e0: 359c 3d3e 21f0 b43d b52e 0c3e c8aa 10be
000000f0: 0736 72bd 6bfc 5e3e 3597 3ebc f374 473e
0.08578817 0.29794717 -0.124869645 0.025641069 -0.010635614 0.032116335 0.15727572 -0.058908924
0.098002136 -0.04953538 0.29599762 -0.012091093 -0.0439415 0.0050869347 0.01176897 0.1868658
0.23668158 -7.092761e-05 0.051706746 0.14530003 -0.28905708 0.024898447 -0.10487859 -0.11109308
0.249686 -0.14173323 -0.21344833 -0.07727555 0.06069287 -0.12747507 0.058458094 -0.091651574
-0.33345327 0.39125776 -0.19752128 -0.052945003 0.10923202 0.29537353 0.01253449 -0.09747883
-0.017409883 0.024664756 0.12664226 -0.015164584 0.048989363 0.010943438 -0.123140045 0.07837907
0.0006428878 0.33133656 0.11275637 0.0067220517 0.19610864 -0.06966083 0.046977423 -0.18414785
0.1851662 0.088348635 0.13689692 -0.14127648 -0.059133556 0.21775977 -0.01163273 0.19478206

cbam1.ChannelGate.mlp.1.weight f4 [4, 64]
00000000: b514 a8ae 39da 84bd 22be a03b fb47 7c3b
00000010: 006c ce2e d5df ccbd 524a d2bc a654 ac2d
00000020: b0bc aaad d202 04be f89d 38bc 6dd1 373d
00000030: 1a70 87bd 3f63 b5bb ebe1 e63a 2eaa 8fbd
00000040: 2733 4d3d 873b 03bc e337 c7b4 74c3 b3bc
00000050: a429 63bd 4ec4 a72d e72c 64ae dee5 1dbc
00000060: cba6 823c 4cf6 30bd 1c82 22bc 3df4 b5ad
00000070: 7e02 a039 9dd2 88bd 1c38 7fbd 091c 913c
00000080: f5fe a6ba 307a f0bd 939d 483d bbed 70bc
00000090: abf0 922e f7c5 8ebd beb5 86bd db39 cd3c
000000a0: 6a22 d8bb bfd1 133d 79e1 2eba d8b9 febd
000000b0: c567 bfad b719 edbd e5e4 4b3d c38b f23c
000000c0: 3d34 0abe f170 c8b1 7c1c f4bd dcfc edbb
000000d0: 0938 64bd dc0e 4abd 342b 23ad 8c4a c2bd
000000e0: ae5b aebd 648c be3c f597 1e3c f09f 23bd
000000f0: ded7 32ae f627 f2bd f4bc 0b3d 7b20 82ae
00000100: 7aaa bfba 985a acb5 e681 b1bc 0a30 1bbd
00000110: 4615 8aad 455d d93a 022d 76af 7f1d eb2d
00000120: 7cd5 d92d ebb2 ddb7 d537 c130 d02c 58bb
00000130: cc03 81ba 1ad9 19bd 2415 71b8 2af3 a7bb
00000140: f473 99b0 d453 39ac d5c7 fbba 2baa 22ae
00000150: 6166 103c d896 cbbc bf47 88bb 5cc2 bf3b
00000160: aeb7 afbb 3b96 3dbd 38dc 7ab9 20cf 8dbb
00000170: c262 fe3b 7384 10bb 868d abb9 fba8 38bb
00000180: fd35 c0ae 5cb3 383b bf17 07bd 0331 27b0
00000190: acb3 c8b9 5696 cfb9 839f 7dba 39e8 92ae
000001a0: a8f3 fcb6 cdb2 7c3b 27a3 eabc 412b b2bc
000001b0: dbce 6e2e 4976 a33a cbf6 8bb0 1846 2fba
000001c0: 39d1 95b5 ca62 0ebc 9f35 26b2 4194 8a33
000001d0: 8acb fdbb e839 9537 b660 94ad e82b f3ac
000001e0: d0bf 28af b7e9 4bbc a410 e533 b8eb 0b2d
000001f0: 576c 9bbc e721 03bb 2c88 a2ae 29eb fead
00000200: 264e dd2d dec8 022e da6a 0c31 44b0 f0b1
00000210: e682 f4ad b28a 5bad 3e85 49ae 6036 092b
00000220: 88cf 922d 5e0d c02d 4542 5c2e d7fc 08af
00000230: 5b12 f92e a967 a0ae 2af0 852e f71e 3eb2
00000240: 2600 7aae 707f 212c f40c beae 806c 922c
00000250: 9209 c3b1 a86c 0eb2 c40a e5ad 47cc 3633
00000260: 66fc c22f 1bd2 9fb4 9940 e330 9535 882e
00000270: 241b 0ab2 fe46 242f b50d 8e2e 6293 57b2
00000280: 801c ad2a 9dec 21b4 c340 822f f644 de2d
00000290: 480d b3ae 0935 ed2d a75b 3b33 570d 09ae
000002a0: c87c 8fae da52 d7ae 3d59 bcb1 4c7d 2f33
000002b0: 0e32 18ae 2c41 84af b0f7 8a2d d1ba 992e
000002c0: 3433 062e d241 6a2f 3e52 892e 692d 6e2e
000002d0: 340c e72d 4109 8e2e e0d4 03aa edfb 4a2d
000002e0: 6c8c 782e 738c 08af e663 182e 61e2 3b2d
000002f0: 578b 0531 03ec ceae 578d 23ae 79c6 8f2d
00000300: aa9f d7b9 3574 6239 2c88 9538 6462 02b9
00000310: 628b 0fb5 b302 9936 31d2 07b8 a8fb 73b2
00000320: 2e31 8f37 f5cd 99b7 eb47 b338 31cd e0b5
00000330: 9433 83b9 c352 1838 2230 e6b4 32f4 ef38
00000340: d2b0 9cb9 d012 75b2 5852 d3b8 b4a4 2237
00000350: dfde b5b6 00d7 c6b9 2645 77b6 7034 6037
00000360: 7280 f938 50eb e736 b0bb f537 3875 0f39
00000370: 077f c538 40e9 18b8 2fc7 6938 31f8 8eb8
00000380: 9295 a538 42fe c6b9 f715 0eb9 ffa1 2bb7
00000390: 0b5d a138 d062 98b8 c5b6 87b8 b0d8 77b5
000003a0: 931d 9f36 5834 2a38 f6d9 0cb9 9952 87b9
000003b0: ee72 f639 0670 3837 d270 f234 eb38 a0b9
000003c0: b887 6338 a06f 5e38 74ff 7539 417b 67b8
000003d0: 62f7 d1b9 0d2e a6b9 001a 2639 991f c2b7
000003e0: a487 99b9 a697 80b8 0a52 4eb9 bf59 9fb6
000003f0: 0a10 a7b9 65e8 0cb9 be14 24b7 2021 26b7
-7.643434e-11 -0.06486935 0.004905478 0.0038495052 9.38698e-11 -0.1000363 -0.025670204 1.9591728e-11
-1.9410556e-11 -0.12891701 -0.011268131 0.04487746 -0.066131786 -0.0055355127 0.0017614936 -0.07014881
0.05009761 -0.008009798 -3.71073e-07 -0.021943785 -0.055459633 1.9072879e-11 -5.188108e-11 -0.009637324
0.015948674 -0.043203637 -0.009918716 -2.0685781e-11 0.00030519435 -0.06680796 -0.06230937 0.017713564
-0.0012740778 -0.117420554 0.0489784 -0.014705117 6.6820625e-11 -0.069713525 -0.06577633 0.025052002
-0.0065958994 0.0360887 -0.0006671171 -0.12437791 -2.1760269e-11 -0.1157717 0.049778838 0.02960766
-0.1349649 -5.833606e-09 -0.119194955 -0.007262809 -0.0557175 -0.049330577 -9.27507e-12 -0.09486875
-0.0851358 0.023260303 0.009679784 -0.03994745 -4.0664243e-11 -0.11824028 0.034115747 -5.917485e-11
-0.001462295 -1.2841365e-06 -0.021668386 -0.03788761 -1.5698231e-11 0.0016583583 -2.238956e-10 2.6729506e-11
2.476485e-11 -2.6428568e-05 1.4058467e-09 -0.0032985695 -0.000984305 -0.03756056 -5.7478566e-05 -0.005125423
-1.1165171e-09 -2.6336615e-12 -0.0019209335 -3.6985675e-11 0.0088134715 -0.024852201 -0.0041589434 0.005852027
-0.0053624725 -0.04628585 -0.00023923896 -0.0043276697 0.0077632377 -0.0022051602 -0.00032721105 -0.0028176892
-8.7407394e-11 0.0028183078 -0.03298163 -6.0823896e-10 -0.0003828084 -0.00039594126 -0.0009674953 -6.6805624e-11
-7.5385506e-06 0.0038558722 -0.02864225 -0.02174914 5.429866e-11 0.0012471165 -1.0183724e-09 -0.0006686165
-1.1162257e-06 -0.008690545 -9.674664e-09 6.453093e-08 -0.007745211 1.7789149e-05 -1.68686e-11 -6.91135e-12
-1.5347656e-10 -0.012445859 1.06666704e-07 7.953575e-12 -0.018972559 -0.002000922 -7.391096e-11 -2.8980889e-11
2.5159496e-11 2.9736984e-11 2.043342e-09 -7.0049584e-09 -2.7797719e-11 -1.2479505e-11 -4.582045e-11 4.874764e-13
1.669044e-11 2.1833809e-11 5.0081068e-11 -1.2458955e-10 1.13264696e-10 -7.2943714e-11 6.0908015e-11 -1.1066496e-08
-5.684355e-11 2.2950218e-12 -8.6425006e-11 4.1616155e-12 -5.676335e-09 -8.290193e-09 -2.6039067e-11 4.2560966e-08
3.5467734e-10 -2.976893e-07 1.6534784e-09 6.194082e-11 -8.038828e-09 1.4940935e-10 6.459847e-11 -1.2548158e-08
3.075075e-13 -1.5080373e-07 2.3692878e-10 2.5269103e-11 -8.142337e-11 2.6967333e-11 4.3622688e-08 -3.116204e-11
-6.525053e-11 -9.7917854e-11 -5.4816653e-09 4.085932e-08 -3.4605256e-11 -2.4056968e-10 1.5798779e-11 6.99082e-11
3.051355e-11 2.130556e-10 6.244648e-11 5.4155267e-11 2.6267079e-11 6.459056e-11 -1.1708993e-13 1.1538309e-11
5.651339e-11 -1.2419026e-10 3.4649526e-11 1.06799855e-11 1.9433253e-09 -9.4097195e-11 -3.7187444e-11 1.6345357e-11
-0.00041126955 0.0002159633 7.130238e-05 -0.0001243442 -5.347448e-07 4.5600696e-06 -3.2382264e-05 -1.4201682e-08
1.706983e-05 -1.8334928e-05 8.548781e-05 -1.6749019e-06 -0.00025024696 3.6316702e-05 -4.287586e-07 0.00011441893
-0.0002988638 -1.4265154e-08 -0.00010076602 9.6943e-06 -5.420166e-06 -0.0003792569 -3.6846118e-06 1.33636495e-05
0.0001189717 6.9117305e-06 2.9293675e-05 0.0001368121 9.417353e-05 -3.6456855e-05 5.5737033e-05 -6.817317e-05
7.895673e-05 -0.0003795494 -0.00013550358 -1.0230112e-05 7.694409e-05 -7.26633e-05 -6.471345e-05 -9.232999e-07
4.742012e-06 4.0579907e-05 -0.00013432637 -0.00025810747 0.00047006406 1.0993337e-05 4.51581e-07 -0.00030559985
5.4247415e-05 5.3032883e-05 0.00023460184 -5.518948e-05 -0.000400479 -0.00031696298 0.0001584068 -2.3141316e-05
-0.00029283494 -6.131762e-05 -0.00019676253 -4.749017e-06 -0.00031864672 -0.00013438014 -9.779991e-06 -9.902084e-06

cbam1.ChannelGate.mlp.1.bias f4 [4]
00000000: 3d39 39bc 3563 deb8 aefe 2eae d795 39ba
-0.011305151 -0.00010604264 -3.978922e-11 -0.0007079518

cbam1.ChannelGate.mlp.3.weight f4 [64, 4]
00000000: d7c0 d52d 11e1 dcb0 5aef 49af f974 a2b8
00000010: a77b 9d3d 37a5 1a2f d30d 0c30 39cf 0cba
00000020: 5277 d12f d2aa 54af 721d 8eaf 805e 1e39
00000030: 10aa 0fb0 3cb3 6c3a 9023 e0ae 8720 1fb8
00000040: a01b 232f 0e9d 26af 3c65 a1ac 68b7 2fb1
00000050: 73d9 1e31 3147 86af 8735 3bae 2c60 dab7
00000060: 9e5e 94ad e6ac c42e 3ae6 0c2e bd4d 85b8
00000070: 9c05 212f ea6a 312f c48e a62c 7a89 7c2f
00000080: 0432 05ae 3463 802e 3a97 472f 182a 7b37
00000090: ee35 9aaf 104c 24ae 1012 95ad ffca 8035
000000a0: f099 a92f 5717 00af d601 67af ba4e ce39
000000b0: 3458 06b0 0702 8aae ff7d 4d2f 2197 87b0
000000c0: 77d0 f6af 942b 092c 6a3d 19ae 8608 6c38
000000d0: 90af 613d 2c4d 9d33 f416 7bae 34c7 a838
000000e0: 71f7 072f 5df9 9aae efc0 d3ae c2ac a332
000000f0: a459 3d3c 6f14 1faf 2fdd f12e 7ca8 e238
00000100: af3b 28bd 8ca7 2330 a3a4 e9af c348 c2b6
00000110: 5871 b8af b09d 1cab d509 fa2d c230 ef2f
00000120: 5d22 dc2f 648b fc2f deb4 1e2f 88a6 b338
00000130: 4843 7d3c e7f3 98ad f868 b02f 3558 21b7
00000140: 48fb b2b8 00c5 b7ac 80a0 df2d a8b8 a935
00000150: 50d0 042e a427 1cb2 4656 9a2f d729 293a
00000160: 1395 c32d 2aab b0af 101b b72f 9d51 3738
00000170: ed31 132f fac4 e6ae ba93 b62e c4c7 4cb9
00000180: 9210 b52c 284b 98af 39bf 002e ff21 c037
00000190: c2d5 e32e 156a 1bb9 2bd0 4bae e8dc c5b7
000001a0: 66ce e0bb 4bb6 c0af ca00 a22d cfda 6137
000001b0: 5ad1 842f cee8 902d f890 80ac f8c5 b8b7
000001c0: 45a2 8f2f ab8e 9930 8b2c 3caf a837 5638
000001d0: 9245 b03c 843c 8aae cbc2 022e 6c78 8f38
000001e0: 0a6f b33c 216b 7830 85dc 40ad bdbb 2037
000001f0: 7dc2 91b4 a758 c330 20db a02f 868e 5939
00000200: 58f9 bd31 75cf bbae 78b1 3ead 082b 0f34
00000210: 6bbd 3abd c014 1d2b b0a8 3bae 2027 0b37
00000220: 9fe1 e6bc 1f5c 8dae 706e a02f 46f9 47b7
00000230: ac14 ad3a e1db 88af 2820 63ac 480d 56b5
00000240: 8c27 fcae e851 33af 7086 58ae 9a1b b3b9
00000250: dc37 15bb 53c9 c7ae c762 382e dc6c b4b8
00000260: 124f 08ae 2d36 3831 6773 8aae a401 4837
00000270: 31aa be39 54e3 37ae 6b62 40af 1465 4337
00000280: cfa1 a6bc 183b a32e f5ba c8af 4a74 ee34
00000290: b4ef 3a3c d0fe 31af 28d7 bc2f a2c1 0338
000002a0: 1a4c 32b1 a6fe eaaf 749a 59ad c0a0 f938
000002b0: 4eed 00b2 f76d 0038 0424 13af dc75 b9b7
000002c0: 2026 38af 9077 ec2e b8bf 22af 6c2b d5b7
000002d0: 4763 e1b8 cd11 c431 5d4a b72f 26d1 17b7
000002e0: 279f 55bd fcb3 a4ad c8ad b5ad bee4 4fb3
000002f0: 7f37 37b5 cf66 16b1 ee2b 8caf 0008 5533
00000300: 393e ae3d 083a 75af cb78 632f ac06 6337
00000310: 7e5a a9ae cab7 69ad 0f40 10af 1def cab9
00000320: 7a32 1f3c 8bbd aab0 57e7 4baf ba35 6ab8
00000330: 895b 6cbd 8120 0f2f 5e96 6fae 2950 8cb3
00000340: 8fe2 0abe ab8b e2af 0c29 382f 5c1f c6b9
00000350: 8742 40bd 753c 3d2e 6eec 932e bad8 68b8
00000360: 6973 aaae fcfd ad2f 1818 972c 8627 0438
00000370: 9d44 32bd f87e 5c2e 7a3e 2f2e 22be 93b7
00000380: c6da 0fae bca4 e62c 004e 812e 10c7 c236
00000390: 574a 1fae d9fa 9ab4 1e32 73ad d344 40b9
000003a0: 1d69 903d bacf ac2e 4494 e4af 9e51 ceb8
000003b0: 9fd6 503d 78bc 742d 5674 3b2e cba0 0bb6
000003c0: 9318 a3af 0e2d 6f2d 92f6 46af a582 fc36
000003d0: b8fa b0bd 308f 932e 303a b32c 13f9 2739
000003e0: 78a1 abbb 45b8 8d2f 5cf5 dcac ba00 3cb3
000003f0: e09a 63ae fec0 66af faf6 e62d 07a2 95ba
2.4300935e-11 -1.6071074e-09 -1.8365878e-10 -7.74655e-05 0.076896004 1.4064915e-10 5.095135e-10 -0.0005371455
3.810166e-10 -1.9341975e-10 -2.5850572e-10 0.00015103258 -5.226477e-10 0.00090293936 -1.0192658e-10 -3.7938848e-05
1.4834578e-10 -1.5153409e-10 -4.5871345e-12 -2.5570106e-09 2.3115632e-09 -2.4425043e-10 -4.256642e-11 -2.6032409e-05
-1.686767e-11 8.943761e-11 3.2036797e-11 -6.356414e-05 1.4644858e-10 1.613604e-10 4.733854e-12 2.2968108e-10
-3.028512e-11 5.838388e-11 1.8152671e-10 1.4970567e-05 -2.8050756e-10 -3.735684e-11 -1.694736e-11 9.595823e-07
3.08503e-10 -1.1649824e-10 -2.100998e-10 0.00039350038 -4.887426e-10 -6.2758736e-11 1.8689404e-10 -9.865496e-10
-4.4895263e-10 1.9493062e-12 -3.484272e-11 5.6274723e-05 0.05509907 7.32492e-08 -5.709118e-11 8.047969e-05
1.2366087e-10 -7.047405e-11 -9.629441e-11 1.9054259e-08 0.0115570165 -1.4468225e-10 1.0998701e-10 0.000108079024
-0.041072544 5.9537153e-10 -4.2499435e-10 -5.790121e-06 -3.354994e-10 -5.564117e-13 2.8426076e-11 4.350849e-10
4.0042183e-10 4.5937576e-10 1.4434273e-10 8.566404e-05 0.015457936 -1.7388714e-11 3.2088798e-10 -9.616885e-06
-8.534506e-05 -5.2230442e-12 2.5423441e-11 1.2645223e-06 3.0198344e-11 -9.089408e-09 2.8073738e-10 0.0006453073
2.2235136e-11 -3.2135833e-10 3.3306735e-10 4.370661e-05 1.338731e-10 -1.0494179e-10 8.302643e-11 -0.00019529375
5.146169e-12 -2.770204e-10 2.927367e-11 2.2904014e-05 1.0360736e-10 -0.0001482147 -4.6341746e-11 -2.3587098e-05
-0.006860542 -3.5054123e-10 1.8417618e-11 1.346199e-05 2.4159413e-10 1.647429e-11 -3.6540736e-12 -2.2026696e-05
2.6126848e-10 1.1172764e-09 -1.7114325e-10 5.107341e-05 0.021517549 -6.286263e-11 2.973159e-11 6.841202e-05
0.021903533 9.0374114e-10 -1.0962902e-11 9.580454e-06 -2.7149864e-07 1.4213314e-09 2.9259528e-10 0.00020747827
5.528971e-09 -8.540627e-11 -1.08396556e-11 1.3333567e-07 -0.0455908 5.58064e-13 -4.2668702e-11 8.294155e-06
-0.028183756 -6.4283016e-11 2.91823e-10 -1.1919363e-05 0.0013205013 -2.489449e-10 -3.227649e-12 -7.974054e-07
-1.1466658e-10 -1.6309054e-10 -4.923212e-11 -0.00034162105 -0.002276889 -9.0852346e-11 4.1924488e-11 -8.6033455e-05
-3.099305e-11 2.680632e-09 -6.296013e-11 1.1921311e-05 0.00036366427 -4.181129e-11 -1.7497263e-10 1.164644e-05
-0.020340828 7.422879e-11 -3.651263e-10 4.4415566e-07 0.011409689 -1.6188584e-10 3.4349878e-10 3.141317e-05
-2.5945668e-09 -4.274529e-10 -1.2369317e-11 0.00011903187 -7.504537e-09 3.061999e-05 -1.3382367e-10 -2.2108601e-05
-1.6748247e-10 1.0753276e-10 -1.4801926e-10 -2.5411799e-05 -0.00010747328 5.7063745e-09 3.3340344e-10 -9.0489975e-06
-0.052153733 -1.872457e-11 -2.0654492e-11 -4.8403983e-08 -6.825357e-07 -2.1886313e-09 -2.5497066e-10 4.9600203e-08
0.08507962 -2.2303237e-10 2.0688444e-10 1.3531808e-05 -7.701305e-11 -1.3285326e-11 -1.3119482e-10 -0.00038706596
0.009716624 -1.2422999e-09 -1.8544931e-10 -5.5839984e-05 -0.057704482 1.3017322e-10 -5.447586e-11 -6.533839e-08
-0.13562988 -4.12084e-10 1.6749285e-10 -0.00037788867 -0.046938445 4.302732e-11 6.7267844e-11 -5.5514953e-05
-7.751206e-11 3.1648983e-10 4.294353e-12 3.150806e-05 -0.043522466 5.013498e-11 3.9845884e-11 -1.7612303e-05
-3.2708745e-11 6.5552824e-12 5.8800964e-11 5.8048245e-06 -3.621844e-11 -2.886725e-07 -1.3824079e-11 -0.00018336186
0.07051299 7.858554e-11 -4.1578307e-10 -9.838048e-05 0.05098593 1.3911643e-11 4.2622204e-11 -2.0806208e-06
-2.9666988e-10 1.3595581e-11 -1.8095594e-10 7.5253943e-06 -0.08641571 6.710221e-11 5.093946e-12 0.00016019148
-0.0052377544 2.5778682e-10 -6.2800164e-12 -4.3772822e-08 -5.175138e-11 -2.0986943e-10 2.6257652e-11 -0.0011416086

cbam1.ChannelGate.mlp.3.bias f4 [64]
00000000: c41f 093f 8f29 b7ba 673e 863e 0ed8 6a3d
00000010: de74 e8b6 8d8e 26be b428 a13e dab5 80bd
00000020: 5904 563e e17e 41bc fd94 873d e491 1b39
00000030: 1ade 6fbe 3454 433e 8ec1 66b9 0107 3ebe
00000040: aff2 893c eede 8535 e26e 643d 6e66 b33e
00000050: a154 193e 4a3a 983e 7f64 0c3e f3be dbbc
00000060: b3d1 8ebe 5e3b 0bbe 2af4 433e 9d1d e43d
00000070: e827 023d 2085 173f 979b b6be 21a3 953e
00000080: 64e6 5b3e b6a1 f23e 63a5 9bbd a511 c43b
00000090: 5874 123f e4e2 5e3e 7358 e03d 2496 573d
000000a0: 74f4 d33b f6a7 9bbe 6ed6 743e b74b 063e
000000b0: 5cb7 e83e b18d 9bbe 62e0 963d 98d8 f43e
000000c0: c21e 6fbe 2e13 013f 5941 283f 0e62 4c3e
000000d0: 91b3 9e3e 66b4 ce3e 7d58 223e da3c aa3e
000000e0: 33b9 bd3e aff1 3dbe 6d67 b33e 4eb0 6f3d
000000f0: aabb d03d 55fb af3d f491 463d c422 473f
0.53564095 -0.0013974177 0.26219484 0.057334952 -6.927744e-06 -0.16265316 0.31476367 -0.062846854
0.20900096 -0.011810035 0.06620214 0.000148363 -0.23424569 0.1907509 -0.00022006614 -0.1855736
0.016839353 9.974153e-07 0.05576981 0.35039085 0.1497369 0.2973197 0.13710211 -0.02682445
-0.27894363 -0.13596866 0.1913611 0.11138461 0.03177634 0.5918751 -0.3566558 0.2922602
0.21474606 0.47389 -0.075999044 0.0059835487 0.57208776 0.2176624 0.1095437 0.05263342
0.00646835 -0.30401582 0.23909923 0.1311482 0.45452392 -0.3038154 0.073670164 0.47821498
-0.23351577 0.5041989 0.6572471 0.1995928 0.30996373 0.40372008 0.15854068 0.3324955
0.37055358 -0.18549226 0.35039845 0.058517747 0.10192044 0.0859286 0.048479035 0.77787423

cbam1.SpatialGate.spatial.conv.weight f4 [1, 2, 7, 7]
00000000: 3f8c f42d 4a24 38ad c23e 692c d145 cb3e
00000010: 84f7 81ad 94ee 99ac c241 a7ac c05a cbad
00000020: ba90 192e ea1e 81ac 62eb 1c3e d3e5 22ae
00000030: 9a06 d22d 3027 492b 15f8 e2ad 5888 5bad
00000040: f78a 26ad a74b 1cbd e4dd f42d 1c08 94ac
00000050: 6ce3 80ad a1be 782c 8c49 2ead c160 bdac
00000060: 9723 053d e439 d7ad 967f d42d 35d4 9d2c
00000070: 9e85 9cac 586a a12c dff0 36ad 65a0 ddbd
00000080: 5054 2cac 3498 ff2c b8f0 b82c 72e3 f3ad
00000090: 567d 70ad d88d a5ac db0a 4e3d 204d 28ac
000000a0: a271 3dae 44a4 84ad baa1 56ac fae0 ec2c
000000b0: 02ae e22d 72dc db3c e39f 22ae 8ab1 2aac
000000c0: 80e8 5e29 ad23 df2d 0818 daab e4a8 0dae
000000d0: ff9e 833e 7f54 a1ad bb0d 71ad 3f87 192d
000000e0: ca69 c1ac 1122 8bad 3098 b82d 53c8 0c3e
000000f0: 5e91 0cae 4a70 722d e7ce dd2c 8b72 6f2d
00000100: 5222 152e d48f 95ac d118 9e3d 56d9 45ae
00000110: 5303 702d e12c 20ae f0aa 86aa f026 ccac
00000120: e69a 052e 8cf0 b0bc 6a89 6aad d578 c9ad
00000130: bae9 feac fae7 1cad 73e5 3e2e a252 f4ac
00000140: e937 08bd 4043 eaac 0337 602c 74e7 622d
00000150: dfdd dfad c001 02ab e831 842b 99f1 0bbd
00000160: b221 2aad d2a6 882c 0881 a0ab 32a5 e32c
00000170: 70f2 202d fb88 aead 2cf9 363d d6e2 322d
00000180: 198e 542d 6795 d4ac
2.780187e-11 -1.0467247e-11 3.314613e-12 0.39701703 -1.4775521e-11 -4.375009e-12 -4.753726e-12 -2.311873e-11
3.4916715e-11 -3.6698327e-12 0.15324166 -3.703866e-11 2.3877168e-11 7.146393e-13 -2.5803396e-11 -1.2478983e-11
-9.466864e-12 -0.038158085 2.7838128e-11 -4.2073133e-12 -1.465291e-11 3.534874e-12 -9.907086e-12 -5.382445e-12
0.032504644 -2.4468379e-11 2.415827e-11 4.485768e-12 -4.448621e-12 4.5877017e-12 -1.0398986e-11 -0.108216085
-2.4489473e-12 7.264434e-12 5.2563197e-12 -2.7726908e-11 -1.3670251e-11 -4.70533e-12 0.05030332 -2.3917049e-12
-4.307455e-11 -1.5079611e-11 -3.0501005e-12 6.732501e-12 2.57705e-11 0.026838515 -3.6976543e-11 -2.4257007e-12
4.9495564e-14 2.5368008e-11 -1.5496502e-12 -3.2209693e-11 0.25707242 -1.8341105e-11 -1.3702313e-11 8.727074e-12
-5.497135e-12 -1.5817599e-11 2.0985963e-11 0.13748293 -3.1961427e-11 1.37810405e-11 6.3041686e-12 1.3611011e-11
3.390916e-11 -4.250803e-12 0.07719577 -4.4985647e-11 1.3643159e-11 -3.641965e-11 -2.3921793e-13 -5.8023517e-12
3.0378276e-11 -0.021599077 -1.3331872e-11 -2.2904715e-11 -7.245063e-12 -8.9190825e-12 4.340479e-11 -6.944071e-12
-0.033256445 -6.6581463e-12 3.1862852e-12 1.2898006e-11 -2.5450695e-11 -4.6187706e-13 9.393016e-13 -0.034165952
-9.670863e-12 3.8838733e-12 -1.1404497e-12 6.4700684e-12 9.148779e-12 -1.9842341e-11 0.044671223 1.0168496e-11
1.2082357e-11 -6.0419894e-12

conv2Db.weight f4 [128, 64, 2, 1]
00000000: a3b1 3abc 0a4f 63bc a083 4538 c692 f8bc
00000010: 27a7 5a39 5ad0 b23b 0e94 9e39 71ba 6dbb
00000020: 00f9 cc32 6d8f 3136 e385 203a 7cd5 b638
00000030: ee4b 6839 7495 3539 a987 d2ba 8ee4 aeba
00000040: b43b cbb9 586d 18ba d4ce e638 c969 01bd
00000050: 467a 5839 f974 0eba 5e33 af36 cb0f df37
00000060: 8f37 0ebc 602f 90bb 7a1f 3b38 f7eb 9d3c
00000070: 1d85 c838 e8a0 3238 d507 6138 9463 4bbb
00000080: cd14 17bc ac14 c8ba 5eb4 a535 5847 1d35
00000090: 8ec8 02bc cbcb eabb eaac 6638 c3df f53b
000000a0: dc23 afb7 5eb8 5eb6 2aaa 34b8 aeb2 f6bb
000000b0: 6cb1 d8b8 d331 80ba 8b03 98b9 cdb7 75ba
000000c0: 272a 5039 9e94 0139 de83 26bc d887 dbbb
000000d0: 8865 75b9 be09 d7b8 c92d 41bc a431 a0bc
000000e0: c2eb be39 2e5d dd39 c4bd 28ba ff99 d5ba
000000f0: ac13 5f36 14b9 3c39 2f7b 04bb 2a80 57bb
00000100: 2eea 093b c81b ec37 da04 253a 6f6e 92bb
00000110: fa64 0438 4349 86ba ce19 5437 4f9c e9bc
00000120: ea48 003a 89ab 70bb ffed 1dbc 478e 18bc
00000130: 926e 3bb9 cfd4 673b 661f 9838 b322 9637
00000140: 105d 9e39 dbda 8336 5776 05b7 4baa 55ba
00000150: bb1d 38bc ca6f 0ebc f29d c5b7 5b75 53ba
00000160: cac4 75b9 86a8 163a 5679 09ba 072b b4b7
00000170: 3c35 b737 f8b5 31b6 a7a7 27bb 767b 82bb
00000180: 284e 5b38 27a9 923c 74aa fa39 7194 b0ba
00000190: cd87 f239 0c86 4a3b ef1a e339 c081 af39
000001a0: 8633 89ba 54e1 26bb b86b 1cbc 4a36 c3bb
000001b0: 0d27 3cbc cdbe 8bbc 6284 4fbb 91be eb38
000001c0: ab50 e638 ed73 46bc 10b8 77b7 d78a 80b9
000001d0: ea71 31b8 e917 f7bb 593f 8db8 c606 1dbd
000001e0: 205d f0ba e372 08bc 427a 8cb9 6a17 c7ba
000001f0: d36b f9b9 fe38 5537 e09f 49bb 3df1 67bc
00000200: 22d5 01bb 9786 2f39 cd7b 05bb 34c6 77bd
00000210: 7605 1539 d32a e3bd 10c8 3338 e710 80ba
00000220: baf8 ffb4 1197 d6b5 1e0b 273a 56c6 363a
00000230: 4154 ee39 f79d c2ba 05dc beb8 c280 a1b8
00000240: e9ba 063a ecff dd39 ff10 18bb 788f 3a3c
00000250: 084d b33a ae55 aaba d4a2 e437 94df 4b37
00000260: f491 9e38 1deb 093a 6f9d 6bbb 0075 a83d
00000270: 8632 9137 6a9f 2236 544e fcb9 7a04 e0bb
00000280: c897 59b9 4830 74ba 7e84 42b5 0072 cb33
00000290: 6fb8 d9ba b8e5 5cbb 94c1 57ba 677b 243d
000002a0: 58ee 9339 8a76 1fb9 9fdb c238 8ad0 05ba
000002b0: 8c8e 89b8 8602 15ba 85b3 a639 8ed9 a039
000002c0: 6969 2e3a aafa 30ba 6eee 6aba 2abd cf39
000002d0: a8de df37 0cb3 1b3a dc2e 6eba f26f 24b9
000002e0: 66f3 5e39 66ec b6b9 8d9b d3ba 7447 fb3b
000002f0: 4eee eab9 315a 333b ca31 4bb9 a42d 41bc
00000300: 02ba e6b7 cbf9 3438 495d bcba b961 4fbc
00000310: 467f 44b6 5eaa 0bbc 8198 2638 5526 853c
00000320: 5ecb dcba 3f12 803b 11c7 373a 525e 433b
00000330: 063a 35ba c134 96bd 399b c137 6475 37b8
00000340: fea2 18b9 0ac6 5435 2c36 39bb 8086 a5ba
00000350: c695 92ba 3bca 91bb 1089 8738 5be2 543b
00000360: 6a8b d138 fe4c 8639 0c85 f438 1ffb 393a
00000370: d3ce 5fb6 bcfa 943c 28a0 cbb9 5fc8 aab9
00000380: 11af 8a39 47b0 70bd aad7 d6b9 1ffe b73b
00000390: 1638 e6ba ed6e aa3c 7725 6438 aa05 99bd
000003a0: 2d01 7e3a 275c 083d c2ef ad38 7c98 3dbb
000003b0: a86b 8dba 6c0b 9039 f22b 3eb8 7a4c 07ba
000003c0: a801 98b8 6897 89bd f437 92b7 d5ad 2bba
000003d0: 5499 4abb ba58 f13b c957 a1b6 f78a aabc
000003e0: ee42 83ba 00b4 4bb5 acb7 5bba 1974 28bc
000003f0: a884 2fb8 4522 02b8 5618 0d39 dc20 10ba
-0.011394891 -0.013873825 4.7091045e-05 -0.030343425 0.00020852369 0.0054569663 0.00030246418 -0.0036274458
2.3861958e-08 2.645854e-06 0.00061234663 8.718201e-05 0.0002215353 0.00017317181 -0.0016062158 -0.0013343261
-0.0003876366 -0.00058146333 0.000110057794 -0.031595025 0.00020644916 -0.00054343004 5.2213863e-06 2.6591026e-05
-0.008680238 -0.004400179 4.461359e-05 0.019277556 9.5615374e-05 4.2588363e-05 5.3651474e-05 -0.0031034695
-0.009221268 -0.001526495 1.2345952e-06 5.8590877e-07 -0.007982386 -0.0071654073 5.4997312e-05 0.007503481
-2.0878324e-05 -3.3187894e-06 -4.3073822e-05 -0.0075286245 -0.0001033273 -0.0009780474 -0.0002899434 -0.0009373397
0.00019852129 0.00012357763 -0.0101632755 -0.0066995434 -0.00023402844 -0.000102538135 -0.011790701 -0.01955492
0.00036415277 0.0004222183 -0.00064369687 -0.0016296505 3.324104e-06 0.00017998024 -0.0020215025 -0.0032882788
0.0021044123 2.8146329e-05 0.00062949734 -0.004468731 3.1565294e-05 -0.0010245222 1.2642193e-05 -0.028516917
0.00048936775 -0.0036723337 -0.009639262 -0.009311265 -0.000178749 0.0035374647 7.253773e-05 1.7897552e-05
0.00030205445 3.9295824e-06 -7.954971e-06 -0.0008150681 -0.011237557 -0.008693645 -2.3557779e-05 -0.00080664986
-0.0002343833 0.0005747158 -0.0005244216 -2.1477708e-05 2.184009e-05 -2.6480975e-06 -0.0025582106 -0.003982003
5.2286458e-05 0.017902924 0.00047810713 -0.0013471973 0.00046259016 0.0030902652 0.0004331688 0.00033475272
-0.0010467626 -0.0025463896 -0.0095471665 -0.0059573995 -0.01148392 -0.017058754 -0.00316646 0.00011241169
0.0001098228 -0.0121126 -1.4765203e-05 -0.00024517506 -4.230618e-05 -0.007540692 -6.735203e-05 -0.038336538
-0.00183383 -0.008328172 -0.0002679397 -0.0015189473 -0.00047573316 1.2709059e-05 -0.003076546 -0.014156637
-0.0019810875 0.00016739439 -0.002036798 -0.060491756 0.00014211782 -0.110921524 4.286325e-05 -0.0009770662
-4.7678424e-07 -1.5988209e-06 0.0006372201 0.00069723034 0.00045457672 -0.0014848103 -9.100888e-05 -7.701061e-05
0.0005139546 0.0004234308 -0.002320349 0.011386745 0.0013679573 -0.0012995505 2.725554e-05 1.2151799e-05
7.561213e-05 0.000526117 -0.0035951992 0.08225441 1.7308874e-05 2.4232672e-06 -0.00048123545 -0.006836471
-0.00020751276 -0.0009315056 -7.2463433e-07 9.4736606e-08 -0.0016610752 -0.003370626 -0.00082304445 0.04015675
0.00028215605 -0.00015207581 9.2915485e-05 -0.0005104622 -6.5592205e-05 -0.0005684275 0.0003179574 0.0003067967
0.00066532806 -0.0006751219 -0.00089619204 0.00039623055 2.6687354e-05 0.0005939461 -0.0009085962 -0.00015681962
0.00021262243 -0.00034889876 -0.001614438 0.00766843 -0.0004480951 0.002736699 -0.00019378136 -0.011790667
-2.7504753e-05 4.3147982e-05 -0.0014371063 -0.012657576 -2.9280359e-06 -0.008524505 3.9719514e-05 0.01625363
-0.0016845276 0.003908425 0.0007010559 0.0029810858 -0.0006913248 -0.07334281 2.3079674e-05 -4.373993e-05
-0.00014556569 7.926434e-07 -0.0028261049 -0.0012628585 -0.0011183552 -0.0044491566 6.4628315e-05 0.0032483551
9.9918645e-05 0.00025615835 0.000116596086 0.000709461 -3.3349977e-06 0.018185966 -0.00038838503 -0.00032574215
0.00026451846 -0.05876186 -0.00040977943 0.0056150104 -0.0017564322 0.020804847 5.4394328e-05 -0.074717835
0.0009689506 0.03329101 8.293941e-05 -0.002893 -0.001078953 0.0002747433 -4.5340457e-05 -0.0005161237
-7.248233e-05 -0.067183316 -1.7430611e-05 -0.00065490353 -0.0030914145 0.0073653134 -4.8083934e-06 -0.020818217
-0.0010014453 -7.588533e-07 -0.0008381556 -0.010281586 -4.1846797e-05 -3.102633e-05 0.00013455874 -0.00054980605

conv2Db.bias f4 [128]
00000000: 82a8 dbbb 4ae7 1cbd 1b4f 3c3e ce4d d6bb
00000010: 0232 2dbe 8987 73bc ba2d 9f3d 1410 9abd
00000020: d37b 35bb a19d 013e 6090 baba 8120 a23d
00000030: 556d 5f3d 4352 ab3d 64a5 033b 0d2f 573d
00000040: 8771 febb 2eb1 03bd 8779 fd3d 1977 10bc
00000050: ae55 1f3e a329 213e bf97 a3bd 8427 69bd
00000060: 116a 84bd 0818 85bd 02cc bb3d 1759 273e
00000070: 2873 1d3e b381 acbb b140 5c3d 0177 82bc
00000080: 507d 08bd b92d 103e 13bc fa3d 064e dbb9
00000090: 2f7f cbbc ec95 8dbb 3baa 663d 6a3f bdbc
000000a0: c2ef 4c3d eb5a f3bc b3d5 7dbd 6c4b 253d
000000b0: 86f1 1e3d f501 a5bd 44a2 9d3d 8b7c 8e3d
000000c0: 6cb6 a2bb 11b6 c6bd 5177 84bc 980c de3d
000000d0: 912e 2c3e b6eb 8aba c8c6 b13d 9595 6abd
000000e0: 1fc3 6b3e 17f4 cb3d 59a7 7abb ebc0 9bba
000000f0: ae26 1a3e b120 b5bd d6d0 ed3d 4861 153d
00000100: 3fcf 38bd 57b6 013e ea3b 43bb bcdf 82bd
00000110: 2ebd 143d 70ec d6bc b43e 7cbd 8e8d 04be
00000120: d296 a3b9 4124 90bd 6cc4 39bb cd01 fabd
00000130: c5aa 313d b499 073d b1f5 02bd a54c 41b9
00000140: 11e9 e03c fd7d 3fbb be2b 86bd a932 763d
00000150: 46ee 9e3c bb84 49bd f87a 773d 3909 95b9
00000160: b861 c3bb a0dc 6b3d 9b58 f73d 6e27 a63d
00000170: 69e6 70bb 9d2a 76bc 814e 5f3d f2ba 9bbd
00000180: 23e2 c6bc 6949 e23d 8271 a5bd d984 3fbd
00000190: a8d5 8a3d 3c39 ba3c 2400 61bd e70c 0eba
000001a0: 083b 5abc 651f e9bc a1c9 6bbc 626c 01bc
000001b0: 43d4 7dbd a84e b23d dd37 2bba b2a5 afbd
000001c0: 48e7 76bc 3558 b03d f680 31be 2e5d 0bbd
000001d0: e66f babd 9adf 8b3d 9dfb fe3b 69c0 df3d
000001e0: b4e6 41bd bc12 b9bc 53e3 de3c a4d4 f03d
000001f0: aa2f f6bd 7403 c23d 2d88 803d 10e9 fdbc
-0.0067034373 -0.038306512 0.18389551 -0.0065400368 -0.16913608 -0.014863857 0.077723935 -0.07522598
-0.0027692213 0.12657787 -0.0014233701 0.07916356 0.054547627 0.083652996 0.0020087594 0.052535105
-0.0077649984 -0.032151394 0.12376695 -0.008817458 0.15560028 0.1573854 -0.07987928 -0.05692245
-0.06465543 -0.06498724 0.09169771 0.16342579 0.1537596 -0.005264485 0.053772632 -0.015925886
-0.033322632 0.14079942 0.122429036 -0.00041829067 -0.02484092 -0.0043208506 0.05631469 -0.023101527
0.05003334 -0.029706439 -0.061971378 0.04035513 0.038804553 -0.08057014 0.07696965 0.069573484
-0.004965594 -0.09702695 -0.016170176 0.10842246 0.16814639 -0.0010598812 0.08680493 -0.05727156
0.23023652 0.09958666 -0.003824672 -0.0011883056 0.15053818 -0.08844126 0.11612098 0.036469728
-0.04511952 0.12667213 -0.002979035 -0.0639033 0.03631323 -0.026235789 -0.061583236 -0.12944624
-0.00031202153 -0.07038165 -0.0028345836 -0.12207375 0.04337575 0.033105567 -0.03197259 -0.00018434467
0.027454885 -0.0029219382 -0.06551312 0.060106907 0.019400727 -0.049198847 0.060420007 -0.00028426366
-0.0059625767 0.05758345 0.12077447 0.08112989 -0.003675843 -0.015024808 0.054518227 -0.07604016
-0.024277752 0.11049158 -0.080782905 -0.046757553 0.06779033 0.02273237 -0.054931775 -0.0005418793
-0.013319738 -0.028457353 -0.014391334 -0.007899376 -0.061970007 0.08706409 -0.00065314566 -0.08576526
-0.01506979 0.08610574 -0.17334351 -0.03402441 -0.09103374 0.06829758 0.0077814595 0.10925371
-0.047339156 -0.022591941 0.027208006 0.11759308 -0.1202081 0.09473315 0.062759735 -0.030994922

cbam2.ChannelGate.mlp.1.weight f4 [8, 128]
00000000: d8af 35bd 7118 61bd 0576 973b 24b1 a8bd
00000010: f45d 13b0 6137 babd 798b c5bb 54c1 6abd
00000020: bdbb 45bc c69e e92e 9853 dfac 76a3 6bb0
00000030: ffab 68ad 009f 97b8 bb1b f2b1 c682 f9ac
00000040: 4b1e 02bd 152d 0238 614f 122f 1165 7e3a
00000050: 224f 35bd 738f 0fbd 7413 b2b1 363e fb2d
00000060: 2c8b 962e 0bc3 63bd b071 5ebc 3398 0dbd
00000070: 2602 b6bb d403 4dad b3aa 82bd e4f8 52bb
00000080: ca70 12bc d580 003b bad0 3dae 0ae8 3fad
00000090: e160 c3ad f132 9eb6 54c0 ffb6 56d5 45bd
000000a0: c8ee 68ad 5882 79bd fe6d 312f 2c9f a1bc
000000b0: 39b1 37bc 464e 50bd 91f3 2f2e 2382 01bd
000000c0: 75ef c8b5 50da a1af 4fe7 943c 3f3b 89bb
000000d0: 12cc ee2d bdca 9038 48ee 282e b5a4 7cbc
000000e0: 125d 34bd 413d b0ba 66e3 853a c237 10bc
000000f0: c44e 96ae db72 cabc 2259 27ad ff39 ad3b
00000100: ca57 a2bd e1c2 27bb fc9f c2bc 92b4 9ebc
00000110: f24a 29bd 2136 19ae 46c9 36bd 8869 342d
00000120: 205a 5eae 7bf9 b03b 74a1 86ae 60d1 5abc
00000130: 3243 ecae 6b0d 98bc 7021 23ab e449 5eb0
00000140: 6636 d2ad cf11 6cbd 1025 9c2d afa9 26bd
00000150: 4e4c 002d 1b95 51bc 9e31 b6ad 7743 6dbc
00000160: 60c9 08ac 93c8 55bb 0e08 7a32 742b 96ae
00000170: ecf6 0fae 68d6 352e 8d55 012e 1af2 fe2d
00000180: b716 1d2e e066 8cae 1da6 04b7 7e4b a2ad
00000190: 3c43 4a2d f9ac 62ad fe79 14bc 7c44 1a2e
000001a0: e59c 392d bddc 023c 44d2 92ad d80d 892e
000001b0: ad6d 5cbc 083b db3b b872 f435 c91e e6bc
000001c0: a226 1d2d 3640 3f3c 5919 94ae 854d 32b6
000001d0: 645e bfbb 6721 29ae 502a 502d 6494 e1af
000001e0: fb9a 07ae 72e4 7f2e ccbb bd30 18d9 b1bc
000001f0: 322d e3ad fb04 8d2e 847d 26bd 1881 5cbc
00000200: a534 44bd ddbd 2bbd 1f87 96bc 1e1b 903c
00000210: 42d2 cb2c 7d7c 853c f8e6 01bb 630e 213c
00000220: 858b 2fb9 a6d0 212e f07d cf2d cb0d 49af
00000230: 01db 682e 0e23 38b6 d743 36b2 5de8 e42d
00000240: 57cd 6a3b 8873 fab6 4927 acad 0c06 45bb
00000250: 3d06 2abc 2b76 a0bc 5530 8f30 03a5 792d
00000260: 54e7 b62d a346 43bd ff0d 7539 6173 bcbc
00000270: 7bc2 c7ba b877 60ad 34da aabd 5d99 53b9
00000280: 96e9 2fbc 280e 90bc 8ce2 712e 0cb1 e9ac
00000290: c33f f5ad 849b 5d2f 50c7 e633 46ef 90bd
000002a0: 12a5 0ead e32f cabc ca0d 7dad f403 f0ba
000002b0: f8c3 063b 3f1a eabc 1088 ca2b 7d75 dcbb
000002c0: bb0e a732 b26b e2af 5c70 38bd 347c de38
000002d0: 70a7 3e2e 04ee e1b8 8ad0 c62c 42f4 0fbb
000002e0: 264c 92bc fe12 19b9 90a0 56bb 002e 29b7
000002f0: 50dd 002b cb2f 8abc f775 3bae a0e6 cebc
00000300: 968e 4c3c 12c4 80bb d911 81bc 4ec8 783c
00000310: 9af8 8abc f0aa c72c b3e7 e13b 99ac 12ad
00000320: c47d 4fae cebf 7bbd d89d d0aa 1104 60bc
00000330: b059 07ae 3f1a debb 3264 34ae 9842 c9ae
00000340: b3b3 372e e4fc e6bc 2267 022f a8d3 b8bb
00000350: d0a8 d22d 3d55 cdbb 28a6 e1ad a1ec 30bc
00000360: bc2a 942c 514d 47ba f5bb da30 75bf 162e
00000370: 30ff 0cae 2f42 9ead 0a40 8e2e fa42 7ead
00000380: fd62 5aad db2e 51ae e8b5 4132 3249 7cac
00000390: cae9 da2e 280c 322e a510 a3ba 8786 2eae
000003a0: 50d6 e52d 7f48 233c 88d7 c92d 2ece 9d2d
000003b0: a8ac 73bc fc55 293c 7269 1134 88dd 13bd
000003c0: f69d 782e 4d34 51bd 83b7 d82d b93d 6632
000003d0: c93e 96bc 3636 1f2c 9bca 542e aa4f 0030
000003e0: 54f1 0a2c c9cd ed2c 8a97 91af dd9c 08bd
000003f0: 9ad3 91ad 524d 3dae 6c3f febc 034b 54bb
-0.04435715 -0.05495495 0.0046222233 -0.08236912 -5.3611804e-10 -0.09092594 -0.0060285893 -0.05731328
-0.012068686 1.0623817e-10 -6.347322e-12 -8.5724794e-10 -1.3225864e-11 -7.229857e-05 -7.0462796e-09 -7.0915244e-12
-0.03176717 3.10364e-05 1.3306824e-10 0.0009704391 -0.04426492 -0.035048913 -5.1826934e-09 2.8563023e-11
6.845932e-11 -0.05560593 -0.01357691 -0.034568977 -0.0055544553 -1.1653751e-11 -0.063802145 -0.0032191807
-0.008938024 0.001960804 -4.315901e-11 -1.0908616e-11 -2.2211956e-11 -4.7146973e-06 -7.621982e-06 -0.048299156
-1.3240693e-11 -0.06091532 1.6137133e-10 -0.01972922 -0.011211687 -0.050855897 4.0006724e-11 -0.03161825
-1.4970852e-06 -2.944085e-10 0.018176703 -0.004187971 2.7148093e-11 6.904218e-05 3.8410414e-11 -0.015420129
-0.04403407 -0.001344599 0.0010214865 -0.008802356 -6.835202e-11 -0.02471297 -9.512642e-12 0.0052864547
-0.07926901 -0.0025598335 -0.023757927 -0.019373212 -0.04133124 -3.483625e-11 -0.044625543 1.0255248e-11
-5.0557003e-11 0.005400834 -6.122294e-11 -0.013355583 -1.0743974e-10 -0.018561086 -5.7955637e-13 -8.0868134e-10
-2.3898394e-11 -0.05763417 1.7751606e-11 -0.040689167 7.292901e-12 -0.012791897 -2.0713039e-11 -0.014481417
-1.9438548e-12 -0.0032620772 1.4553747e-08 -6.828929e-11 -3.2733746e-11 4.1345066e-11 2.940719e-11 2.8983971e-11
3.5717842e-11 -6.384737e-11 -7.906489e-06 -1.8450793e-11 1.14973e-11 -1.288502e-11 -0.009062288 3.5076372e-11
1.055087e-11 0.007987198 -1.6691655e-11 6.232498e-11 -0.013453883 0.0066903867 1.8212804e-06 -0.028090851
8.932995e-12 0.011673024 -6.7347634e-11 -2.656919e-06 -0.0058401097 -3.845582e-11 1.1832826e-11 -4.10327e-10
-3.0833096e-11 5.8183187e-11 1.3804935e-09 -0.021709964 -2.5826983e-11 6.4128224e-11 -0.040647045 -0.013458513
-0.04790177 -0.041929115 -0.018374978 0.017591055 5.7929503e-12 0.016294712 -0.0019821506 0.00983009
-0.00016741276 3.679248e-11 2.3589103e-11 -1.8285744e-10 5.2945207e-11 -2.743854e-06 -1.0609219e-08 2.6023789e-11
0.0035827958 -7.46403e-06 -1.9571582e-11 -0.0030063419 -0.010377464 -0.019587597 1.0418356e-09 1.4190651e-11
2.0793735e-11 -0.047674786 0.00023370235 -0.023004236 -0.0015240455 -1.2759509e-11 -0.083424 -0.0002017966
-0.010736844 -0.017584875 5.499827e-11 -6.6419144e-12 -2.7881591e-11 2.0155083e-10 1.0746464e-07 -0.07076888
-8.1084185e-12 -0.024681037 -1.4384447e-11 -0.0018311725 0.0020563584 -0.028576968 1.4390728e-12 -0.006727873
1.9448057e-08 -4.1185683e-10 -0.04502903 0.000106089195 4.3349713e-11 -0.0001077317 5.650651e-12 -0.0021965657
-0.017858576 -0.00014598292 -0.0032749511 -1.0083895e-05 4.578187e-13 -0.016868493 -4.262365e-11 -0.025256455
0.012485167 -0.0039296234 -0.01575558 0.015184475 -0.016964246 5.674898e-12 0.006894076 -8.3374635e-12
-4.7178053e-11 -0.061462216 -3.7057748e-13 -0.0136728445 -3.0775105e-11 -0.006778031 -4.1016253e-11 -9.152251e-11
4.1768988e-11 -0.02819676 1.1860071e-10 -0.0056404658 2.3949204e-11 -0.0062662647 -2.5653327e-11 -0.010798604
4.2111575e-12 -0.00076027686 1.5915008e-09 3.42761e-11 -3.2058967e-11 -1.7991912e-11 6.468788e-11 -1.44531e-11
-1.2413845e-11 -4.7562714e-11 1.1275439e-08 -3.5851985e-12 9.9550215e-11 4.048331e-11 -0.0012440874 -3.9682504e-11
2.612946e-11 0.009966015 2.294677e-11 1.7940396e-11 -0.014872707 0.010335442 1.3542538e-07 -0.03609994
5.652897e-11 -0.05107527 2.4637853e-11 1.3401796e-08 -0.018340485 2.2625352e-12 4.838317e-11 4.667934e-10
1.9744944e-12 6.758792e-12 -2.648302e-10 -0.03335272 -1.6578561e-11 -4.30423e-11 -0.031036101 -0.0032393343

cbam2.ChannelGate.mlp.1.bias f4 [8]
00000000: c80a e2bb add5 7736 aa7d 16bd 3a48 9a37
00000010: 38fd 86bd 6d1c 563d 229c 393d 1065 183e
-0.006898258 3.6930244e-06 -0.036740936 1.8391864e-05 -0.065912664 0.052273203 0.045314915 0.14882302

cbam2.ChannelGate.mlp.3.weight f4 [128, 8]
00000000: 24bb 902e c3e3 5fae 7c15 152c c14e 96ae
00000010: d073 37b9 b099 5637 5e19 78b4 1d44 8eb8
00000020: 6be7 05bc 3ab0 fabd b291 bd3c 8492 5b3d
00000030: f2b7 fa3c 1ba7 8fbc f12e 83be 795b 203d
00000040: 0c0f 1aaf 5d02 33b5 b21a 41af aa9d 9430
00000050: 8f12 99be 0a9e 63be db0c 713a c434 60bb
00000060: 69ff 87ba d0e3 3abd e3da 85b8 2f94 50bc
00000070: 67cd 2dbe 25cf 0b3e 2afd b53d 1d33 de3d
00000080: 1cdd cfae baf4 60af dc0b c9ac 1726 08ae
00000090: a440 efbd d480 823b a9ff 46b7 f383 4c3b
000000a0: 7639 5bb7 0a68 0e3d 3203 39b4 8077 86bb
000000b0: 4a86 b0bc f62a e4bd eebe 5fbd 0bcc 6fbe
000000c0: e27c 4cad 6fab c7ad 007b d1ad de05 86ae
000000d0: 7e9c 43be 4344 b9bd 5de6 6d3a 0705 44be
000000e0: a3e4 bd2e eb1e 282f e47e f0ac dcf1 a52e
000000f0: 5757 afbd 8a15 96bd 5dc7 fb38 500e a8bd
00000100: bcbd 7f30 8e80 223a c9eb d42f 9739 2a32
00000110: fb43 efb9 af59 9eb8 6b0d beb7 7511 9ab9
00000120: 6a0d 07ae e35f fbae c51b 7caf 282d c02f
00000130: f07a e43e ecb0 873d 9c5e 283c 5fbc c93d
00000140: cecb edae 7065 3aaf 50ea c3ae dc70 352d
00000150: 5b17 e4b7 dc92 46b6 fc53 7b31 9dc0 1fb6
00000160: 3ea2 4faf 5f8d c3b2 667f f92e 46d8 80af
00000170: e563 24be b942 35bd 0a96 c0b6 77d0 d939
00000180: 7c64 802f c58e da2d f0ae 12ae ace1 d82d
00000190: f405 9d3e bfc0 503d 9d0b 8a3a ba98 783d
000001a0: 68aa 53ad 3c7d 7c2e e4e5 59ad a75c d930
000001b0: 8c73 3c3d 7668 dfbd 16e8 043d ca41 c7bd
000001c0: e08a ff2e 58a5 b5af 9827 2fae bb1b 2a2f
000001d0: c69b 87bd caa2 583e a189 adba b8a6 083f
000001e0: 5017 962e 53e4 a1ac 1d18 1aae df4b 64af
000001f0: 507b a0bd 935f 2c3d 2f35 933a 1bee b3bb
00000200: 93e6 5abc bca2 e3bd f8d0 363a 0f74 f73a
00000210: 4f7e cb3c d101 c6b9 a611 283d 0114 25bd
00000220: 8ae4 162e f907 342d f54a 9c2e b0ea ed2e
00000230: 7e73 0d3f 2789 f3bc 53f9 2c3b ea9b 003e
00000240: 9459 8fad 9cc7 992d e38c 25ae cd0f 8b2e
00000250: 971b 423e 4ee2 c63d cf82 e5bb d5b5 4abc
00000260: 15f5 87b0 a416 023b 1cb0 7baf 63c6 72b4
00000270: ed09 19ba 7ad5 69b9 552a 133a 4d5a d1b9
00000280: b2a6 11b3 b5e6 cfbb ab06 23b0 4a66 8c38
00000290: ec7c b2be 0d6a 343e 6ae5 08bc b3c3 c5bd
000002a0: 152b 09af f5af 7e2d f4d7 08af 923b 8230
000002b0: 00ac 77be 08b3 7b3c c70c 333c f785 1a3e
000002c0: 0322 492e 1630 61af c409 cdac dc30 6d2d
000002d0: 24a7 08be 6a6c 00be a41e 7cb9 583d ecbd
000002e0: fac0 e7ad d889 df2c a1a3 a7ad 578e 7eae
000002f0: 4c3c ec3c 162d 5c3e 2f9c e739 d2a7 e33e
00000300: c40f 85ad 5f0b 4ead f37b 1eaf 5f6c 042f
00000310: 770d b73c 2d7a e4bc 645a 4cb7 4dbf b5bc
00000320: 677f 893c 5895 0c3e 591f deba adf8 b5bd
00000330: dbd1 31bc 1ff8 fbb9 797e 10be 2814 323b
00000340: 5145 442e 2e65 26af b8f4 a22e 2fe2 8eaf
00000350: d03b 803e fa81 043e 8081 993a 54c4 5fbd
00000360: 96f4 1bb9 a5be 82bd f8cb fc31 58a6 8f3a
00000370: a7b6 8ebd b3b3 55be ad7d aa3d 2266 7ebe
00000380: 0aaf fcae 74e8 60af 3782 6a2e 890d bc30
00000390: e04f af3e 2b3e be3d 0f8f 5aba f938 f33c
000003a0: 685c 7e2e fd8e 0b2e 29dc 162f 7858 cdac
000003b0: 7e79 193e c084 613d d332 ed39 82a7 d13d
000003c0: ad0f 6239 bc79 c3bd 47e0 0eb2 b68b 0d3c
000003d0: fc9c 4bbe 88bf 56bc 3878 a63b e043 78be
000003e0: 62cc b02e fea6 79b1 8ccf b22e 73ca 8caf
000003f0: d2d4 263e 857c da3e ea97 973c 5e89 f93d
6.581605e-11 -5.0906623e-11 2.11861e-12 -6.8352e-11 -0.00017495384 1.2791177e-05 -2.3106028e-07 -6.783775e-05
-0.00817285 -0.12240644 0.023140762 0.053606525 0.03060529 -0.017535737 -0.2562175 0.039149735
-1.4011564e-10 -6.6686135e-07 -1.7562732e-10 1.0813228e-09 -0.29896972 -0.22228256 0.0009195336 -0.0034211138
-0.0010375801 -0.045627415 -6.382705e-05 -0.012730642 -0.16972886 0.13653238 0.08886178 0.10849593
-9.452547e-11 -2.0459626e-10 -5.7140803e-12 -3.095665e-11 -0.11682251 0.0039826427 -1.1861245e-05 0.0031206578
-1.3066796e-05 0.034767188 -1.723063e-07 -0.004103601 -0.021548409 -0.11141007 -0.054625444 -0.2341768
-1.1623787e-11 -2.2699813e-11 -2.3815172e-11 -6.094657e-11 -0.19102666 -0.09046223 0.00090751593 -0.19142543
8.635339e-11 1.5290495e-10 -6.835298e-12 7.546294e-11 -0.08561581 -0.07328327 0.00012005747 -0.08205855
9.303809e-10 0.0006198966 3.873011e-10 9.908397e-09 -0.00045636282 -7.550732e-05 -2.2656013e-05 -0.00029386175
-3.070736e-11 -1.14311914e-10 -2.2929132e-10 3.4956682e-10 0.44625044 0.06625542 0.010276463 0.09850382
-1.0813715e-10 -1.6952639e-10 -8.9091956e-11 1.0313719e-11 -2.7190594e-05 -2.9589783e-06 3.6573047e-09 -2.3804962e-06
-1.888418e-10 -2.2765276e-08 1.13458395e-10 -2.3436736e-10 -0.16053732 -0.044253085 -5.7395127e-06 0.00041544784
2.3354463e-10 2.4847133e-11 -3.3351932e-11 2.4656575e-11 0.30668604 0.050965067 0.0010532025 0.060692526
-1.2031799e-11 5.7409397e-11 -1.2386068e-11 1.5815161e-09 0.04600863 -0.10908596 0.032447897 -0.09729345
1.16207266e-10 -3.3041192e-10 -3.982556e-11 1.5471262e-10 -0.06621508 0.21155849 -0.0013239869 0.5337939
6.8253514e-11 -4.6012443e-12 -3.5036963e-11 -2.0763434e-10 -0.0783602 0.042083334 0.001123106 -0.005491031
-0.013360637 -0.111150235 0.0006973888 0.0018879193 0.024840502 -0.00037766856 0.041032456 -0.04030228
3.4309035e-11 1.0233586e-11 7.107374e-11 1.0819201e-10 0.5525435 -0.029728485 0.0026393726 0.12559476
-1.6296998e-11 1.748273e-11 -3.764179e-11 6.323795e-11 0.18955837 0.09711133 -0.007004119 -0.012372454
-9.892199e-10 0.001984992 -2.2890884e-10 -2.2610179e-07 -0.0005837966 -0.00022300138 0.0005613913 -0.00039930866
-3.3912052e-08 -0.006344641 -5.930853e-10 6.694773e-05 -0.34860933 0.1761858 -0.008355478 -0.09656467
-1.2475383e-10 1.4477299e-11 -1.244585e-10 9.475676e-10 -0.24186707 0.015362509 0.010928339 0.15090166
4.5732317e-11 -2.0480714e-10 -5.8275346e-12 1.3482739e-11 -0.13345009 -0.12541357 -0.00024044007 -0.11535138
-2.6347358e-11 6.353345e-12 -1.9058368e-11 -5.7879337e-11 0.028837346 0.21501574 0.0004417612 0.44463974
-1.512735e-11 -1.1712269e-11 -1.4414052e-10 1.2043831e-10 0.022345288 -0.02789029 -1.2180393e-05 -0.022185946
0.016784383 0.13728845 -0.0016946598 -0.08885322 -0.010853256 -0.00048059315 -0.14110745 0.0027172659
4.4626806e-11 -1.5133558e-10 7.410378e-11 -2.5990363e-10 0.25045633 0.12940207 0.0011711568 -0.054630592
-0.00014873067 -0.06384019 7.357354e-09 0.0010959608 -0.06968432 -0.20869331 0.08324752 -0.24843648
-1.14907264e-10 -2.0455265e-10 5.3321094e-11 1.3682647e-09 0.34240627 0.09289201 -0.00083373574 0.029690253
5.7834987e-11 3.173194e-11 1.3720637e-10 -5.8362724e-12 0.14987752 0.05505824 0.0004524203 0.10237028
0.00021558879 -0.09544703 -8.316483e-09 0.008639267 -0.19884104 -0.013107188 0.005080249 -0.24244642
8.039859e-11 -3.6329193e-09 8.1313706e-11 -2.56097e-10 0.16292122 0.42673126 0.018505055 0.12184404
