pishgu/models/test_org_domain/univ.pt (torch, 446628 bytes, 33 tensors)

conv2Da.weight f4 [64, 2, 2, 2]
000000 4a d4 cf bb e9 fe b3 3e 76 3b c2 3e f1 79 0f 3f
       -0.0063424455 0.3515542 0.3793599 0.5604544
000010 e3 d3 74 3d 7d 22 1d bc 81 06 87 3d c1 ff fa bc
       0.059772383 -0.009590742 0.065930374 -0.030639531
000020 65 6f 6d bd 3e dd 05 bd 2b dd 57 bd 3d 2b de bb
       -0.057967562 -0.032681696 -0.052701157 -0.0067800567
000030 85 d6 41 bd 29 be 1f be ff 01 e3 bd 21 f8 f9 bd
       -0.047323722 -0.15599884 -0.11084365 -0.1220553
000040 84 94 1a 3e ce 2f 25 be 9a 2d f4 3e 4f c5 35 bd
       0.15095717 -0.16131517 0.4769104 -0.04437762
000050 2c 11 2b 3e aa e2 f8 3b 0a e0 10 3e 04 51 b2 3d
       0.1670577 0.00759538 0.14147964 0.08706859
000060 b1 90 8e be ed a8 dd bd 40 1a d9 be c9 b9 05 3e
       -0.27844766 -0.10823236 -0.4240284 0.13059153
000070 3f 6e 9c 3b ca 47 74 3e 6e 61 99 3c 73 81 93 bc
       0.0047738845 0.2385551 0.018723216 -0.018006062
000080 d7 2e 0d bd f6 01 b0 bd 94 fa 8e bc eb 87 8a bd
       -0.034468498 -0.08594124 -0.01745347 -0.067642055
000090 1d 66 58 be b1 e4 31 3d 8e 60 54 bd f3 58 7a bd
       -0.21132703 0.043430988 -0.051849894 -0.061119985
0000a0 c7 0e d0 be 85 9f 15 bf 65 c0 00 bf 0e 09 26 bf
       -0.40636274 -0.5844653 -0.5029357 -0.64857566
0000b0 bb 6e 63 3e de 47 53 3d 43 4b 95 3d 7d 13 50 3e
       0.22210209 0.05158221 0.07289746 0.20319934
0000c0 88 1e 06 bb 49 9b cf 3a 7c d2 4d bb 62 3b d6 3a
       -0.0020464975 0.0015839125 -0.0031405976 0.0016344602
0000d0 fa 1c 8e 3c 85 44 31 bd a1 cf f8 bc 3b 3b c0 3b
       0.017347801 -0.043278236 -0.030372443 0.005866436
0000e0 c2 fd 11 bd 94 d0 ab 3e 51 7b 04 3d 08 3b 11 3f
       -0.035642393 0.3355757 0.032344166 0.567307
0000f0 fe 76 a0 bd 26 41 b5 bc 53 83 03 be c5 f1 1d 3e
       -0.07835196 -0.022125792 -0.12843065 0.15424259
000100 aa 46 8c be 5c c9 cc bd dd 38 0b bf 28 d6 b4 3e
       -0.27397662 -0.09999344 -0.5438364 0.35319638
000110 a3 90 2c be c2 79 1f 3e 62 bb 05 3d e6 3c 6d 3e
       -0.1685205 0.1557379 0.032649405 0.23167762
000120 e3 dc b6 be d9 77 47 bd 0b 5b fd be 30 14 b5 bc
       -0.35715398 -0.04869828 -0.49483523 -0.022104353
000130 a3 8b 00 bd a8 d6 fc bd dc b2 3c 3d d3 77 85 3d
       -0.031383168 -0.1234563 0.04606901 0.06516995
000140 89 ad a4 be 3b 7e e6 3d 79 20 ea be 77 45 ee 3e
       -0.32163647 0.11254545 -0.457279 0.46537372
000150 b5 06 36 be bf d8 2f bc 94 e3 37 bc 1f 92 16 3e
       -0.17775996 -0.010732829 -0.011223692 0.14704178
000160 97 a8 a4 bd 1b 2d 94 bf aa 0a 2e be 9d 4e b0 bf
       -0.080399685 -1.1576265 -0.16996256 -1.3773991
000170 88 33 bd 3e 9a a9 ec 3d 3d ab 28 3e 33 b4 11 bd
       0.36953378 0.115557864 0.16471572 -0.035572242
000180 22 63 a0 be 1b ad 88 3e 82 ca 06 bf 37 e1 c0 3e
       -0.31325632 0.2669457 -0.5265275 0.37671825
000190 93 76 de bc 4f 55 63 be 1e 3c e0 3d 03 24 a2 bc
       -0.02715615 -0.22200511 0.109489664 -0.019792562
0001a0 51 ca 19 3e a9 6f 98 3b e0 a8 2d 3e 90 4f a4 bb
       0.15018584 0.004651983 0.16958952 -0.0050143674
0001b0 8b a0 3f bb d3 dd b1 bd cf 18 27 3c 00 09 1e 3c
       -0.0029239978 -0.08684888 0.010198786 0.0096457
0001c0 6f e5 c3 be 55 37 9b 3d 70 84 e6 be 0e 99 29 3e
       -0.3826098 0.07578913 -0.45022917 0.16562292
0001d0 f0 b0 c5 3d 73 d1 d4 3d d7 4a 20 3e 24 28 c0 3d
       0.09652889 0.10391512 0.15653549 0.09382656
0001e0 16 fb 93 3e ab 30 50 be 29 5c f7 3e 17 25 6a be
       0.289025 -0.20331065 0.483125 -0.22865711
0001f0 e7 ef 58 bc 20 77 21 3e dd e3 2d 3e 9b d7 c9 bd
       -0.013240791 0.15768099 0.16981454 -0.098555766
000200 49 5d 08 bf 25 5c 6e 3e f2 1e 50 bf 3c 85 ba 3e
       -0.5326734 0.23277338 -0.8129722 0.36429775
000210 9b 22 ea bd 3c 36 0b be f1 6a 80 3e 60 c2 bb 3d
       -0.11432382 -0.13594908 0.2508159 0.091679335
000220 fe f8 ba 3e 9b db 62 be 8c 97 a0 bb c7 cd 95 be
       0.3651809 -0.22154085 -0.0049008783 -0.29258558
000230 ca 9b 86 3d 89 2e 2c 3d 67 10 79 bd e7 cd 42 be
       0.06572683 0.042036567 -0.060806658 -0.19023858
000240 86 48 9d be 0f d6 e8 be 0e cf f3 be 31 87 0c bf
       -0.30719393 -0.45475814 -0.47618908 -0.54893786
000250 1e f7 ae bd 6c b5 55 3d fc 6e c9 3d a8 e3 48 3c
       -0.085432276 0.05217497 0.09835622 0.012261309
000260 b0 db a6 bd c4 02 e8 3b 65 bf a5 bd b0 80 16 3b
       -0.08147371 0.007080408 -0.08093146 0.0022964887
000270 21 a0 20 ba 9c 72 a8 bc 1e dd 52 bd af f5 81 bd
       -0.00061273767 -0.020562463 -0.051480405 -0.063456886
000280 9e d5 92 be 93 b4 86 be dd 2d 91 be b7 2e ae be
       -0.28678602 -0.26309642 -0.28355303 -0.34020016
000290 8a d3 b1 3d cb 7a 88 be c7 0e 86 3d 24 2d f4 bd
       0.08682926 -0.26656184 0.06545787 -0.119226724
0002a0 89 a6 9b be 1e 65 aa 3d 17 6b 19 bf f2 26 26 3e
       -0.30400494 0.08320068 -0.5992903 0.16225794
0002b0 c9 11 b7 3d a7 1c 1a 3e 48 b0 64 3b e0 29 31 3e
       0.08938939 0.15049993 0.003489511 0.1730113
0002c0 7e 12 41 3e 1b 90 fb bd da 35 ec 3e 8e 98 d5 be
       0.1885471 -0.12283345 0.46134835 -0.41717952
0002d0 d6 75 a6 3e fa d2 26 3e 0a dd 86 3d 5c 51 49 be
       0.32511777 0.16291419 0.065851286 -0.19659942
0002e0 bb 21 3e bd 45 91 c6 bb e9 0f a5 bd 26 1c 89 bb
       -0.046418887 -0.006059798 -0.08059675 -0.0041842638
0002f0 86 82 a9 bb f8 7c 88 bc 4e 1d ea bc 06 de 82 bb
       -0.0051730303 -0.016661152 -0.028578427 -0.0039937524
000300 9d 8a 47 ba ce 27 b0 3a 2e 61 5a bb c1 d4 e9 bc
       -0.00076119025 0.0013439597 -0.0033322084 -0.028543832
000310 b3 32 90 bc 90 a3 15 bc fd 15 1a bd 1a c6 89 bd
       -0.0176023 -0.009133235 -0.037618626 -0.06727238
000320 7a 87 6e be a2 37 a7 be 45 f7 ed be 4e dd 63 be
       -0.23293868 -0.32659632 -0.46477714 -0.2225239
000330 c4 16 dd 3d 0d 42 49 3e 49 ed 90 bd fb c2 aa be
       0.10795358 0.19654103 -0.070765086 -0.33351883
000340 ae f0 10 3d bc 3b 75 bd 48 42 f3 3c 53 26 90 bd
       0.03538578 -0.05987142 0.029694691 -0.0703856
000350 e7 b7 ca bc 22 f1 3c be 8c ea 8f bc 95 5f 8e bd
       -0.024745895 -0.1845136 -0.017567895 -0.069518246
000360 ed fc fd be dc 54 a2 3e 71 3b dc be 09 c9 0f 3f
       -0.4960703 0.31705368 -0.430141 0.5616613
000370 4f 80 81 be fe fd 37 3b 3a f9 03 3e 3d 6d 7d 3e
       -0.25293204 0.0028074975 0.12888041 0.24748702
000380 07 3c 8e 3e ac b1 fc bc 2f 10 c9 3e 48 31 8f bd
       0.27780172 -0.03084644 0.3927016 -0.069918215
000390 5b c4 48 3e 5c ac 6a 3e 56 d8 6f 3e 15 3e 70 be
       0.19606154 0.22917312 0.2342237 -0.23461182
0003a0 2b 20 6a bd 0b 58 bc 3e 45 b2 15 bf 70 30 5f 3f
       -0.057159584 0.3678592 -0.5847514 0.87183285
0003b0 52 6e 22 3e 63 06 c0 3d 46 92 ad 3a 21 8f ea bd
       0.15862396 0.09376218 0.0013242445 -0.11453081
0003c0 7c 63 50 be 23 f9 29 3e e5 1d ba 3d da b0 8a 3e
       -0.2035045 0.16598944 0.09087733 0.27088052
0003d0 27 bc cb bd d8 9b 95 39 b5 ef 0a be eb d5 37 bc
       -0.099479966 0.00028535607 -0.13568003 -0.011220436
0003e0 5d fd fa be 3b 18 f6 bd 32 30 36 bf 81 e1 29 be
       -0.49021426 -0.1201634 -0.7116729 -0.16589929
0003f0 79 35 ba 3d f0 69 6c bd f9 4c c7 3d 50 a7 0d 3e
       0.0909223 -0.057718217 0.09731478 0.13833356

conv2Da.bias f4 [64]
000000 c0 93 27 3e 9b 90 b4 3d 06 15 6b 3d 0b 8a a3 3d
       0.16364956 0.08816644 0.057393096 0.07985314
000010 5f 6f 87 be e2 9f 01 be d0 ce 9f bd 9e 55 39 3e
       -0.26452157 -0.12658647 -0.07803118 0.18099067
000020 c2 b3 58 3d e9 0b 84 bd 11 79 81 3e f9 c0 62 be
       0.052905805 -0.06447584 0.2528768 -0.22143926
000030 38 10 15 be d2 dd 65 be 75 b4 14 3d 41 f8 c2 bd
       -0.14556968 -0.22447899 0.03630491 -0.09520007
000040 7b 9a 4d 3d 55 66 c7 bc f8 80 53 3d 22 69 bd bd
       0.050196152 -0.024340788 0.051636666 -0.09248568
000050 70 6d 17 3e 4d 54 8f 3d 80 fb 52 3e 07 8a cd bd
       0.14787841 0.06998501 0.20603752 -0.10036092
000060 db 51 af bd f7 74 98 3e f0 a9 9d bd 89 f2 27 be
       -0.085605346 0.29776737 -0.07698429 -0.16401114
000070 bb 6a 1e 3d b8 92 51 3e 6d 9c 07 3e 4b e8 5d 3d
       0.038676005 0.20466125 0.13243265 0.05417661
000080 63 fa c3 3c 4c bb 5f 3d 85 ac 99 be 74 33 8c 3e
       0.023923105 0.05462198 -0.30014434 0.27383006
000090 18 9c 89 3d 9d 78 3e 3e 31 42 32 3e 9a ee 93 3d
       0.06719226 0.18600698 0.17408063 0.07223244
0000a0 c5 7d 71 3d 0a b5 d2 3d d8 0a 40 be cc 44 e3 3d
       0.058957834 0.10288437 -0.18754137 0.11097106
0000b0 45 db 21 3e c4 0a 85 3e 0b 42 af bd a9 47 7d 3e
       0.15806301 0.25984776 -0.085575186 0.24734367
0000c0 3e 43 d9 3e 5a d8 46 3d ab a9 8c be c2 76 a5 bd
       0.42434114 0.048546173 -0.27473196 -0.08079292
0000d0 2a 53 da bb 5a 54 1c be 66 ce 82 be 12 a2 8e bd
       -0.006662746 -0.15266553 -0.25548095 -0.06964506
0000e0 88 29 c8 bd 3f 88 bf bd 62 4f 84 3d 67 a2 30 3e
       -0.097735465 -0.09352159 0.064604536 0.17249452
0000f0 7f 63 bc 3d 1e 41 9e 3d 52 eb 4a 3e f7 4b 96 be
       0.09198665 0.07727264 0.1981633 -0.29354832

cbam1.ChannelGate.mlp.1.weight f4 [4, 64]
000000 64 dd e9 bb 71 21 8e 3b 6c ba 04 bd 89 65 55 3c
       -0.0071369875 0.0043374826 -0.03240435 0.013024696
000010 84 fc 2b ba 29 f5 6b 3c a6 02 4f b7 d7 93 59 bb
       -0.000656076 0.014401712 -1.2338778e-05 -0.0033199692
000020 15 19 41 bc bf e9 4c 39 cd 14 22 bc 7e 63 2e bc
       -0.011785765 0.00019542033 -0.009892655 -0.010643838
000030 c9 94 03 38 82 95 ec b7 1f bf 5e bd b7 21 57 bd
       3.13714e-05 -2.8203012e-05 -0.054381486 -0.052522387
000040 aa 57 39 3c de 2d c7 38 65 92 5f 3d ba 2a 0a b7
       0.011312405 9.497603e-05 0.054582972 -8.235389e-06
000050 f0 a1 bd bc 87 a4 04 3d f4 80 80 3c 27 92 3c b7
       -0.023148507 0.032383468 0.01568649 -1.1239702e-05
000060 94 c8 70 b5 62 a9 29 3d 2d de 0e b7 f0 9e 04 3c
       -8.9698847e-07 0.0414213 -8.515589e-06 0.008094534
000070 b1 f3 f5 bc 56 37 cb 3c df 3f 89 bd df 14 98 3b
       -0.030023428 0.02480666 -0.067016356 0.00464116
000080 c6 a5 8b 38 60 88 57 bd 47 89 44 3d 31 12 72 3d
       6.658914e-05 -0.05262029 0.04798248 0.05909938
000090 9c 45 43 3b c6 f1 09 39 5d 17 11 bd 8f 54 8d bc
       0.002979613 0.00013155406 -0.03542267 -0.017252235
0000a0 dd 3b cd bc 4f 20 b9 bd 1a e4 3b 3d 9d a8 c7 bd
       -0.02505296 -0.090393655 0.04587183 -0.09748957
0000b0 27 81 5c 3a 92 dc 33 bd 21 75 52 b7 22 9a 6d bd
       0.0008411579 -0.043911524 -1.2544247e-05 -0.05800832
0000c0 81 99 9c bd 8e d7 69 b7 be dd 1d bd a7 ef 92 bd
       -0.07646466 -1.393807e-05 -0.038541548 -0.07174616
0000d0 ca 64 2d 3c 3e 3f 14 3c d0 bd a6 bb 48 f7 03 b7
       0.010583112 0.009048281 -0.0050885454 -7.865783e-06
0000e0 59 73 8b b7 90 64 f3 b9 38 54 e3 3c af 00 e7 3c
       -1.6623804e-05 -0.00046423497 0.02775012 0.028198568
0000f0 2b 85 92 bc 9c a1 f7 bc 29 cb 33 bd cc 3e 5f bd
       -0.017885765 -0.030228429 -0.04389492 -0.054503247
000100 8d 06 cc bc 16 33 95 ba 70 8f d5 bc c8 e2 5d bc
       -0.024905467 -0.0011383023 -0.026069373 -0.013542838
000110 32 a8 df 3a c2 fd e1 bc 02 a8 cc b7 b8 08 60 bd
       0.0017063676 -0.027586821 -2.439693e-05 -0.054695815
000120 0c 97 15 bd 1e 06 93 bc f0 e6 3f bd 9c a6 36 bb
       -0.036521003 -0.017947253 -0.0468511 -0.0027870303
000130 07 69 da bc fa bf 24 37 d6 21 d5 bc 76 b0 94 bc
       -0.026661409 9.81986e-06 -0.02601711 -0.01815055
000140 3b 7c 70 bd ef b6 ca bb af 14 43 bd 8e a9 ca b5
       -0.058712225 -0.006186358 -0.047627147 -1.509952e-06
000150 21 42 e5 bc 9b 17 e8 bc 17 8f 7a bc 2f ae 91 36
       -0.027985634 -0.028331568 -0.015292904 4.3416144e-06
000160 36 fa 69 37 1a bb 0b ba 05 96 b0 b7 a3 10 5f bd
       1.3946139e-05 -0.00053303095 -2.1050693e-05 -0.054459225
000170 2b 1e a4 bc a8 bb be ba 54 26 c3 bc 2c b0 04 bd
       -0.020033916 -0.0014551776 -0.023821987 -0.032394573
000180 a2 fc c2 bb 3b 97 fd bc 93 4a 0d bd 96 94 91 bc
       -0.0059505263 -0.030955901 -0.034494948 -0.017771047
000190 1f c5 17 bd d0 54 57 bb e3 9b 03 bd d3 0d ce 3b
       -0.037053224 -0.0032856949 -0.032131087 0.006288269
0001a0 fc 86 14 bb ff b7 0d bd 1d 32 16 bd 1e 3b 58 bd
       -0.0022663465 -0.0345993 -0.036668885 -0.052790754
0001b0 2e a7 15 bd 09 d0 e1 bc 56 79 8d bb bf 79 c8 bc
       -0.036536388 -0.02756502 -0.004317443 -0.024472116
0001c0 4c 66 5b bd 34 b9 ae b9 9b 17 f4 b7 3e 31 f1 bc
       -0.053564355 -0.00033325853 -2.9098059e-05 -0.029442426
0001d0 a5 8c b4 bc 4f 4e 2f bd 04 1d 89 3b 54 33 d8 36
       -0.02203972 -0.04279929 0.004184367 6.443277e-06
0001e0 86 37 b3 bc 03 93 20 b8 01 ae b8 bc 15 71 0a bd
       -0.021877062 -3.8283888e-05 -0.022543909 -0.03379925
0001f0 25 7e 05 bd 70 62 1a bd 50 75 15 bd 76 a6 31 3c
       -0.032591004 -0.037691534 -0.03648883 0.01084291
000200 c3 f8 56 34 58 d6 d9 b3 ff 99 df 32 4e b6 af b2
       2.0020802e-07 -1.0143839e-07 2.6030646e-08 -2.0455584e-08
000210 54 18 29 33 e6 2e 21 b3 73 e1 3f 32 b9 22 b3 33
       3.9370505e-08 -3.7528388e-08 1.11689245e-08 8.341653e-08
000220 8f 85 23 34 5c e6 4f 33 f7 cf 36 34 00 b4 cc b0
       1.5229146e-07 4.8405454e-08 1.7025728e-07 -1.4894113e-09
000230 f8 b4 00 32 73 12 3f 33 56 34 bc 33 6d 76 19 33
       7.491728e-09 4.4487432e-08 8.763952e-08 3.5730796e-08
000240 ce 91 55 33 a8 f2 01 b4 50 6e 67 b0 ec a4 e8 33
       4.9725536e-08 -1.2102339e-07 -8.4194074e-10 1.0833341e-07
000250 7b 33 aa b3 0d c8 3b 33 19 c8 1d b6 90 67 39 b1
       -7.925606e-08 4.3721275e-08 -2.3511295e-06 -2.6979912e-09
000260 cb 56 87 33 fd 50 34 b3 62 9a 99 32 87 07 65 33
       6.302215e-08 -4.1983174e-08 1.788175e-08 5.3325063e-08
000270 22 70 e1 b8 b8 de 52 b4 52 13 b8 b5 eb 97 ed b2
       -0.000107497224 -1.9638799e-07 -1.3714691e-06 -2.7659516e-08
000280 b9 32 a3 33 32 7a 0c b3 5f af e2 b3 5b cf c2 b4
       7.5995054e-08 -3.2707426e-08 -1.0555845e-07 -3.6286187e-07
000290 50 fa 91 33 8e 94 7b b4 69 2b 75 36 6a 42 da 34
       6.79762e-08 -2.343024e-07 3.6533113e-06 4.0653987e-07
0002a0 61 a4 7d 33 cb 37 71 b4 99 a1 74 b3 dc e6 0b b6
       5.9055655e-08 -2.2465171e-07 -5.695765e-08 -2.0846992e-06
0002b0 1c 15 49 34 90 35 27 34 2e e6 6d b3 22 1e 1b b5
       1.8727263e-07 1.5572573e-07 -5.539021e-08 -5.778585e-07
0002c0 30 dd d4 36 c7 29 4f b3 c8 f0 bf b2 c7 17 65 34
       6.343842e-06 -4.823394e-08 -2.2344821e-08 2.1335937e-07
0002d0 fa 1d 9f 33 3a 98 dd 33 0f 39 67 33 a0 1f 4f b2
       7.409467e-08 1.0318804e-07 5.3835773e-08 -1.20561765e-08
0002e0 43 60 70 33 a0 f9 1c b3 66 7a 84 33 1f 05 ab b9
       5.5966904e-08 -3.6548613e-08 6.168993e-08 -0.00032619477
0002f0 ce dc cf 33 88 28 fb 34 ae f4 3a b3 6e aa b6 b4
       9.679353e-08 4.6781884e-07 -4.3529035e-08 -3.4024146e-07
000300 32 5d 6e 34 30 21 4f b4 e7 8b 8d 33 98 27 48 b7
       2.2199382e-07 -1.9290451e-07 6.591272e-08 -1.1930148e-05
000310 88 f8 39 b3 15 b7 94 b4 c0 38 99 2f 0e 32 67 36
       -4.3299707e-08 -2.7700358e-07 2.787086e-10 3.4450818e-06
000320 e4 b1 9f b6 f0 81 ad 33 ab 3f b7 b9 b9 d0 fe 32
       -4.7592785e-06 8.079576e-08 -0.00034951916 2.9664408e-08
000330 a9 ef ea b2 19 a2 32 b3 62 32 0e ba 80 5a 55 33
       -2.735017e-08 -4.159128e-08 -0.0005424378 4.9675236e-08
000340 90 9f 09 b2 fb f9 fc b4 3c 4a 24 37 be f3 c7 b3
       -8.01073e-09 -4.7120542e-07 9.792446e-06 -9.310996e-08
000350 31 ac fb 36 63 2c 35 b9 fd de 71 36 86 44 a2 33
       7.5004286e-06 -0.0001727804 3.6041595e-06 7.556177e-08
000360 87 65 ea 32 3c b2 b1 3a 56 2e 25 b3 46 cd d9 b3
       2.7287355e-08 0.0013557146 -3.84592e-08 -1.0142189e-07
000370 7b c9 a6 36 9f ef 3c 38 a0 46 57 33 ef b6 d1 33
       4.970641e-06 4.5045857e-05 5.012282e-08 9.765596e-08
000380 0e 8b 20 b3 15 ea f8 39 43 76 39 33 df fb f8 ba
       -3.7379372e-08 0.0004747665 4.3181227e-08 -0.0018995962
000390 97 a0 08 35 d5 29 f8 34 4c aa 04 b8 ab 61 f5 b9
       5.0897637e-07 4.6224037e-07 -3.1629854e-05 -0.0004680281
0003a0 bc 21 6e b2 28 99 c0 b4 66 b2 57 b5 2a 67 f8 b7
       -1.3861094e-08 -3.5874223e-07 -8.0353345e-07 -2.9611943e-05
0003b0 ac 8d 11 b7 28 c2 aa b1 5e 1f 2a 32 46 00 58 34
       -8.675659e-06 -4.969724e-09 9.902434e-09 2.0116667e-07
0003c0 62 dc e0 37 73 f2 4b b4 3f ca 3f b3 4c 04 24 36
       2.6805505e-05 -1.8994051e-07 -4.4654595e-08 2.4440405e-06
0003d0 56 71 dd 33 b1 4c 24 b3 4c f8 25 34 7c 0f a0 32
       1.031173e-07 -3.8253976e-08 1.5457152e-07 1.8633493e-08
0003e0 cd d5 bb b1 82 75 84 b2 06 8a 41 36 82 f4 d4 39
       -5.4667226e-09 -1.5420259e-08 2.8839581e-06 0.00040617964
0003f0 9c ec e8 b1 82 0f c3 b9 72 15 82 35 6d d2 ac b2
       -6.778988e-09 -0.00037204853 9.691996e-07 -2.0119126e-08

cbam1.ChannelGate.mlp.1.bias f4 [4]
000000 41 bc 7e 3d d4 42 b4 bd c2 5e ba b9 19 5e d2 bb
       0.06219125 -0.08801809 -0.00035547285 -0.0064199087

cbam1.ChannelGate.mlp.3.weight f4 [64, 4]
000000 68 fd 66 ba 9f 83 3a 3d 36 3a a8 b4 d8 a7 9b 34
       -0.0008811564 0.04553568 -3.1334793e-07 2.8993122e-07
000010 be 4a 35 b6 8b c7 31 39 35 c2 7a 33 4d 2a 0d b5
       -2.7014607e-06 0.00016954371 5.838429e-08 -5.258815e-07
000020 00 a0 64 bb 8d 5d 83 3d 87 5c 13 b3 c2 55 8f 34
       -0.0034885406 0.06414328 -3.4310258e-08 2.6698223e-07
000030 56 7f a9 38 dc 03 9b bd 7a ed a6 32 9e 4e 50 b4
       8.082266e-05 -0.075690955 1.9432935e-08 -1.940011e-07
000040 12 fa 48 b4 d6 df 6c bc a1 2e eb b3 a5 46 4c b2
       -1.8717427e-07 -0.0144576635 -1.0951522e-07 -1.18904255e-08
000050 17 13 50 36 6c 25 71 bd ed ed c4 b4 d0 7f f1 b2
       3.1005527e-06 -0.05887358 -3.668096e-07 -2.8114215e-08
000060 44 d0 f5 b3 3c 4f 38 b6 50 79 ea b4 6c 24 1a b2
       -1.1446585e-07 -2.7464257e-06 -4.3674163e-07 -8.972261e-09
000070 50 65 79 3c 64 2d 2e b7 f6 54 6d b4 b5 77 5a b3
       0.015221909 -1.03817765e-05 -2.2103254e-07 -5.0865953e-08
000080 7a 16 2f bb 8c 1e 70 bd 42 96 ba 34 2a a2 be b4
       -0.0026716278 -0.05862288 3.4754527e-07 -3.5508248e-07
000090 1c a1 70 37 70 03 40 bc c5 b3 85 b3 8a 4e 84 b4
       1.4342626e-05 -0.01171957 -6.225995e-08 -2.464406e-07
0000a0 23 0c da bb 8c 86 55 bd b0 05 4c 35 60 13 0b 2f
       -0.006654279 -0.052130267 7.60042e-07 1.264886e-10
0000b0 1f 46 17 b5 83 d1 04 3d e4 41 0e 33 6f de 2f b3
       -5.6353923e-07 0.03242637 3.312188e-08 -4.0947665e-08
0000c0 1c a3 f9 31 62 88 95 bc d7 da 1d 35 68 44 a9 34
       7.265397e-09 -0.018253509 5.880551e-07 3.1528475e-07
0000d0 e8 cd 21 b3 ec 3f a6 36 e6 2c 2c b5 35 40 55 35
       -3.7673004e-08 4.954627e-06 -6.414033e-07 7.9442117e-07
0000e0 6e 17 3c 34 b5 c5 76 bd d0 27 86 b1 2c 07 81 b5
       1.7517388e-07 -0.060247142 -3.9044394e-09 -9.613336e-07
0000f0 60 18 94 b8 ac 69 fd 3c b8 96 ec 32 f8 a2 b9 34
       -7.06173e-05 0.030934177 2.7542555e-08 3.457751e-07
000100 24 f5 80 36 8e 39 8e bd 8d bd ec b4 bf 2e 88 b3
       3.8432354e-06 -0.069445714 -4.4096342e-07 -6.3414966e-08
000110 b7 d1 8a b3 63 d6 3c bd 20 8d fb 32 78 72 fd b3
       -6.464273e-08 -0.046102893 2.9284422e-08 -1.1802052e-07
000120 01 a0 fa 36 54 66 14 bd f0 d1 06 34 b7 4e 15 34
       7.4692075e-06 -0.0362304 1.2556097e-07 1.3905343e-07
000130 8c 54 11 b4 81 a0 0d b4 1a c6 3d b4 84 7a 98 b1
       -1.3534935e-07 -1.3190039e-07 -1.7674066e-07 -4.4377106e-09
000140 93 71 71 3a 69 49 c3 bc 44 fe 85 32 4a 27 a6 b5
       0.0009210344 -0.023838716 1.5598864e-08 -1.2379398e-06
000150 ac d7 b8 3b 26 c4 89 bd 65 23 cb b4 41 86 19 34
       0.0056409445 -0.067268655 -3.783745e-07 1.4298077e-07
000160 a3 07 3f bd ac 10 89 bd 81 7b 5a b3 66 05 22 35
       -0.046638142 -0.06692633 -5.0869406e-08 6.035756e-07
000170 38 bf 7f 33 d2 2c 6b b5 d0 0a a0 34 7c 22 b4 32
       5.9545727e-08 -8.7609544e-07 2.981019e-07 2.097044e-08
000180 ba 79 2e 34 09 f8 09 38 d9 68 53 b4 91 45 ae b4
       1.6249297e-07 3.2894346e-05 -1.968905e-07 -3.2460642e-07
000190 d2 76 0f bd ae 74 a8 bd 84 26 74 b4 d7 76 5c b5
       -0.035025425 -0.0822538 -2.2738283e-07 -8.212932e-07
0001a0 a8 db bb 31 36 0d 25 b5 2d 48 3a b3 7e 8d bb b4
       5.4673883e-09 -6.1486514e-07 -4.3372143e-08 -3.4934413e-07
0001b0 95 de 80 b5 ba 7c 1e bd 67 e8 df 33 14 76 ed b3
       -9.601523e-07 -0.038693167 1.04265204e-07 -1.1057651e-07
0001c0 79 33 0a 3e eb cf 88 bd 74 23 ec b3 c2 e5 e5 35
       0.13496198 -0.06680282 -1.0996055e-07 1.7128698e-06
0001d0 85 e6 07 bb d8 c2 45 bc 80 62 f7 2f 34 a1 e6 b3
       -0.0020736766 -0.01207038 4.4999027e-10 -1.0739532e-07
0001e0 10 1d 76 3b e4 02 b2 38 69 42 84 33 a0 4c 51 34
       0.0037553944 8.48824e-05 6.158809e-08 1.9492518e-07
0001f0 3c 93 4c 37 dd 1a 3e bd ad bf 39 34 c9 b6 10 34
       1.2193628e-05 -0.046412338 1.7299199e-07 1.3477542e-07
000200 da c9 46 36 43 c8 38 ba 45 47 88 33 74 5c 8a 32
       2.9621792e-06 -0.0007048884 6.3459574e-08 1.6107357e-08
000210 29 f9 28 3b d2 b0 63 bd 84 a9 31 33 85 77 ca b5
       0.0025783277 -0.05558855 4.1365197e-08 -1.5084958e-06
000220 2b c7 38 b7 80 c9 21 bd 20 81 d4 30 e2 99 9a b4
       -1.1013627e-05 -0.039498806 1.546173e-09 -2.87967e-07
000230 6e a8 08 3c 49 2a 6d bd 52 a4 3d 32 4c 5d 41 35
       0.008340938 -0.057901654 1.103861e-08 7.203387e-07
000240 af 71 68 37 36 50 24 bd ba bf a7 b4 df aa f7 b3
       1.3854747e-05 -0.040115558 -3.1245673e-07 -1.1532915e-07
000250 ea 84 46 37 ef 8d c1 b8 f5 bc 0c b5 b6 57 ba 34
       1.1832666e-05 -9.229394e-05 -5.2429033e-07 3.4709018e-07
000260 3c ec b5 3a ad 95 1b bd c0 4e 66 b4 ad b9 83 3a
       0.0013879607 -0.03798454 -2.1449068e-07 0.0010049843
000270 f1 c7 d0 38 18 80 a3 bd c3 2a 4f 35 01 13 0d 37
       9.955455e-05 -0.07983416 7.7175736e-07 8.40868e-06
000280 8c a8 a8 3a 13 63 d9 b8 2b 84 e9 34 73 42 b3 b4
       0.0012867614 -0.0001036582 4.3495797e-07 -3.3389696e-07
000290 81 a0 30 3d c9 50 be bb a3 44 c7 34 4c 6c 37 b4
       0.04312182 -0.00580797 3.7116578e-07 -1.7082601e-07
0002a0 7e 7d 16 b5 2c fb 20 bd 18 47 40 b5 6a a4 ce b4
       -5.606197e-07 -0.039302036 -7.162903e-07 -3.8490117e-07
0002b0 80 f9 0c be 30 dc 8a 3c 5d 2b ca b3 8e 0e ea b3
       -0.13767052 0.016950697 -9.414246e-08 -1.08991216e-07
0002c0 cd 0a 10 3c cc 28 03 bd 2a eb b4 33 1e 4e 86 36
       0.008791638 -0.03202133 8.424679e-08 4.0026052e-06
0002d0 0e 06 d3 bd 83 48 c0 3d 70 65 3c 35 0f 1b 2e b4
       -0.10303889 0.093888305 7.018307e-07 -1.6214857e-07
0002e0 77 3f ca b3 ea e7 76 bb e7 3e 7a b2 b2 18 ca 33
       -9.417902e-08 -0.0037674853 -1.4566218e-08 9.41085e-08
0002f0 83 21 1d bd 7c 92 28 3d 2f d1 c8 33 68 63 a7 b1
       -0.038362037 0.041155323 9.351276e-08 -4.871641e-09
000300 b3 ba 4f 3e 6f bb ff bb 30 5e 3d 33 2e 22 f3 33
       0.20286064 -0.0078043262 4.4090655e-08 1.13217865e-07
000310 36 b0 20 35 67 a4 74 38 3f d9 da 32 8b 99 34 b5
       5.9861065e-07 5.8327245e-05 2.5477332e-08 -6.727866e-07
000320 7a e1 63 33 93 3a 5c b8 8a 9d 14 b5 f5 7c 1a b5
       5.3057626e-08 -5.250664e-05 -5.5363546e-07 -5.7551307e-07
000330 ae 60 f4 b9 00 40 bd 3c 86 1d 97 b3 13 a7 a7 34
       -0.0004661134 0.023101807 -7.036856e-08 3.1227736e-07
000340 74 e4 4e b7 90 d6 af bd 0c 23 32 32 43 bb c2 b3
       -1.2331748e-05 -0.085858464 1.0368932e-08 -9.067892e-08
000350 4a cc 3d b5 6b ec 05 bd 3e 1a 28 34 f8 a7 dd b2
       -7.0705266e-07 -0.03269617 1.5655766e-07 -2.580417e-08
000360 fe ad dc b4 8a 7f b6 bd f2 21 20 34 31 14 87 33
       -4.110479e-07 -0.08911045 1.491351e-07 6.2901e-08
000370 7b 3f 87 34 ff a2 3e 35 c4 2b 73 b4 e0 76 39 b5
       2.5191898e-07 7.1017706e-07 -2.264706e-07 -6.9090856e-07
000380 1e be 2a 33 8c a8 7a b8 a5 45 2e 34 5a d5 1f b5
       3.975412e-08 -5.9761616e-05 1.623035e-07 -5.9542583e-07
000390 ab f0 49 b5 26 bf a2 37 df ba c9 b4 c8 63 54 34
       -7.5228553e-07 1.9400915e-05 -3.7575134e-07 1.9780339e-07
0003a0 9b 44 ab 3b 51 27 a0 bd 5e ae 63 b3 b5 cf c5 34
       0.0052266843 -0.07819999 -5.3011142e-08 3.6845236e-07
0003b0 e3 ce 8c bd fe 68 bf bd 8e 3c 3f 35 bd d6 e9 34
       -0.06875398 -0.093461975 7.1241163e-07 4.3555875e-07
0003c0 fc 95 d9 bb e6 c1 b1 3d b3 bb 55 b5 4b eb e7 b3
       -0.006640194 0.08679561 -7.962182e-07 -1.0799575e-07
0003d0 43 f5 f2 38 35 68 c6 bd a2 cc 24 b4 a0 cc b3 33
       0.00011585143 -0.09687845 -1.5348135e-07 8.372558e-08
0003e0 d3 36 87 3b d1 91 ff 3b 3a f5 a0 b2 f8 74 c6 33
       0.0041264086 0.007799365 -1.8737968e-08 9.24137e-08
0003f0 ae 16 59 b4 04 ee 96 bd f8 ad a2 b1 87 47 ca b3
       -2.021795e-07 -0.07369617 -4.7345985e-09 -9.419369e-08

cbam1.ChannelGate.mlp.3.bias f4 [64]
000000 c4 87 da 3e c3 67 9b be 9c 24 7d 3e b6 43 09 3d
       0.42681706 -0.303526 0.24720997 0.03351184
000010 d5 64 0e bd 06 ac 8b 3c 7d 12 2c bb 34 a6 78 3e
       -0.03476413 0.0170498 -0.0026256137 0.24282151
000020 e7 66 41 3e 2a 7a a2 bc 9b 7b 02 3f 9d 0b aa 3e
       0.1888691 -0.019833643 0.50969857 0.33211985
000030 4f 95 70 3c e6 eb 72 3c 90 8c e0 3e b9 cf fc 3e
       0.014684035 0.01482675 0.4385724 0.4937723
000040 59 fd 0f 3f f0 0d 0c be ce a6 06 bd 41 e3 5b ba
       0.5624595 -0.13677192 -0.03287392 -0.00083880505
000050 2d b2 84 bd 79 5d 96 be 09 0c 2b be 0a d2 88 bb
       -0.06479297 -0.2936819 -0.1670381 -0.004175429
000060 bb fe 05 be 3b 58 86 3d 1d 30 f5 bd c1 80 f6 bc
       -0.13085453 0.065597974 -0.119720675 -0.030090692
000070 41 d0 3e 3e 9b b2 20 3f 74 a4 a6 be bb 2d b0 3e
       0.1863413 0.6277253 -0.32547343 0.3440989
000080 d8 1a 55 bd 1e 05 f7 3e f8 93 13 3d 2b e3 63 be
       -0.052027553 0.48246092 0.036029786 -0.22254626
000090 b7 b2 3c 3e 23 64 cd 3d bd 8d 84 bd c5 94 cc 3d
       0.1842755 0.10028865 -0.06472347 0.09989313
0000a0 2f 36 1b be 69 49 69 3e e1 30 ed 3c d9 85 8f be
       -0.15157388 0.2278191 0.028953971 -0.28031805
0000b0 c6 e7 ff bd 9a 0d b0 3e b0 45 77 3e db f2 3c 3c
       -0.12495379 0.34385377 0.24147677 0.011532511
0000c0 2e e1 c5 3e 42 58 0d 3c ff 3d 29 3e a6 c5 02 3f
       0.3864836 0.008626999 0.16527556 0.5108284
0000d0 bf 9a 03 3f 70 69 07 3e 66 2f 9f bc 03 6f 32 3b
       0.51408 0.13223815 -0.019431781 0.0027226813
0000e0 10 47 5e bc 33 22 c3 bc f0 23 6d 3e ce c4 c6 3e
       -0.013566747 -0.023820018 0.2315824 0.38822025
0000f0 db ed 16 3f 83 ae ab 3e a5 56 d2 be 9e f0 35 be
       0.5895669 0.3353158 -0.4108173 -0.1776757

cbam1.SpatialGate.spatial.conv.weight f4 [1, 2, 7, 7]
000000 82 1b 59 33 84 5b 45 b2 cc 18 11 b2 14 34 cc 3e
       5.0549268e-08 -1.1487717e-08 -8.445749e-09 0.39883482
000010 68 79 2f 33 75 cc 2c b3 2d c5 cc 33 4e 6e 22 33
       4.085578e-08 -4.0232823e-08 9.535356e-08 3.7818886e-08
000020 40 c5 ba 2f 60 a1 1d b0 96 58 03 3e 0f e3 78 b3
       3.3973357e-10 -5.7345595e-10 0.12826762 -5.7948508e-08
000030 96 4a 0d b3 a2 81 82 b2 55 e9 cd 31 e0 4f bd b2
       -3.2896956e-08 -1.5192942e-08 5.992812e-09 -2.2038819e-08
000040 0b ed cc 32 2d fe 82 3d 20 88 6d 32 10 2d 0d 30
       2.385652e-08 0.063961364 1.3826167e-08 5.135954e-10
000050 c8 d9 43 32 88 46 1a 32 17 e4 02 b3 cc 21 de 31
       1.1400012e-08 8.980017e-09 -3.047543e-08 6.4648926e-09
000060 7c 32 e9 3d ab 25 02 b3 50 1a bf b1 8d df bd b3
       0.11386582 -3.0302242e-08 -5.561823e-09 -8.841662e-08
000070 e3 d9 f3 b2 88 d6 f3 30 b8 9c d6 b1 14 a2 65 3c
       -2.8388007e-08 1.774155e-09 -6.2460366e-09 0.014015693
000080 dd fb 38 b3 9f b1 60 b3 a8 d5 aa b2 b1 54 af b3
       -4.3069907e-08 -5.231561e-08 -1.9887764e-08 -8.164478e-08
000090 f8 4f 4d 32 3a 9d 93 31 7d 3e 8a 3d c9 8b 46 33
       1.1950753e-08 4.2961377e-09 0.067502 4.62276e-08
0000a0 02 a7 19 b3 97 ac e0 b2 5a 94 9d b2 31 57 b7 b2
       -3.577498e-08 -2.6155517e-08 -1.8344668e-08 -2.1343654e-08
0000b0 f4 dc 31 33 e5 dd a1 bd 91 49 e6 32 92 b4 30 b3
       4.141198e-08 -0.07903651 2.6808978e-08 -4.114242e-08
0000c0 6e df a6 32 fc 9c 2a 32 64 5d db 32 51 b3 c7 b3
       1.9426547e-08 9.9309965e-09 2.5537425e-08 -9.299277e-08
0000d0 91 21 ab 3e 5c 79 b5 b1 e2 9c a0 b2 d8 e5 83 b3
       0.33424047 -5.2815903e-09 -1.8697794e-08 -6.141971e-08
0000e0 c4 08 5a 33 6b c2 2b b3 80 ca a1 b3 52 2f 0b 3d
       5.0765053e-08 -3.9990862e-08 -7.533981e-08 0.033980675
0000f0 88 f6 56 b3 29 e7 9e 33 83 8f b2 b3 58 94 4a 31
       -5.0049977e-08 7.399496e-08 -8.3148755e-08 2.9479192e-09
000100 0c 30 e9 b2 2a 5b ff 32 ab 68 0d 3d be 18 ea b2
       -2.714662e-08 2.9727364e-08 0.034523647 -2.7252437e-08
000110 34 93 16 b3 42 50 af b2 d0 b0 9f 31 43 29 72 b2
       -3.5058477e-08 -2.0409178e-08 4.6476103e-09 -1.4095636e-08
000120 f4 db 7c b3 fd ff 58 bd ec 5d 3f b1 5c e0 7c 33
       -5.887337e-08 -0.052978504 -2.7847546e-09 5.8877376e-08
000130 38 da c5 b1 1b e8 1f 33 60 26 0d b0 8e 93 27 b2
       -5.758263e-09 3.723117e-08 -5.1350035e-10 -9.754229e-09
000140 71 ba a5 3d 06 cf 49 b2 f4 ca ba b1 66 a0 1f 33
       0.080922015 -1.17468115e-08 -5.4363856e-09 3.7165954e-08
000150 2c 63 e8 b1 c0 9a 25 31 cb ee 76 33 af b4 55 bc
       -6.763363e-09 2.4098625e-09 5.749352e-08 -0.013043567
000160 66 b7 16 b2 20 80 cb af d0 e8 84 2f ba 78 27 b3
       -8.772849e-09 -3.7016523e-10 2.4176083e-10 -3.8992518e-08
000170 59 a6 ee 31 f5 1e 81 b3 80 c7 c4 bc 18 bc 01 32
       6.945623e-09 -6.012662e-08 -0.02402091 7.551556e-09
000180 ca a3 7f 32 a0 a5 95 30
       1.4880195e-08 1.088825e-09

conv2Db.weight f4 [128, 64, 2, 1]
000000 f0 12 f6 ba 7b a4 8f bb 32 76 f8 b8 fe d9 ca b6
       -0.0018773954 -0.0043836213 -0.00011847577 -6.0454468e-06
000010 9e 5a 15 ba a0 09 5a bc 6b 11 79 3b 8d ec a2 bb
       -0.0005697402 -0.013307959 0.0038004767 -0.0049720467
000020 2c a6 0f 39 44 c8 73 38 f7 42 06 3a d0 e0 f2 bb
       0.00013699447 5.8122227e-05 0.0005121673 -0.0074120536
000030 0e 76 7e 37 cc 0d 63 38 d5 81 ec ba d6 26 7c bc
       1.51670665e-05 5.4133867e-05 -0.0018044064 -0.015390119
000040 a2 97 de b9 be 50 0f bd 16 f0 89 bb 13 1b 40 bb
       -0.00042456115 -0.03498911 -0.0042095287 -0.0029313012
000050 12 87 e4 bb 93 20 d9 bc 1d 00 b0 ba 32 ea 4e 3c
       -0.0069741094 -0.02650479 -0.0013427768 0.012629079
000060 25 b0 7d 3b ea a3 14 3c 24 84 e8 b6 1e d7 04 39
       0.0038709727 0.009072283 -6.929522e-06 0.00012668638
000070 76 9b c3 3b b9 9d 0e bd 73 b9 03 bb 52 3c f7 ba
       0.00596946 -0.034818385 -0.002009955 -0.0018862581
000080 c9 17 73 3c 9b 4f 26 bd ac 52 be 39 0c 0c d7 39
       0.014837214 -0.04060326 0.0003630122 0.0004101697
000090 0a 79 6e 3b e5 b3 44 bc 49 fc 92 b7 b3 fc 8a 38
       0.0036388063 -0.012005781 -1.7522036e-05 6.627422e-05
0000a0 8c bd 66 bb da af ea bb 75 bf 8d 3a 81 0d 86 bc
       -0.0035208194 -0.0071620764 0.0010814505 -0.016363861
0000b0 fa 59 94 b9 dd 9c 43 bb b8 0f 81 36 5a 52 5c b8
       -0.00028295798 -0.0029848136 3.8463295e-06 -5.2528783e-05
0000c0 87 bb 93 38 f6 d0 d1 38 75 65 76 bb b4 a6 95 ba
       7.044436e-05 0.000100048186 -0.0037597094 -0.0011417479
0000d0 d6 60 41 b7 6b 10 df b7 1b 4b 09 bb 29 b7 8f bc
       -1.1526243e-05 -2.6591317e-05 -0.0020949307 -0.017543392
0000e0 2e 3b d6 3a 4d 2f 44 bc 48 c8 8c bb 1c 4d e8 bb
       0.0016344541 -0.011974168 -0.0042963363 -0.0070892703
0000f0 f1 37 48 ba cb e5 eb ba bc 03 05 3c 98 9c b8 bc
       -0.00076377305 -0.0017997561 0.008118566 -0.022535607
000100 6f 7a 84 bb 0b 01 80 bb 37 34 d1 ba 80 9a 24 bd
       -0.0040429155 -0.0039063743 -0.0015960996 -0.040186405
000110 a1 bb 12 ba 0f b0 2d bc d5 8e b1 39 c0 6c 2f bc
       -0.0005597417 -0.010601058 0.0003386649 -0.01070708
000120 b5 4d 80 3b 88 0c b1 39 b2 39 27 3b 6c 20 01 b7
       0.0039155134 0.00033769407 0.0025516567 -7.696548e-06
000130 20 d1 4b bb 1f b1 87 bc 48 5f 1c ba 6b 00 d9 b8
       -0.003109999 -0.01656395 -0.0005965126 -0.00010347444
000140 78 b8 2d 3a 75 51 e3 38 96 cd 45 39 fc 31 b4 bb
       0.0006626914 0.00010839376 0.00018863971 -0.0054991227
000150 56 38 8f ba 04 3c 1e bc 95 13 b3 b9 cd 0f 8b bc
       -0.0010926824 -0.0096578635 -0.0003415613 -0.016975308
000160 c2 5b 21 bb c2 e5 89 bc 68 b0 c4 ba bc fb 9c bb
       -0.0024621342 -0.01683319 -0.0015006186 -0.0047907513
000170 96 0c 41 ba d3 5c ff ba 46 d1 44 bb d6 36 dc ba
       -0.0007364241 -0.001948262 -0.0030031963 -0.001680101
000180 62 8c 45 bc e3 39 04 bd 23 e1 25 b8 72 23 9e b9
       -0.012057396 -0.032281768 -3.954874e-05 -0.00030162517
000190 ac 2e 8c b7 6d 28 0e 3a 4b 89 b3 3b 29 48 32 bd
       -1.6711034e-05 0.0005422894 0.005479013 -0.04352585
0001a0 4b 9f 6e bb dc 54 c1 3b 7e 3e 1c bc 95 0c f2 3b
       -0.0036410864 0.0059000086 -0.009536384 0.007386754
0001b0 34 27 93 3a 53 45 20 ba 38 12 4d 3b 20 53 15 39
       0.0011226893 -0.0006113846 0.0031291377 0.00014240714
0001c0 18 42 cc b9 f3 7b 07 3c 34 0e 3a ba 12 96 4d bb
       -0.00038959156 0.008269298 -0.00070974533 -0.0031369966
0001d0 c1 8e 8f b9 bd 66 f2 bb 5c f2 f7 ba ee 3c b5 bc
       -0.00027381445 -0.0073975013 -0.0018916833 -0.02212378
0001e0 69 89 fa b9 d0 51 b0 bb f1 06 0e 3b a8 d3 1d bd
       -0.00047786094 -0.0053808466 0.0021671618 -0.03853193
0001f0 00 e0 8f b6 7d 46 0d bb 97 36 7d bb 18 4d b2 3a
       -4.287809e-06 -0.0021556907 -0.0038637274 0.0013603298
000200 d0 0c ad bc 36 68 06 3e 34 19 15 3d 2a 34 a1 3a
       -0.021124274 0.13125691 0.03640099 0.0012298871
000210 95 7b 40 bd 45 7e 2e 3e 1d a4 3c 3d db cd a3 bd
       -0.046992857 0.17040356 0.046054948 -0.07998248
000220 0c 87 8e bb 1f 6d 4a 3d a0 6e 00 3e 8c 97 09 be
       -0.004349595 0.049420472 0.125422 -0.13436717
000230 da bf 7f bb 52 e2 af ba 37 0f de 3d 85 87 ac bd
       -0.0039024265 -0.0013418889 0.10842746 -0.08424286
000240 c2 c9 ec bd a9 b1 13 be 38 32 12 bc 65 66 85 bd
       -0.1156192 -0.1442324 -0.008923106 -0.06513671
000250 76 37 a4 3d d4 f5 89 be de fc 89 3e 69 71 ae 3d
       0.08018391 -0.26945364 0.26950735 0.08517725
000260 c3 24 3f bc d2 b5 14 be 3b 3a bc bd c7 47 49 bc
       -0.0116664795 -0.14522484 -0.09190794 -0.012285179
000270 af 75 99 bc 88 fe 59 bc c1 43 4b 3d 86 55 22 3e
       -0.018732874 -0.013305314 0.049625162 0.15852937
000280 73 17 fd bd c5 5a 4b be 61 05 b8 bd 83 af 04 3c
       -0.12357988 -0.19858845 -0.08985401 0.008098486
000290 b6 34 1f 3d d1 d3 34 bd 9c 1b 99 3b 92 fa 91 bc
       0.03886863 -0.044147316 0.0046724807 -0.017819677
0002a0 c7 f7 8f 3c 71 f3 05 3d 22 68 da bd 33 11 2d bd
       0.017574204 0.032702867 -0.10664393 -0.04225273
0002b0 58 ec 95 3c 84 b2 68 3e 4e 5c 28 bc 73 7d 83 3b
       0.018301174 0.22724348 -0.010275913 0.0040127574
0002c0 5d 17 18 bc 8c 4d 4b 3c 83 ae d6 bc 23 25 f5 3d
       -0.009282914 0.012408625 -0.02620626 0.11969974
0002d0 c1 48 08 3d 95 be 92 3c ae c3 cb bb 64 e0 e3 bd
       0.03327251 0.017913142 -0.006218395 -0.111267835
0002e0 24 eb d8 3d 9b 49 6d 3e 6b 5c ec bd d3 07 25 be
       0.105917245 0.2317261 -0.11541065 -0.16116266
0002f0 ad 68 37 3e 02 16 a9 3d 69 ec 05 bd c0 5c 1f be
       0.17911024 0.08256151 -0.03269616 -0.15562725
000300 cc 7e 80 bc 76 8f 2d bd c9 af 1f be 2c 41 3a bd
       -0.015685461 -0.042373143 -0.155944 -0.04547231
000310 1a e9 87 bd d3 45 c9 bd 80 a4 39 bc 3f 64 54 be
       -0.066362575 -0.09827771 -0.011330724 -0.20741366
000320 c3 c5 4e 3b 8b ae 84 bd a2 1f 98 3d 5c cf 26 be
       0.003155098 -0.06478604 0.074279085 -0.16290039
000330 5c 69 1d 3e b0 ff 02 be 22 a8 98 bd d1 29 5a bd
       0.15372223 -0.1279285 -0.07453944 -0.053262535
000340 6e 47 32 3d ea ac 0a bd 62 ae 47 39 f8 8f 66 3e
       0.043525152 -0.03385631 0.00019043082 0.22515857
000350 32 21 49 ba 7b cf 38 bd 43 95 8a 3d 36 b4 01 3e
       -0.0007672488 -0.045119744 0.06766751 0.12666401
000360 24 d7 b1 3c a9 02 08 bc 1f d3 d6 3d 37 d9 66 3d
       0.021709032 -0.0083014155 0.10489487 0.056359496
000370 8a 04 5c bd 7f 59 d0 3d df 6f 4c 3d 5f 37 46 3e
       -0.053715266 0.1017332 0.049911376 0.1935706
000380 a7 3d e9 3d f8 8f 29 3e da e9 59 3d fc e4 60 bd
       0.113887124 0.16558826 0.053201534 -0.054905877
000390 aa 38 f2 bd 4e 1e e8 bc 1c 0a 7b bd 8d 00 bf 3d
       -0.11827214 -0.028334763 -0.061288938 0.09326277
0003a0 0b 8c 7f 3e 3b 65 4c 3e e0 11 59 bd 51 f5 5b be
       0.24955766 0.19960491 -0.052995563 -0.214803
0003b0 2e 77 99 3c 87 d9 0b 3e a6 f1 7a 3c 55 c4 98 bd
       0.018733587 0.13657199 0.015316403 -0.07459322
0003c0 5c 1b 8b bb 91 53 44 bd 09 6c a0 3d 3e cf bc 3c
       -0.004245205 -0.047931258 0.07833106 0.02304804
0003d0 8b b9 b7 3d 03 38 16 3e ef 35 06 bd 1c 47 6a bb
       0.089709364 0.14669804 -0.03276628 -0.003574795
0003e0 b1 76 e7 3d dd 5f eb 3d 19 54 42 3b 9e d8 01 be
       0.113019355 0.11492894 0.0029652177 -0.12680289
0003f0 80 2b f6 3d 1b ef 39 3e ca 08 27 bd 08 b7 c6 3c
       0.12020016 0.18157618 -0.040779866 0.024257198

conv2Db.bias f4 [128]
000000 62 6d f6 bb 2c ac db 3d 04 dc 8c bb 26 f7 4f bd
       -0.0075203637 0.107261986 -0.004298689 -0.05077281
000010 43 d7 13 3d 56 c1 dd bd 67 60 0b bd c8 18 bb bc
       0.03609396 -0.108278915 -0.034027483 -0.022838965
000020 d8 73 d6 3c d4 a8 a8 bc a5 66 a0 bd 81 8c e7 3d
       0.026178285 -0.020588316 -0.07832078 0.11306096
000030 54 be 1a be 1b b4 c6 3b 23 4d 83 bd 7d 66 43 be
       -0.15111667 0.0060639507 -0.06411197 -0.19082065
000040 d1 8a 8a 3d 05 02 0e be fc 5d 13 3d e0 65 b1 bd
       0.067647584 -0.13867958 0.035978302 -0.08662009
000050 73 8f 05 be 44 f3 9b bc 30 be 5e 3c c8 81 e4 3d
       -0.13043003 -0.019036897 0.013595149 0.11157566
000060 63 6a 19 bd 5c ff 9e 3d cb eb 48 3c e4 43 35 3e
       -0.037454974 0.0776355 0.012263249 0.1770168
000070 59 51 a1 bd ae bb 42 bc 98 88 7b bc 49 39 1f be
       -0.07876844 -0.011885567 -0.015352391 -0.15549196
000080 a3 b1 85 3c 7e 46 00 be c0 ce a0 bc 46 94 b4 3d
       0.016320055 -0.1252689 -0.019629836 0.088173434
000090 8d 50 78 39 bb 0c 8a 3d 65 38 f5 bb bd 49 75 3d
       0.0002368113 0.067407094 -0.0074835294 0.059884775
0000a0 d8 cc f8 bc f1 68 4c 3c 0a 59 fd bc 2d e4 ea b9
       -0.030371115 0.012476192 -0.030926246 -0.00044801962
0000b0 03 b4 e5 bc 0c db 65 be 3c 94 b4 3d c8 ce 82 bc
       -0.028039938 -0.22446841 0.08817336 -0.015967742
0000c0 84 36 df 3d 60 2b a6 39 87 32 bd bd f9 a4 0a be
       0.1089907 0.00031694304 -0.09238153 -0.13539495
0000d0 12 c9 03 bd 96 11 01 be eb 5a 4e 3d 1d b3 90 3d
       -0.032174177 -0.12604365 0.050379675 0.07065413
0000e0 d4 fd 01 3e 40 7e 3b bd d0 43 06 3e cb 29 7c 3b
       0.12694484 -0.0457747 0.13111806 0.003847706
0000f0 e8 6a cc bb 56 3a 5c 3d 07 c5 8c 3d cc 70 87 bc
       -0.00623833 0.05376657 0.068735175 -0.016533278
000100 45 c2 46 3d 23 6d c4 bb d6 cf 13 bd 48 40 e2 3c
       0.048525114 -0.0059944554 -0.03608688 0.027618542
000110 9d fe 3e 3e 72 5f 5d bb 61 75 6d bd ab f7 fd 3c
       0.18651815 -0.0033778814 -0.05797327 0.031001886
000120 1a f4 84 3b f9 65 b3 3d 28 e7 25 3d a8 f2 2f bd
       0.0040574195 0.08759684 0.04050365 -0.042956024
000130 43 91 69 3c bc ff 0a bd 1b 1a 14 3d 4c 50 6d bd
       0.0142558245 -0.033935294 0.03615771 -0.057937905
000140 af 99 98 3d 34 17 17 3d c7 2b 2c bd 7b 5b 0d 3d
       0.07451188 0.036887363 -0.042033937 0.03451107
000150 dc c4 eb bc 46 0b 07 3e 37 1a 62 bc 4e 58 c7 bb
       -0.028780393 0.13187894 -0.013800195 -0.006083525
000160 64 1e 83 3d f9 43 ea 3c 57 0f 89 bd ea 89 b5 3d
       0.06402281 0.028596865 -0.06692379 0.08864196
000170 09 2a 0b be db aa 58 bd 52 b8 ac 3d 84 3d de 3d
       -0.13590254 -0.052897315 0.08433594 0.10851577
000180 bb e7 47 3c dc 26 8a 3d d9 6e a9 bb 7c 59 1a bc
       0.012201245 0.06745693 -0.005170685 -0.009420749
000190 c5 39 6b bd 17 1e ef bd e0 5f 76 bd 49 50 a9 3c
       -0.05742814 -0.11675661 -0.060150027 0.020668166
0001a0 4b f6 15 3d 62 2a 52 bd a7 e2 79 bd 7e fe ad bb
       0.036611836 -0.05130995 -0.06100717 -0.005309879
0001b0 9c 79 88 3c fe 26 07 be 3f 68 15 3e 21 f5 18 be
       0.01665955 -0.13198468 0.14590548 -0.1493726
0001c0 9b 7c cb bc ae 3d 53 bc 57 19 ea bd 94 d8 40 3d
       -0.02483969 -0.012893124 -0.114306144 0.047081545
0001d0 ef 71 3b 3d 71 dc a5 3d 07 15 30 be 6e d7 83 bd
       0.045762952 0.080986865 -0.17195521 -0.06437574
0001e0 58 83 3d 3c c2 51 ec 3d 04 bc cd 3a 77 23 81 bb
       0.011566959 0.115390316 0.0015696292 -0.0039409953
0001f0 b6 b9 00 3e fb f3 0e 3c 7c c1 23 be 30 7e b7 bc
       0.12570843 0.008725162 -0.15991777 -0.022399038

cbam2.ChannelGate.mlp.1.weight f4 [8, 128]
000000 4b 6a 4e ba 7f 7e cb bc c0 7d 28 b7 eb 2f e1 ba
       -0.0007874115 -0.024840591 -1.0042859e-05 -0.0017180418
000010 6a dd b7 ba a4 cf 76 3a e4 f0 c8 3c f8 c4 02 38
       -0.0014027779 0.0009415096 0.024528928 3.1177857e-05
000020 d8 ee 3f bc dc f1 11 b9 78 d1 0b ba 21 92 36 bd
       -0.01171466 -0.00013918377 -0.00053336425 -0.044572953
000030 e5 94 a8 b7 d0 5d 0f b9 49 72 40 bc 65 25 89 bd
       -2.0096495e-05 -0.0001367249 -0.011745998 -0.066965856
000040 5d 3d 92 bc f6 d9 d6 bd bf e3 fb ba 37 75 21 3c
       -0.017851526 -0.104907915 -0.0019217654 0.009854606
000050 24 51 cb bc 62 6c 2d bc 61 74 ba bc c7 1f b9 bb
       -0.024818964 -0.0105849225 -0.022760572 -0.00564954
000060 9f 3f 49 bc 8e f3 ff ba 93 40 72 3c 90 37 d5 bb
       -0.012283235 -0.0019527541 0.0147859035 -0.0065068677
000070 d8 5b b3 3c 89 20 42 b8 ca f9 86 bc ea 8f ce ba
       0.02189438 -4.6283505e-05 -0.01647653 -0.0015759442
000080 43 b9 fc 3b 3b 56 cb bc 33 88 c9 b6 35 81 09 bd
       0.0077125146 -0.024821391 -6.0061225e-06 -0.033570487
000090 95 2b 43 b6 d7 ee e6 b8 48 9a 05 b8 8f 32 e4 bc
       -2.9082632e-06 -0.00011011742 -3.1853357e-05 -0.02785614
0000a0 0e 2b 87 b8 2d 5a e9 bc d2 df fd b8 7f 6a 21 36
       -6.445321e-05 -0.028485382 -0.0001210567 2.4052858e-06
0000b0 99 c3 da b8 af 22 00 bd d3 89 4d bc 95 d4 0f 37
       -0.00010431483 -0.031283077 -0.012545067 8.57296e-06
0000c0 b5 fa 9c bc 8e 05 21 3a a7 5b f1 b8 ea 87 c5 bb
       -0.019162515 0.00061424903 -0.00011508847 -0.006028165
0000d0 0b 2e ce 3b f8 c5 83 bb 93 b3 c6 bc d1 32 f7 bb
       0.00629211 -0.0040214024 -0.02425555 -0.0075438996
0000e0 84 2d de 3c fe fa 34 b9 4e a4 38 bc 77 14 1c b8
       0.027121313 -0.0001725964 -0.011269642 -3.7212358e-05
0000f0 4e 73 07 bd d8 2d 1a bd 81 de 72 3b 25 0e b3 3b
       -0.033068947 -0.037641376 0.0037058892 0.0054643326
000100 30 1b 70 b9 99 58 08 b8 63 08 a8 ba 9b 2a 72 3c
       -0.00022898312 -3.250744e-05 -0.0012819882 0.014780666
000110 0b 52 7d 3b 44 90 06 bd 43 dd b6 ba a7 57 4e ba
       0.0038653638 -0.032852426 -0.0013951439 -0.00078713376
000120 b2 fb f6 bc 12 0a a7 bc 03 40 13 bc 45 e6 60 3b
       -0.030149315 -0.020390544 -0.00898743 0.003431694
000130 27 5f 84 bc c4 ac db 38 28 96 07 3c b7 9c fd 3a
       -0.016158653 0.00010474914 0.008275546 0.0019349073
000140 69 27 f2 3b e0 ca 74 ba c6 46 7d bc d3 b6 66 b9
       0.007389952 -0.0009338092 -0.015458768 -0.00022002617
000150 89 ee 57 3a fb c9 2f bd 50 63 76 b7 b9 f2 ae b8
       0.00082371436 -0.042917233 -1.4685866e-05 -8.342177e-05
000160 ad d0 9f ba df dd 0a bd 94 b8 fe 38 4c 8f ec ba
       -0.0012192928 -0.033903 0.00012146044 -0.0018048077
000170 10 81 7c ba 40 56 13 b9 b2 ef 17 3c ca 69 a4 bb
       -0.0009632269 -0.00014051143 0.009273456 -0.005017494
000180 83 aa 49 b7 dd 90 c2 bb 9c 66 91 37 fe 14 5e b8
       -1.2020234e-05 -0.005937679 1.7333128e-05 -5.2948475e-05
000190 fc 6f 99 b9 f8 b8 1d 3d 88 03 ac b9 96 82 62 38
       -0.0002926587 0.038506478 -0.00032809027 5.4004217e-05
0001a0 e5 b6 5e 3c 78 55 92 ba 8e 61 b0 bc 1b 63 91 3c
       0.01359341 -0.0011164388 -0.021530893 0.017747452
0001b0 bf ee d9 bb 4d cd 9d ba ad 4b 9a bc c8 c2 58 bd
       -0.006650775 -0.0012039334 -0.018834913 -0.052920133
0001c0 de ed b1 bb 26 f3 73 bc 8e 6d cd ba 0c e6 d9 bc
       -0.0054299673 -0.014889514 -0.0015672909 -0.026598953
0001d0 5b 80 90 ba c6 31 8f b9 47 64 6e bc 63 76 c8 bc
       -0.0011024581 -0.0002731217 -0.014550275 -0.024470514
0001e0 9f 31 03 bc e7 14 a6 bc 5d 44 07 bb d8 41 2e b8
       -0.008007436 -0.020273639 -0.0020640113 -4.1546155e-05
0001f0 d1 c5 b1 bb bd 11 01 bd 34 66 05 3b d6 fa 46 b9
       -0.005425193 -0.031511057 0.0020355107 -0.00018976195
000200 f7 67 f3 b3 56 ed 08 3c 91 49 2d 32 9d fd 23 33
       -1.13344804e-07 0.008357367 1.0086652e-08 3.8182055e-08
000210 d4 4c 76 bc c8 48 71 33 10 5a e3 ba 9b d1 23 3b
       -0.015032966 5.617838e-08 -0.0017345566 0.002499676
000220 5e 49 5c bc 36 8d 1d b2 0b 2b 01 b3 81 77 00 bb
       -0.0134452265 -9.17071e-09 -3.00743e-08 -0.001960248
000230 e1 21 54 b3 a1 73 9a b9 85 4b 75 bb 3a 89 a0 33
       -4.939091e-08 -0.0002945932 -0.0037429046 7.475542e-08
000240 b6 05 ae 3c 44 bd 45 31 0e 3e 1a 33 c7 f0 a7 b7
       0.021242958 2.8774858e-09 3.5912358e-08 -2.0020072e-05
000250 42 f7 bc 32 4d 48 1c bb 4e c0 33 bd fb 7a cc bb
       2.199852e-08 -0.0023846806 -0.043884568 -0.0062402464
000260 d7 43 91 bc b3 bd 98 3a ff dd 0e b4 05 e7 37 bd
       -0.017732544 0.0011653214 -1.3305542e-07 -0.04489805
000270 69 48 aa b9 00 aa a3 38 b9 ac 6e bd 60 ed 5a 33
       -0.00032478877 7.804111e-05 -0.05827019 5.097297e-08
000280 5a 66 89 34 3e b2 3b b2 3c 50 c4 bb 7b ac 15 bd
       2.559271e-07 -1.092536e-08 -0.00599101 -0.036541443
000290 b2 4e 79 33 eb f2 cd 3a ee 9e a7 33 36 32 d8 bc
       5.8046403e-08 0.0015712654 7.8054526e-08 -0.02639113
0002a0 74 88 1b 32 09 fd 61 bc bd 59 05 33 32 39 47 33
       9.053213e-09 -0.013793238 3.1048092e-08 4.6385317e-08
0002b0 3c 53 8b 31 75 99 9a 30 cf d7 bb bb e9 72 da b3
       4.054895e-09 1.124859e-09 -0.0057325135 -1.0172318e-07
0002c0 94 07 01 bc 0a 74 73 b3 ba bf 62 b3 63 5f 14 b3
       -0.007875342 -5.6683383e-08 -5.27941e-08 -3.454569e-08
0002d0 01 73 bc 34 c7 8f 15 ba 5f 6c 98 bc 14 00 98 3b
       3.5101405e-07 -0.00057053234 -0.018606363 0.004638681
0002e0 f8 0f d8 bc 8a 0a 3c b3 06 d7 ba bc 97 2f a3 ba
       -0.026374802 -4.3781746e-08 -0.02280761 -0.0012450096
0002f0 56 7c 20 bd 76 ff 9f 3c f9 f9 fe ba b7 c0 9d b4
       -0.039181076 0.019530993 -0.001945316 -2.9383747e-07
000300 d3 f8 cb bb 28 40 f4 32 d6 3d 64 b3 dc 97 46 bc
       -0.0062247305 2.8434513e-08 -5.3141626e-08 -0.012121167
000310 d0 17 c2 bc 2e e0 d5 bc 7c 56 bf 31 00 fb 87 bb
       -0.023692995 -0.026107874 5.5686638e-09 -0.0041497946
000320 63 ba a2 bc f4 76 48 bd ec 9b 9b bc e1 13 8b b1
       -0.019864267 -0.048941568 -0.018995248 -4.0476924e-09
000330 a4 95 a5 bc 29 02 a3 b2 dc 14 1f bc f3 55 96 bc
       -0.020212956 -1.897668e-08 -0.009709563 -0.01835153
000340 38 7b 26 bc 82 dd 41 39 29 5f ce bb a6 64 0a bc
       -0.010161214 0.00018488432 -0.006297965 -0.008446848
000350 1f 7e 9a 32 3d 45 55 bc ff 31 22 33 38 95 6d 32
       1.7985313e-08 -0.013016996 3.7764035e-08 1.3829144e-08
000360 71 c9 2f ba 70 0d d4 bb 3a 91 80 32 ec 92 00 bd
       -0.00067057373 -0.0064713284 1.4967203e-08 -0.031390116
000370 26 dd 7d 32 ba 06 ab b3 b4 1c ba bb 75 0f 40 bc
       1.47768215e-08 -7.9640316e-08 -0.005679691 -0.011722435
000380 50 ad df ba 82 90 2a bd 15 c7 89 b8 a2 2f da 33
       -0.0017065201 -0.04164172 -6.569751e-05 1.01600804e-07
000390 de 0b 2f b3 7e 86 18 bc f6 00 20 b4 76 eb b0 b7
       -4.0756156e-08 -0.009309409 -1.4901511e-07 -2.109048e-05
0003a0 85 f5 d5 bc 3b 03 ae 33 56 58 66 32 c4 fc e4 b5
       -0.02611805 8.103094e-08 1.3407847e-08 -1.7060888e-06
0003b0 af 9a b3 bb e6 a9 9a 32 e3 1a 02 bd ab 6d d6 b2
       -0.005481086 1.800522e-08 -0.031763922 -2.496275e-08
0003c0 cc 1b d6 ba a9 fd ac bb b2 40 73 b3 af 96 e4 ba
       -0.0016335188 -0.005279262 -5.6636686e-08 -0.0017439927
0003d0 49 e5 ac bc 0f e5 0d bc f1 48 21 b3 27 76 ae bb
       -0.021105425 -0.008660569 -3.7552073e-08 -0.0053241435
0003e0 5f 6a c5 bb 1e ed a0 3c 73 43 8a ba 01 f1 17 b3
       -0.0060246433 0.019644316 -0.0010548666 -3.537662e-08
0003f0 0b 29 f1 bb 13 ce ff bc 70 c3 87 b3 af 7f 8d 33
       -0.007359629 -0.031226194 -6.321977e-08 6.58905e-08

cbam2.ChannelGate.mlp.1.bias f4 [8]
000000 7c 51 f1 bc 88 c4 dd bc 98 24 8d bc c9 11 03 bc
       -0.0294578 -0.027071252 -0.017229363 -0.007999846
000010 5d d3 4d bb d3 6d d0 bd a9 38 b5 3b cb 1b 77 3d
       -0.00314065 -0.10177197 0.005530436 0.06032924
