pishgu/models/test_org_domain/zara1.pt (torch, 446681 bytes, 33 tensors)

conv2Da.weight f4 [64, 2, 2, 2]
00000000: 4e59 033e 108e cc3e 4df8 a03e 1d2f 9a3f
00000010: c25b 59bd 468d 063e b1cc ee3b 2c3d c43d
00000020: 7a3d d1bd 51b9 463e 0ab1 e8be 3f86 213f
00000030: 8fed 90bd 3442 cf3c 66ca 11bd e751 af3b
00000040: 7fba b63e e68d 023f efc2 fc3e 369a 5f3f
00000050: 6dc6 a13e a85c f63c 825b 5d3e 7c7c b3bd
00000060: d8cd 313e 866b 0c3d e966 3f3f f97d e33d
00000070: 3796 1bbe 11bc 723e e512 953d dd95 8b3d
00000080: 870d e9bd bac8 af3e 0d46 88be dc69 173f
00000090: 1de9 433e fe58 b43d a337 113e c37c 86bd
000000a0: e367 933e 5bde c33d d0fd 023f e7a1 67bd
000000b0: ed34 fabd bf6c 9fbd 24f7 42be 63a0 e73d
000000c0: 6e87 30bc c5f0 1d3d c58f fcbe 3d2c 803e
000000d0: 6d94 1cbe dc22 c4bd d442 8c3d 1b72 503c
000000e0: 6ef6 f23d 7486 1ebf 7ef3 213e 6e1d 9bbf
000000f0: ff95 75bb 8db5 733e aed0 97bd f86b 173e
00000100: 4c23 773e d140 153e 876a 183f c4ac 763d
00000110: 5752 27be 90f2 e93d b225 32bd 4aeb 1d3d
00000120: 29fa 67bc 687a ce3e 50af a7be ca2b 843f
00000130: 30f9 1b3e 1b0a a23d e4e4 e53d 9a86 85bd
00000140: f2c4 39bb 6140 8b3b fc57 a3bb 47dd 5abc
00000150: 705d ae3c cb13 84bb 189a 25be 6378 4a3c
00000160: 082c 343c c9c6 ae3d db69 b7be 2a08 e53e
00000170: 2704 223e c301 073e 8e00 593c 045f 62bb
00000180: 7255 c2bd 2469 883e c37b 91be d7da 6b3f
00000190: 79ce 94bd d497 a43d 3064 eebc cf0e 413d
000001a0: eca6 b6bd c0b1 dd3d aace 57be 228c a93d
000001b0: b1b2 5e3e 9d21 bcbd 35e6 1e3d 5a7b 703c
000001c0: 2cee 57bb 9630 e23e ce17 b7be 9a4c 943f
000001d0: d215 0d3e 7056 2d3d d08d 483d 0393 e9bc
000001e0: 6311 e9bd ba00 d33e e5ad 72be b9b5 f33e
000001f0: cbd1 293e 4e7e 673d 3e14 063e 33e2 4d3d
00000200: 0a49 16ba 9bec 863b 3ca1 e4b9 fcdf 8e3b
00000210: e22b 9cbc 20f7 fd3b 5803 42bb 67bf 8bba
00000220: d200 823e 41b3 d1be 24a7 db3e 9b3e 67bf
00000230: 78f7 e23d c418 5c3c 5786 48bc 6e0d b93d
00000240: 647b 513e c9f1 523b 4e0f d63e 7cbf 67bd
00000250: 0ac3 bdbd 0a9e f73d b16f 5cbe 8353 d43d
00000260: 7857 3ebe fdab 95be ea29 13bf 2ded 19bf
00000270: 0f0e 33bd a1c4 bb3d 0bbd 233d fb81 bab9
00000280: 85b9 80be ac58 d4be a172 7abf 9dd5 15bf
00000290: 7bd5 96bd db92 843c 48ee 753e aba2 a03e
000002a0: 9a7b a53e e535 c6bd 3ea4 4c3f 1588 b7be
000002b0: e5b7 05be be09 8d3d fb2a cd3c 0389 d73d
000002c0: 8faa d33d cbb9 d23e c5e7 e73d 7bf0 913f
000002d0: 40ce fb3d 8d60 ea3d b164 cfb9 e057 ba3d
000002e0: 58a4 01bc 0050 0c3c f1c9 c2bb 2762 d23b
000002f0: 4323 42bd 911a 3c3d 2179 a53a a29f 5bbd
00000300: b67c 233e 49f2 ef3d 63b9 d63e 822c a43c
00000310: 3ce8 0f3b cc76 82bd 3e1b 53bd d684 2b3d
00000320: 8633 9dbd 7072 863e 1a85 6bbf 4e23 703f
00000330: aa19 36bd dffd f83c d7e0 69bd bc35 923d
00000340: b52b 2c3e 4f9d b5bc c4e6 803e 94b0 3cbd
00000350: 923a 90bd 4a41 be3d 3617 f1bd 3da8 463d
00000360: 80bf 123e 61bc edbd 679e 043f 64a1 86be
00000370: 5b1e efbd 2fd9 423e 7ac2 43bd 4cd2 063e
00000380: b25f 37be 9c40 503e a43d 05bf ad48 d73d
00000390: 7313 093e 6fd3 e7bd 591e 423e dd77 b43d
000003a0: c92e af3e a8c2 12bd 87d0 1f3f 374a 75be
000003b0: d387 cd3a 8d5f 18bd 4c3c 59be 6278 b43d
000003c0: 0dcd cbbe 6476 483e d678 4cbf 44ee 543e
000003d0: 1813 3ebe e367 57be 3f96 8a3d 4fe6 ac3d
000003e0: caa2 55be 4d0b 05bf 36f5 56bf 95a7 5cbf
000003f0: d69f d2bd 147e 083e 02dd 783d b9a3 5f3d
0.12827036 0.39952135 0.31439438 1.2045628 -0.053066023 0.13139829 0.0072875847 0.0958198
-0.10216804 0.1940663 -0.4544757 0.6309547 -0.07076561 0.025300123 -0.035593413 0.0053503397
0.3568916 0.5099777 0.49367473 0.8734468 0.315967 0.030073479 0.21616939 -0.08763978
0.1736368 0.03428223 0.74766403 0.11108012 -0.15194021 0.23704554 0.072789945 0.068156935
-0.11379533 0.3433283 -0.26615945 0.59145904 0.19131894 0.088060364 0.1418138 -0.06566765
0.28790197 0.09563895 0.5116854 -0.056550886 -0.12217126 -0.077844135 -0.19039589 0.11309888
-0.010774476 0.038559694 -0.49328437 0.2503375 -0.15290995 -0.095769614 0.06848684 0.012722517
0.11863409 -0.6192391 0.15815541 -1.2118356 -0.0037473438 0.23799725 -0.07412849 0.1478728
0.24134558 0.14575507 0.5953755 0.060223356 -0.16340004 0.11423218 -0.04349298 0.038554467
-0.014158764 0.40327764 -0.3275094 1.0325863 0.15231776 0.07912084 0.11225298 -0.06519814
-0.0028346148 0.004249618 -0.004984854 -0.013358421 0.021284789 -0.00403068 -0.16172063 0.012357804
0.010996826 0.08534009 -0.3582295 0.4473279 0.15821896 0.13184266 0.013244761 -0.0034541497
-0.09488954 0.26642716 -0.28414735 0.921308 -0.07265944 0.080367714 -0.029100507 0.047133263
-0.089185566 0.10824919 -0.2107493 0.08278681 0.21747853 -0.09186099 0.03879376 0.014677847
-0.0032948358 0.44177693 -0.3576035 1.1585877 0.13777855 0.04231876 0.048963368 -0.028512483
-0.113802694 0.41211492 -0.23699148 0.4759958 0.16583936 0.056516938 0.1309366 0.05026455
-0.00057329296 0.004117561 -0.00043607678 0.004360197 -0.019063894 0.007750407 -0.0029604044 -0.0010661901
0.2539125 -0.40957072 0.42900956 -0.90329903 0.11082357 0.013433639 -0.01223906 0.09035765
0.20457226 0.0032187572 0.41808552 -0.056579098 -0.092657164 0.120906904 -0.21526982 0.10367491
-0.18588054 -0.2923278 -0.5748583 -0.60127527 -0.04371458 0.09168363 0.039975207 -0.00035573528
-0.2514154 -0.414739 -0.9783116 -0.58529073 -0.07364937 0.016183307 0.24016678 0.31374106
0.32320863 -0.09678248 0.79938114 -0.3584601 -0.13058431 0.06886624 0.025044909 0.1052418
0.10335266 0.41157374 0.113235034 1.1401514 0.122951984 0.11444197 -0.00039557138 0.09098792
-0.007912718 0.008563995 -0.0059444834 0.006420392 -0.04739691 0.045923773 0.00126246 -0.053619035
0.15965542 0.11716134 0.41938314 0.020040754 0.002195849 -0.06370315 -0.051539652 0.04187473
-0.07675843 0.26259184 -0.9199997 0.9380387 -0.04445807 0.030394493 -0.05709919 0.07139155
0.16813548 -0.022169737 0.2517606 -0.046066836 -0.070424214 0.09289797 -0.11772005 0.04850029
0.14330864 -0.11608196 0.518042 -0.26295006 -0.11675712 0.19028161 -0.04779289 0.1316616
-0.17907599 0.20337147 -0.5204718 0.10511909 0.13386326 -0.11319625 0.18956889 0.088119246
0.34215382 -0.03583017 0.6242756 -0.23954092 0.0015680738 -0.0372005 -0.21214408 0.08812024
-0.3980488 0.19576412 -0.7987188 0.20794016 -0.18561971 -0.21035723 0.067669384 0.084423654
-0.2086288 -0.5197037 -0.8396791 -0.8619321 -0.102843925 0.13329345 0.060757644 0.054599497

conv2Da.bias f4 [64]
00000000: 9e22 203e cbc7 a63e 4472 e13e 8a99 fd3c
00000010: 1105 353d 1f55 933c 3a87 973e 2d1e 593e
00000020: e873 663d 0512 b63e e310 00be bc59 533e
00000030: 76fb 853e 92b2 b23b 4ac3 cd3e e433 a7bc
00000040: 37f6 31bc 0a30 423e fb31 84bd 0297 723e
00000050: 4486 1d3d 61fe 9e3c 7c39 523e dd7e 10bd
00000060: f967 0b3d 17c9 a53e e346 99bd 80dd afbc
00000070: 9332 50bd e849 a23e fc22 15bc 2ffc b23e
00000080: ea23 b5bd 02e2 af3e 8442 a73d 936e a13d
00000090: 5d92 ebbc 4dbf a93e d51f 923e ec86 e6bd
000000a0: 4d79 703e 6814 28bd c88d c63e a0af 81bd
000000b0: 65dd c63e fed2 a83e eb85 94ba 357b f0bd
000000c0: 6c53 cabc 6cd6 4d3e 3ccf ab3e a933 ccbb
000000d0: f6dd 9d3d dfb6 833e c1ab 82bd 3a5b 843e
000000e0: 42a6 c63d 8a0d 073d 82cc 3e3c d62c 1bbd
000000f0: 639c 6d3e 00e0 403e 8e14 f0bd e07f 6abd
0.15638205 0.32574305 0.4403249 0.030957002 0.044194285 0.017984925 0.29595357 0.21202917
0.05626288 0.35560623 -0.12506442 0.206397 0.26168412 0.005453416 0.40188056 -0.020410486
-0.010861925 0.18963638 -0.064548455 0.23690417 0.038458124 0.019408407 0.20529741 -0.035277236
0.034034703 0.32379982 -0.07484224 -0.021467924 -0.05082948 0.3169701 -0.009102579 0.34958026
-0.08844741 0.34352118 0.08166984 0.078824185 -0.028756315 0.33153763 0.2853991 -0.11256203
0.23483773 -0.041035086 0.38780046 -0.06332326 0.38840786 0.32973474 -0.0011331415 -0.1174225
-0.024697982 0.20101327 0.33556545 -0.0062317443 0.07708351 0.25725457 -0.06380416 0.2585085
0.0969968 0.032971896 0.011645438 -0.037884556 0.23204188 0.18835449 -0.117226705 -0.057250857

cbam1.ChannelGate.mlp.1.weight f4 [4, 64]
00000000: de2d cdbc b663 8e3c 6ad1 05bc b408 e3bc
00000010: 03e7 af3d 63d2 98bc 99cc ebbd abd1 54be
00000020: a63d 8c3b 50fc 823d 630e 043d 0ca5 393c
00000030: 2b2e b23c d7af 7d3d 8d28 e0bd 59a5 f7bd
00000040: d2ec 0db3 f8bb ccbd a494 533d 5ced fe3c
00000050: 6dea 61bd 657d 41bd 35d8 57bd 6c0d e9b3
00000060: e180 1bbd 0188 0335 ce71 82bd 184c 7ebd
00000070: 27e2 de3c 113e babd df52 94bd 6b20 08ba
00000080: bf2c 103d 0f40 13ba c5c6 6fbd b354 4a3d
00000090: a2e5 843c 38b4 92bd 672b c7bc 3ff4 6e3b
000000a0: e444 14be ce7d f2bd aed6 2dbc a848 74bd
000000b0: e4f5 3fbd 4bcb 60bd 87fe bb3c 2e01 ce33
000000c0: 3182 3535 af07 0ebd 245e 0abe 7ec2 6bbd
000000d0: 26c2 bb3d 3662 883d 9744 493d 69be a53d
000000e0: e811 d1bc 49c6 32bd b25f 633d 1095 ba3d
000000f0: ea50 8ebd 49ad c9bd 793b 0dbc f5a0 733d
00000100: 6186 b8bc 85ac e7ba 4c15 5bbc feb8 b4bc
00000110: 33c3 49bd 6e7b 2bb2 0662 bab9 b6b6 0531
00000120: 15ee a0bb f011 a5bb 3e0c a1b8 ebcb 29bd
00000130: 6500 a33c 7bf5 b8bc 8a1a f5bc febb b93b
00000140: 3c26 deb9 8475 6abc f1c1 63bc b241 baba
00000150: d9cd d4ba 36a4 d3b9 7f92 b6bc d4b7 93b9
00000160: fe24 5bb1 918d ffba 9baa fd36 1880 24b2
00000170: 70c4 2dbb ec48 2832 bc71 58b3 7e25 2f3a
00000180: 75fc ae3b a041 78ba 3734 83ba eb5a 4e3b
00000190: f5b4 c03c 6166 eb32 629a 1134 4ec0 8136
000001a0: 17a8 22b2 4f6a 57bc 4a73 d4bb c1bf 0dbc
000001b0: f62f 05ba cfe7 da34 eb1a bdb2 2b50 2632
000001c0: bb39 50b2 04bd acbb 6d64 4636 582a 9db6
000001d0: f7ea 11b9 5c3d e832 78eb 0634 f44a 8d3b
000001e0: 3f48 5fbc a4a6 3632 75f1 2dbc 30e2 2bbd
000001f0: 27c2 3736 3e9a 37ba 711c 65bb 644d a1bb
00000200: 04f6 5e32 7bd8 e031 b79f 5bbb 1858 24b5
00000210: bc7f 03bd a62c e4ba 3e87 593b b6e5 a630
00000220: b6fc 0b32 7e84 3fbd 3b16 323a b753 863b
00000230: 6942 e33b 84ce ef3b 17bf 53bc 9855 6fbc
00000240: d523 4db2 48c6 92bc 6d11 c5b9 17d7 b1bc
00000250: 99b4 a43a d8a9 beb1 6687 a4b9 f254 7f32
00000260: d302 c231 a6a6 0a32 2886 1d39 319d 48ba
00000270: 62df cebb 343d bdb1 1b59 cab4 23de 75b6
00000280: 9db7 a1bb fe93 893c eeca 5234 13ae a4bc
00000290: 506e 30bd 8cb0 cd34 e12e 2932 7164 a0ba
000002a0: 39f0 11b2 94c9 6832 d374 8c36 bda8 a9bc
000002b0: e9fb 68bb 9ccf 82ba 614e 36b5 5bc5 9a32
000002c0: 97b0 30b2 1a09 97bb 0aec ae3a 87b2 2bbb
000002d0: 1043 79ba 8a28 59bb 4897 73bc f4a1 c239
000002e0: 684f 48b2 cbb9 21b9 01eb 43ba 2302 c7bc
000002f0: c263 ddb1 9580 b6bb 9244 64bd 346f 82bb
00000300: ff52 14bc 27a0 14ba 915b f1bd 3c8c 24bd
00000310: 1e63 9bbc 0ce4 5abd b82c 39bd 473c b0b1
00000320: 68cc 8cbb d8a7 d2bd d928 9e3b 64ab 543c
00000330: 2d2c 003d 37fb b2bd 1542 55bd 3b4f d1bc
00000340: d2f1 e139 3c21 7f3c 8993 98bc 72b5 63bd
00000350: bd56 9fbc a84c 3eb9 9357 10bd fb5e 203b
00000360: b0a5 38b2 3eb1 023b 636c d0bc a2e4 563c
00000370: 7a3e 04bd 63bb d432 1fd9 263c 4063 b6bc
00000380: 5a89 843c d2f0 c6bc f914 f0bb 857d 9abd
00000390: cb48 0f3b 582f 4bbb fdae 83b4 c02c 33bd
000003a0: 1aff 4e32 5bc5 6ebc 9377 c23b 9749 43bd
000003b0: 5cbb ccbd 144c 09bc c011 163c fa83 13b3
000003c0: 1604 a9b9 7c7c d43c a225 a83c aa74 b33c
000003d0: 6335 5d3b 8928 34bd 23f8 90bd fcda f7bc
000003e0: 2de8 20bc f0f4 ad3c 04b2 42bd b49e 2fbd
000003f0: aea6 1034 0188 04be 02d4 45bd a031 5fbd
-0.025046285 0.01738153 -0.008167604 -0.02771411 0.08588984 -0.018655008 -0.11513633 -0.20783107
0.00427981 0.06395781 0.032240283 0.011330854 0.02175053 0.061935272 -0.109452344 -0.120920844
-3.3044508e-08 -0.0999679 0.051655427 0.031119041 -0.055155206 -0.047238726 -0.052696425 -1.08523494e-07
-0.037964705 4.8999215e-07 -0.06369363 -0.062084287 0.027207447 -0.090938695 -0.07242369 -0.0005192819
0.035198923 -0.00056171505 -0.05853917 0.04939718 0.016222779 -0.0716328 -0.024312688 0.00364615
-0.14479405 -0.118404016 -0.010610266 -0.059639603 -0.04686536 -0.054881375 0.022948517 9.592837e-08
6.761721e-07 -0.034675296 -0.13512474 -0.05755853 0.0916789 0.06659357 0.049137678 0.080929585
-0.025521234 -0.04364613 0.055511184 0.09110463 -0.06949027 -0.09847505 -0.008620136 0.059479672
-0.022525014 -0.0017675316 -0.013371777 -0.022060867 -0.049258422 -9.981575e-09 -0.00035549718 1.9457906e-09
-0.004911194 -0.0050375387 -7.6793585e-05 -0.041454237 0.019897649 -0.022577992 -0.029919881 0.0056681624
-0.00042371626 -0.0143102445 -0.01390122 -0.0014210253 -0.0016235664 -0.00040367403 -0.022286652 -0.00028174988
-3.1889722e-09 -0.0019497146 7.5598487e-06 -9.5751815e-09 -0.002651479 9.7954675e-09 -5.039486e-08 0.0006681307
0.005340154 -0.0009470228 -0.0010010068 0.0031487297 0.023523787 2.7404157e-08 1.3560341e-07 3.866887e-06
-9.46786e-09 -0.013147905 -0.00648347 -0.008651675 -0.0005080694 4.0774327e-07 -2.2014737e-08 9.6807e-09
-1.212032e-08 -0.005271556 2.9562755e-06 -4.683894e-06 -0.00013915809 2.7036258e-08 1.2565386e-07 0.0043119136
-0.013628065 1.0631684e-08 -0.01061665 -0.041963756 2.7382137e-06 -0.000700388 -0.003495958 -0.0049225558
1.2978038e-08 6.543869e-09 -0.0033511946 -6.1222954e-07 -0.03210424 -0.0017408326 0.0033192183 1.2143377e-09
8.148325e-09 -0.046757214 0.0006793474 0.004099335 0.006935407 0.0073183198 -0.012923977 -0.0146078095
-1.1940718e-08 -0.017916813 -0.0003758775 -0.021709008 0.0012566029 -5.549037e-09 -0.00031381397 1.4862268e-08
5.646464e-09 8.070549e-09 0.00015022664 -0.0007652818 -0.0063132504 -5.507582e-09 -3.7690265e-07 -3.6637146e-06
-0.0049352185 0.016794201 1.96316e-07 -0.020102536 -0.043073952 3.831268e-07 9.847754e-09 -0.0012236965
-8.494731e-09 1.3550011e-08 4.1859253e-06 -0.020710343 -0.003555054 -0.0009980085 -6.791434e-07 1.8017706e-08
-1.02847e-08 -0.0046092393 0.0013345492 -0.002619894 -0.0009508589 -0.0033135735 -0.014867611 0.00037123228
-1.1659587e-08 -0.0001542337 -0.0007473678 -0.024293011 -6.4432877e-09 -0.0055695274 -0.055729456 -0.0039805416
-0.009052991 -0.00056696165 -0.11785043 -0.0401728 -0.018968161 -0.05344014 -0.045208663 -5.129127e-09
-0.004296828 -0.1028592 0.0048266468 0.012980316 0.03129213 -0.08739322 -0.052064974 -0.025550475
0.00043095514 0.015571889 -0.018625038 -0.05559296 -0.01945054 -0.00018148369 -0.035239767 0.0024470675
-1.0747883e-08 0.001994207 -0.025442308 0.013116034 -0.032286145 2.4765262e-08 0.010183602 -0.022264123
0.016178776 -0.024284754 -0.007326719 -0.07543472 0.0021863456 -0.003100356 -2.4527972e-07 -0.04374385
1.20487815e-08 -0.01457342 0.0059346645 -0.047677603 -0.099966735 -0.008379955 0.009159505 -3.4346137e-08
-0.00032237236 0.025938265 0.020525757 0.021906216 0.0033753745 -0.04398397 -0.07078578 -0.030255787
-0.00982098 0.02123496 -0.04753305 -0.04287596 1.3471683e-07 -0.12942506 -0.04829789 -0.054490685

cbam1.ChannelGate.mlp.1.bias f4 [4]
00000000: cd56 aabc ee26 7a35 5823 b0b2 e5ab e2bb
-0.020793343 9.318891e-07 -2.050517e-08 -0.006917464

cbam1.ChannelGate.mlp.3.weight f4 [64, 4]
00000000: 8427 b9b3 6ed4 e533 cd0e 29b3 5bc9 fc32
00000010: 144e 4b35 260e 4732 b9e7 e133 1e92 4d34
00000020: 906b e2bd 010a 2933 3c46 c632 84e3 f1b3
00000030: 2fa3 b7bd 19d5 7134 f2e0 a333 a874 e331
00000040: ea39 bebc f4b3 d7b6 f93b 8bbb a9f2 cbbc
00000050: 32ed b6bd 64e3 8732 8a7e dd34 daaa 893b
00000060: 128f 5ebc 1054 0833 a444 d5b2 e1c8 99b8
00000070: b2ab 183e f269 00b2 89eb 3db3 c30b 4031
00000080: 1757 f43d 041b c6b4 37a5 fbb1 0289 56bc
00000090: a218 39be f64f 2433 738a 19b4 fc5f a03b
000000a0: beaf 873b cc40 0d33 8adf b533 954e ff34
000000b0: 9c43 aa3d 780a 4e33 220e c133 1bc3 8e34
000000c0: b1af 66bd 282e 3132 5278 69b3 f7b4 1abb
000000d0: 64bc f3bc 5ee2 f931 89aa 3c3a 160f cb3d
000000e0: 1e23 dbbd da0c b8b4 29fa 4e37 307a 4b3d
000000f0: 503b 343e 4f99 1f33 c8e4 2b37 7651 8ebd
00000100: da83 69bb ec64 3cb4 b45f 8fb3 1b6a 58b4
00000110: e93a 073e 9d73 d333 5eee 0233 04a3 65bb
00000120: b070 6e3e 1f10 deb5 3eaa c432 c1dd 80bc
00000130: 34ab 34bd 3a2a 87b2 5b35 b13a eb50 323c
00000140: 0e3f 8c3e ca3c 9d30 c039 75b1 ea2f 7438
00000150: 27b9 2abe 97f2 96b2 f921 6032 f22c 3ab2
00000160: 9277 a7bd 262f 30b2 9f85 7433 59ee bab3
00000170: 5b98 0db4 46cc f232 08bc 8930 20ec 03b3
00000180: 84b6 e1ba 977e b6b3 bd7e c8b2 9ca6 7a32
00000190: 2476 43b7 c993 44b4 7636 9bb3 df21 6a32
000001a0: 35e7 b13d 2b0c 4fb4 ca97 2c33 b872 6cbb
000001b0: e025 29be e331 7cb2 901d b0b3 2445 0bb2
000001c0: 17b2 843e be40 c5b3 e051 fd32 636d a8b8
000001d0: 3226 3f3d 6e92 7433 0622 b4b3 743c c7b2
000001e0: 2d3a 323e cb65 39b3 9547 edb6 082f 13bc
000001f0: 5882 ce3d 81ca 38b3 070e 03b2 acb7 3b34
00000200: 9e31 2e3c adac bb32 0d78 ccb3 ce06 92b3
00000210: b15d b7bd 77fa edb2 0c5c 91b4 80e7 deb4
00000220: 13bf e7bd b5bf 8232 d04b 80b3 164e 1db5
00000230: 9533 b33c f8c2 2ab0 7c6a a5b0 6b3c 8db5
00000240: 5dfe e33d bd45 0db4 e2c5 37b4 9c6b 90b9
00000250: f550 13be f33f 48b3 be59 01b1 9e71 01b4
00000260: 3454 9b3e 7acd 31b3 13be ebb3 3d64 f031
00000270: 688e 8a3d 441e 6431 22ae 63b2 e00a 0d34
00000280: f73d ac3d 4ea4 a431 b78a c631 9cb3 1d32
00000290: 9306 2e3e c170 13b3 a295 1033 0cf0 a732
000002a0: a630 2939 04eb 7433 d968 00b4 fa08 10b6
000002b0: 82fb 47bd 9a3e 42b3 642e 8d33 1fa1 28b6
000002c0: 724b 773d 5599 8733 b069 8532 5e7d eeb9
000002d0: 6aa5 1c3e c033 d4b1 d590 f532 7276 1133
000002e0: 2edb ae3a 2a00 f932 02cd 3035 35ee f5bb
000002f0: 1867 5132 c266 3532 95c6 2732 8876 e5b1
00000300: 79f2 4633 6f5e 4ab3 b895 ac33 b79b 7ab3
00000310: 9160 3cbd 3ecb 3233 ecab d332 cde1 42b4
00000320: f98c 91bd 6810 b3b3 a6db 2132 43eb 5e33
00000330: dbfe 07be 2ee3 cc33 68db 2eb4 1ee8 b535
00000340: e10c 6e3d 07d0 ccb1 cef8 6132 2e04 6334
00000350: 55d6 833d d80e 2232 4485 67b4 886e ab34
00000360: 78d8 da3c f5f7 f331 0ee3 2ab2 d48b 41b3
00000370: 9ab8 cebd 7eba 9233 3c75 10b4 da64 4634
00000380: 9300 9a3d e8b8 1735 2a4c f3b2 3e84 26bd
00000390: 4402 2f3d 2fcb c732 a955 eab4 a30c 6fbc
000003a0: b0d6 90bd 61f5 5834 789e 2532 ae08 e832
000003b0: fa14 f23d 771c 08b3 b29e d7b1 bcea 00b7
000003c0: 0a3d 423d d71c c8b1 eaef 48b2 4400 85b3
000003d0: 5cca 74bd 8932 ac34 7562 f2b4 f72d 5c3c
000003e0: 53aa f33d 46d8 6eb5 41d8 aa33 54b4 f2bc
000003f0: 5fef 18be 44a2 60b3 2cba a93a e360 e03d
-8.621922e-08 1.0702284e-07 -3.936184e-08 2.9428227e-08 7.573701e-07 1.15865415e-08 1.0519529e-07 1.914527e-07
-0.11055672 3.9357477e-08 2.3082173e-08 -1.1263822e-07 -0.08966672 2.2522399e-07 7.631196e-08 6.619832e-09
-0.023220975 -6.4284486e-06 -0.0042490927 -0.024895983 -0.0893196 1.5819474e-08 4.1256527e-07 0.0042012753
-0.013583915 3.1741422e-08 -2.4827678e-08 -7.333025e-05 0.14909247 -7.47467e-09 -4.421921e-08 2.7946363e-09
0.119306736 -3.690003e-07 -7.323844e-09 -0.013094189 -0.18075803 3.825695e-08 -1.4299603e-07 0.0048942547
0.004140823 3.2888053e-08 8.469131e-08 4.7554627e-07 0.08313677 4.7972634e-08 8.9898336e-08 2.659152e-07
-0.056319896 1.0313251e-08 -5.435897e-08 -0.0023606399 -0.029752918 7.2725888e-09 0.00071970426 0.09914987
-0.107000574 -3.4282021e-07 1.2336802e-05 0.049677074 0.17600751 3.7159506e-08 1.02456615e-05 -0.06949131
-0.0035631568 -1.754558e-07 -6.676365e-08 -2.0155169e-07 0.13206066 9.846483e-08 3.0484777e-08 -0.0035039792
0.23285174 -1.6544981e-06 2.289482e-08 -0.01573074 -0.044108585 -1.573527e-08 0.001351993 0.01088355
0.27391857 1.1440531e-09 -3.568502e-09 5.8218757e-05 -0.16672193 -1.7572615e-08 1.30462405e-08 -1.0836844e-08
-0.08177103 -1.0255269e-08 5.6932205e-08 -8.704655e-08 -1.3187075e-07 2.82654e-08 1.0021504e-09 -3.071557e-08
-0.0017220532 -8.498062e-08 -2.3340698e-08 1.4589798e-08 -1.16504125e-05 -1.8307686e-07 -7.227656e-08 1.3628294e-08
0.08686677 -1.9282804e-07 4.0184922e-08 -0.003607912 -0.16518354 -1.46796735e-08 -8.201016e-08 -8.106586e-09
0.25917122 -9.185304e-08 2.9490309e-08 -8.031239e-05 0.046667285 5.6943854e-08 -8.388092e-08 -2.319414e-08
0.17405005 -4.316625e-08 -7.0714837e-06 -0.008983381 0.10083455 -4.3025015e-08 -7.628393e-09 1.7482552e-07
0.010631947 2.1848189e-08 -9.5213274e-08 -6.7998926e-08 -0.08953417 -2.770433e-08 -2.7075328e-07 -4.151916e-07
-0.113157414 1.522117e-08 -5.974255e-08 -5.860069e-07 0.021875182 -6.2122707e-10 -1.2035595e-09 -1.0522903e-06
0.111325 -1.3157019e-07 -1.7115192e-07 -0.00027545996 -0.14386351 -4.662429e-08 -1.8822983e-09 -1.2055395e-07
0.3033768 -4.1397904e-08 -1.09776146e-07 6.996315e-09 0.06765443 3.319557e-09 -1.3252732e-08 1.3135605e-07
0.08410256 4.7917075e-09 5.7783285e-09 9.179441e-09 0.16994695 -3.4328654e-08 3.3663703e-08 1.955052e-08
0.00016135219 5.7024423e-08 -1.1959072e-07 -2.1462897e-06 -0.04882384 -4.522608e-08 6.5742626e-08 -2.5127736e-06
0.060374685 6.314318e-08 1.5531299e-08 -0.00045488303 0.15297475 -6.1758954e-09 2.8587616e-08 3.386817e-08
0.0013340467 2.898749e-08 6.5863435e-07 -0.007505203 1.2188842e-08 1.0558951e-08 9.765832e-09 -6.6782526e-09
4.6320995e-08 -4.7117677e-08 8.036608e-08 -5.8349283e-08 -0.04599053 4.1628702e-08 2.4641814e-08 -1.8149804e-07
-0.071069665 -8.338321e-08 9.421376e-09 5.1902372e-08 -0.13280813 9.540814e-08 -1.6284832e-07 1.3553106e-06
0.05811775 -5.9608314e-09 1.3153295e-08 2.1142543e-07 0.06437365 9.433016e-09 -2.1562033e-07 3.1931654e-07
0.026714548 7.1004203e-09 -9.946929e-09 -4.5063487e-08 -0.10093804 6.8325775e-08 -1.3453695e-07 1.8476877e-07
0.07519641 5.652096e-07 -2.8323559e-08 -0.04065346 0.04272677 2.3259046e-08 -4.3648222e-07 -0.014590415
-0.070721984 2.0205836e-07 9.640296e-09 2.7012302e-08 0.11820407 -3.1690856e-08 -6.275365e-09 -7.684048e-06
0.047421493 -5.824045e-09 -1.1696082e-08 -6.1933434e-08 -0.059763297 3.2074266e-07 -4.514765e-07 0.013438693
0.11897721 -8.897663e-07 7.955578e-08 -0.029627003 -0.14935063 -5.2301644e-08 0.001294916 0.1095598

cbam1.ChannelGate.mlp.3.bias f4 [64]
00000000: 436a b33e 508d b43e 5115 e83d 050c b33e
00000010: 6c28 c33d 5745 573e b12f bdbd e950 8f3e
00000020: eb66 ff3d 07ec 3d3e 5003 19bb 4797 273e
00000030: 01f9 1c3e 2bfa 64be 4379 f53e 175c d73d
00000040: 1041 b836 24f1 ef3e 170d a1bd 3304 60be
00000050: 9bcd 4e3e e760 fa3e f879 b53e 057a 04bc
00000060: c91b af3d e516 0c3f 60b2 0c3d b062 b3bc
00000070: 7856 3abe a77e b23e d086 123e db48 c63d
00000080: bec7 8bbc 46f4 083f bf7f 673e 7f96 41be
00000090: 36c0 35bd 2a9d c73e 7ba2 3c3e 6258 c03e
000000a0: 4b95 0a3f 0e46 c73e d463 103f ed80 fe3e
000000b0: 7eb3 073e 1308 273e 9186 213f a5fe 063d
000000c0: 7d0d d93e 4398 b73e 28f6 da3d 1d01 fc3b
000000d0: c9af 393e 9b53 c63d 4f1e 23bd 617d a03e
000000e0: f588 0a3f 587c d43d 1da6 993e dc72 e03d
000000f0: a1db a53e 3199 3d3e c9e5 a73d 7fc4 c7bd
0.3504201 0.35264063 0.11332191 0.34970108 0.09529194 0.21022545 -0.09237612 0.27991417
0.12470802 0.18547069 -0.0023347922 0.16366301 0.15329362 -0.22361057 0.47944078 0.105156116
5.4912016e-06 0.46863663 -0.07863825 -0.21876602 0.2019562 0.48902056 0.35444617 -0.008085732
0.085502215 0.54722434 0.0343498 -0.021897644 -0.18197048 0.34862253 0.1430924 0.09681865
-0.017063018 0.5349773 0.22607325 -0.18905066 -0.04437276 0.38987094 0.18421356 0.3756743
0.54134053 0.38920635 0.56402326 0.49707738 0.13252065 0.16311674 0.6309596 0.03295769
0.42393103 0.35858354 0.10691482 0.0076905624 0.18133463 0.09683915 -0.039823826 0.31345657
0.5411523 0.10375279 0.30009547 0.10959408 0.32394126 0.18515469 0.08198125 -0.097542755

cbam1.SpatialGate.spatial.conv.weight f4 [1, 2, 7, 7]
00000000: 4f72 9931 343a dfb0 8632 2f32 b36f 243e
00000010: 0465 3732 56a4 73b2 9dff 4032 050a 5b31
00000020: 01d3 79b2 6cb7 a130 5e2d 0b3b f6cd 4832
00000030: aca0 7732 e8c8 9fb0 2ca2 86b0 4a7a a1b1
00000040: d5d7 9cb0 6a0f 01bd 0584 d231 c2e4 08b2
00000050: cfc5 c6b1 7e15 8532 5dc8 7cb2 d506 1b32
00000060: 58bf d0bb c62d 4631 9e55 b6b1 a9b2 9432
00000070: 3394 04b2 1330 8d32 d036 db2f 8602 3bbd
00000080: c4ad 7332 bc87 1e30 7cde 3cb0 9369 4b32
00000090: f022 402f 76c1 2832 e1e0 89be 8816 f4b1
000000a0: ceea 6332 b178 14b1 f426 a530 8b1f 9831
000000b0: 47da 8132 d725 43be 90fa cc31 0c33 ebb0
000000c0: 961a 48b2 702e 61af 788d f3b0 85ef ef30
000000d0: d3ce 443e 2e2d e130 44a2 35b0 c4a4 5bb1
000000e0: 2a56 8c32 3185 0632 26d5 5932 06ef 32bc
000000f0: 6464 8b30 ad14 9431 d657 84b2 1459 7430
00000100: 922c 9230 5a2a 0031 c309 0cbe 1f51 0232
00000110: d1ce 11b2 1042 25b1 036d 8e32 4ccb e231
00000120: 384b 5b30 733f 77be 4c69 e530 58e8 0231
00000130: a6d3 29b1 83fb 99b2 c7e9 8231 a499 2a32
00000140: 2121 dc3c 5ec2 9ab0 0056 bd30 d677 adb1
00000150: dad7 0231 0266 d9b1 0af0 78b1 67ac 1ebe
00000160: 4f99 22b2 d62e d031 348d 7fb2 e205 d4b0
00000170: fcb4 4331 eaec f531 4b23 9abd 8eb5 24b1
00000180: b67e f5b0 b0af 0d31
4.4658814e-09 -1.6241928e-09 1.0197828e-08 0.16058235 1.067497e-08 -1.4181827e-08 1.1233991e-08 3.187439e-09
-1.4541684e-08 1.1766423e-09 0.0021236758 1.1688362e-08 1.4413825e-08 -1.1625874e-09 -9.795875e-10 -4.6996194e-09
-1.1411837e-09 -0.03150884 6.1268133e-09 -7.968255e-09 -5.7850467e-09 1.5493011e-08 -1.4713888e-08 9.023741e-09
-0.006370466 2.8838811e-09 -5.3066307e-09 1.7310713e-08 -7.717108e-09 1.6436422e-08 3.9874815e-10 -0.045656703
1.4183971e-08 5.7672955e-10 -6.871017e-10 1.184016e-08 1.747471e-10 9.822875e-09 -0.2692938 -7.103896e-09
1.3266527e-08 -2.160544e-09 1.2016401e-09 4.4273682e-09 1.5116838e-08 -0.19057404 5.965667e-09 -1.7113009e-09
-1.1647577e-08 -2.0480129e-10 -1.7720785e-09 1.7457614e-09 0.19219522 1.6383745e-09 -6.607801e-10 -3.1962353e-09
1.6337328e-08 7.830111e-09 1.2679527e-08 -0.010921245 1.0142114e-09 4.3097175e-09 -1.5406766e-08 8.889327e-10
1.0635566e-09 1.8650526e-09 -0.13675599 7.585441e-09 -8.487135e-09 -2.4048212e-09 1.6580548e-08 6.600578e-09
7.977863e-10 -0.24145298 1.669187e-09 1.9049562e-09 -2.4713045e-09 -1.7925919e-08 3.8100754e-09 9.930236e-09
0.026871266 -1.1260217e-09 1.3776003e-09 -5.0485864e-09 1.9040187e-09 -6.327128e-09 -3.6225196e-09 -0.15495454
-9.464499e-09 6.0589214e-09 -1.4875059e-08 -1.5426702e-09 2.8479112e-09 7.1573725e-09 -0.07526263 -2.3968343e-09
-1.786211e-09 2.0618067e-09

conv2Db.weight f4 [128, 64, 2, 1]
00000000: d5c8 e73b 8a8a 4bbe aa1a b6bd f8ca 0f3e
00000010: 4e29 463e e2b7 b7bd ddf1 1d3d 7179 2abe
00000020: 2673 253d a7f3 d83d 016b 6b3d 2b5c 03bd
00000030: a48b 613d e5f5 9c3d b1be 03bd 9ec5 333d
00000040: 7518 b33c 2095 ebbd 994b 2f3e 5733 513d
00000050: c959 da3c a0c1 4bbc 5cab c53d b3fe 9abb
00000060: f0d6 86bd 4fb3 403d 4956 ef3d 9c78 913d
00000070: 83ef 353e a0b4 9b3d b08e 163e c6e3 043e
00000080: a0fe e0bc 31a5 ba3a 7875 aa3d 3dbe ad3d
00000090: 8169 de3c 891e 093b cc1c 2c3c 56bf 3b3e
000000a0: 3ade 4a3e c5f4 e13d b562 323c 171c 7bbe
000000b0: 3d21 c13d 5b88 0abe fe07 7fbc 5221 703c
000000c0: 3d98 2e3c b6e4 7bbd ff2f aebd 611e 673e
000000d0: c202 8bbb b195 023d c0e4 cd3c c7f7 96bd
000000e0: 5136 823e 1c9b d93d a40f 01be e4bf 18be
000000f0: 4362 943d e660 823d 79bc 303d 9a54 343e
00000100: 7a7a aabd 0c03 4b3b 8f7c 6c3e b51e 4f3d
00000110: d19b c93d 1760 edbd 5171 ee3d a253 693d
00000120: 79c0 1d3e a1ca 80bd c8e3 1f3c 7a9e b7bd
00000130: e17b 00be a2b5 eabd 2085 edbc 52ec f6bd
00000140: bd50 90bc e768 fe3d 983e 8c3c 7496 0abe
00000150: 40f6 403d 9389 533e deb8 273e f9fd 843e
00000160: 5eb1 613e 7a72 0b3d 3003 b73d 1172 553e
00000170: 0e10 ba3d 8390 a7be f6f4 4dbc 8425 d3bb
00000180: e420 953d 9c47 53be 7827 84bc b324 ecbd
00000190: c392 cd3c 0347 293e ff72 0b3c 9b6c 9a3b
000001a0: 39df 4f3d b7fe 00bd 2178 003c 3028 6cbd
000001b0: e635 213d 1aa6 67bd c40f 3b3d 23fb c1bd
000001c0: 8722 d73d ef68 3fbe 5040 103d 2584 ec3d
000001d0: 41ef b83d 5062 17be bb53 0d3e ced3 b4bb
000001e0: 9e69 16bc 8e18 5b3e e9a7 fc3d d376 223e
000001f0: e9b0 2f3c 7a76 b8bc fda5 e8ba c701 5a3c
00000200: e6ce e63d 2445 70be 99dc 383c 0681 063e
00000210: 33d3 00bd 4fea e6bd ccca 213e 7fd4 01be
00000220: 87ce 043e 4767 5dbd bd3c 093e 6dfc 92bd
00000230: 2cd8 413d a889 fb3d 17fe 933c 1a7c bb3d
00000240: 73e3 e33d 3445 95bd 0392 373c 3e84 dd3c
00000250: 9a5f 97bb a231 87bb 8391 1ebd 6eb8 9f3c
00000260: 56c5 c93c c1ee 803c 69cc 54bd 4201 183d
00000270: 8ac1 973d 78eb 573b 2a54 333c 1588 45bd
00000280: f9d1 a53b b108 9b3a 1a4c 843c 9409 8dbd
00000290: 64f7 543d 63b3 1bbc 5997 013d 7625 3b3e
000002a0: 337a 063e 3dbb 303e c810 1c3e cc45 4cbe
000002b0: 2810 1b3c 159b 91bd b263 fd3b d617 543c
000002c0: ee8f 933d 5363 6bbd 41dc 55bd 7c25 0c3e
000002d0: 0e46 333c cb1c b53c 9fa7 543d 7aec 94bd
000002e0: a93f bb3d 402e 82ba 6200 8e3b 8377 cbbd
000002f0: 2f1c d33d f83e a63d 1720 ba3d b867 833e
00000300: 0282 4b3c 3ee4 95ba 251c f73d 8d89 393e
00000310: b309 cc3c 3e60 e2bd 9891 9fba 7a04 50bc
00000320: 92ec a43c 82a0 52bc 3eea d13c cb2b 89bd
00000330: a023 92bc 0f68 17be a9e5 1d3d 11f7 e5bd
00000340: 35ed d83c 2ad9 093e a7a9 083e 2ea5 08be
00000350: e648 08be 8557 b33e 8a13 203e 5d2e 573e
00000360: 94b2 163d 8e35 b13d 7d70 c13d 7eac 98bc
00000370: ba5b 133e a93c 9bbe dcab d3bb 38ce 473b
00000380: c8b8 0f3e 387c 74be 4fea b73d 7576 05be
00000390: ac08 9dbb c16e fb3d 7a38 c9bb 1f68 94bb
000003a0: cb66 2b3d 9a59 1dbd 83a0 133e 3fbd f4bd
000003b0: b3f2 bb3c a1e8 c83d c3ba 043c d447 f2bd
000003c0: 4739 013e a1ee 65bc ca9a cf3a cb6d b43d
000003d0: 4792 2c3e 4139 e8bd bfcf 01bd 4f85 453c
000003e0: 16b9 a9bd 5caa 933e 9f8e d53d 41ac c73d
000003f0: b8de 40bd f9e6 1c3d 8831 65bb d469 9239
0.0070735016 -0.19877067 -0.088918045 0.1404227 0.19351694 -0.0897062 0.038560737 -0.16647889
0.040393017 0.10593348 0.057475094 -0.03207032 0.055064812 0.07664088 -0.03216428 0.043889634
0.021862248 -0.11503053 0.17118682 0.051074352 0.026654141 -0.0124363005 0.09651825 -0.0047300695
-0.06583965 0.047046002 0.116863795 0.071030825 0.17767148 0.07602811 0.14702868 0.12977514
-0.027465165 0.0014239905 0.08323187 0.08483551 0.027149918 0.0020922741 0.010504913 0.18334708
0.19811335 0.11033014 0.010887791 -0.24522434 0.09430168 -0.13528578 -0.01556587 0.014656382
0.010656414 -0.061497413 -0.08505248 0.22570182 -0.004242272 0.031881038 0.02513349 -0.073714785
0.25432065 0.10625288 -0.12603623 -0.1491695 0.072453044 0.06366138 0.04314849 0.17610398
-0.08324142 0.0030977158 0.2309439 0.050566394 0.09844173 -0.11590593 0.11642707 0.056964524
0.15405454 -0.062886484 0.009758897 -0.08965774 -0.12547256 -0.11460425 -0.028994143 -0.12056793
-0.017616624 0.12422352 0.01711969 -0.13533956 0.047109842 0.20657949 0.16379115 0.25975016
0.22040316 0.03404472 0.08936155 0.20844294 0.090850934 -0.3272744 -0.01257061 -0.006443681
0.07281664 -0.20632786 -0.016132101 -0.11530437 0.025094396 0.16530995 0.008511304 0.004712654
0.05074999 -0.031492915 0.007841141 -0.057655513 0.039358042 -0.05655489 0.045669332 -0.09471729
0.105046324 -0.18692373 0.035217583 0.11548642 0.09030009 -0.14783597 0.13801472 -0.005518413
-0.009180455 0.21396086 0.12336714 0.1586564 0.010723331 -0.022517432 -0.0017749664 0.013306088
0.112699315 -0.23463875 0.011283063 0.13135156 -0.031451415 -0.112751596 0.15800017 -0.12678717
0.12969409 -0.05405357 0.13402076 -0.07177053 0.0473253 0.12282115 0.018065495 0.0915453
0.11127367 -0.0728859 0.0112042455 0.027040597 -0.004619551 -0.0041257897 -0.03871299 0.019497123
0.02463023 0.015738847 -0.051952753 0.037110575 0.074099615 0.0032946747 0.010945359 -0.04822548
0.005060431 0.0011828152 0.01614957 -0.068865925 0.051993743 -0.009503218 0.031638477 0.18276009
0.13132553 0.17258926 0.15240777 -0.199485 0.009464301 -0.07109658 0.007732832 0.012945136
0.07205187 -0.05746777 -0.052212004 0.13686174 0.010941995 0.022108456 0.05191767 -0.07271667
0.091430016 -0.0009931996 0.0043335417 -0.099349044 0.1030811 0.08117479 0.09088152 0.2566507
0.012421133 -0.0011435819 0.12065915 0.18118878 0.024906969 -0.11053513 -0.0012174128 -0.01269638
0.020132337 -0.012855651 0.02562439 -0.06697806 -0.017839253 -0.14785789 0.0385491 -0.11228765
0.026480297 0.13461748 0.13345967 -0.13344261 -0.13309059 0.3502771 0.15632454 0.2101378
0.0367914 0.08652793 0.094452836 -0.018636938 0.1439046 -0.30319718 -0.006459696 0.0030487906
0.14035332 -0.2387551 0.08980238 -0.13033469 -0.0047922935 0.12276984 -0.0061407657 -0.0045290138
0.041846078 -0.03841553 0.14416699 -0.11950158 0.022942876 0.098099954 0.008101168 -0.118301064
0.12619506 -0.014033944 0.0015838977 0.08810004 0.16852675 -0.11339045 -0.031692263 0.012055709
-0.082872555 0.2884091 0.104275934 0.09749652 -0.0470874 0.03830621 -0.003497215 0.00027926138

conv2Db.bias f4 [128]
00000000: 8e20 bf3d d478 363e e050 35bb 214e bc3d
00000010: 9a66 8cbc 77c5 533d b719 83bc 17a2 9c3d
00000020: 18c3 d4ba 1ad4 c83d 9698 89bb 5f32 0abb
00000030: 6eab bcbc 061d 38bc 627a 243e de74 0d3d
00000040: cef5 933b 3fbb e9ba a6d6 3d3e f546 35bc
00000050: 611c 3fbd b75b a7bd 0e8c b53d 5ee0 6fbb
00000060: 966c d3ba 616c 0f3e d05b 5cbb 922f 303e
00000070: 4fd2 10bc f1b9 533c a668 563e d6f9 023e
00000080: 920f 973d 6a0d 583e e9ed 3bba 6332 8cbb
00000090: 3101 093d ef33 a93c 6e85 87bb 578c 1bbc
000000a0: 4d02 0fbd 03bc 813e dba2 43bc ae8f 323e
000000b0: e6a7 633e 6a51 a8bb 86df ac3d 36c7 48bc
000000c0: 76d7 35bc af62 423e 12a5 753d e30c 3a3e
000000d0: b416 5dbc 3e6d 84bc 4c29 233d f81a 91bc
000000e0: 7072 083c 9d6d 653e f730 2aba 2111 a63d
000000f0: 533a 343b 5bc2 eaba e8e6 e5bc 5743 a6bb
00000100: 34f0 523d 4d7f 9f3d 3738 903d 0173 443e
00000110: df0a ec3d 6974 1b3d ecfa 6abc 5a0b afbc
00000120: e174 86bc 111a 50bc 8ac1 47bd daf9 74ba
00000130: 41d5 cbb9 2994 87bd f66a 46bc 75c1 cb3c
00000140: 926b bbbc 5c8e b33d 2575 0f3d 2276 d5b8
00000150: 5886 0ebc 27df 08bb 5dd9 4bbd 8946 2dbb
00000160: 8155 093d 0e05 a7bc b6bf 9ebc a06f 63ba
00000170: 4c87 093e 2d09 6f3d bd06 233e e016 023e
00000180: f755 373e d29b 32ba e5e4 90bc 1239 a73d
00000190: 910a 5a3d ae31 a2ba ba68 7bb9 31f8 88bc
000001a0: 731a 493e 3a10 aabc 6395 2d3d f047 28bc
000001b0: 9c48 18bb ba9d 6e3d 030c 013e 1252 083d
000001c0: f24a bfbc 159a 94b9 7a55 1c3e 9bc6 27bc
000001d0: 82d2 76b9 ba63 d63d 08ac 63ba 0f68 91bc
000001e0: dbe6 b03d 8f89 b53d 59c9 b8ba a799 01bd
000001f0: e5c8 c1bb 782f 3dbc 2e6b 8cbb 2a72 0a3e
0.09332381 0.1781953 -0.0027666613 0.091945894 -0.017138768 0.05170199 -0.016003473 0.07648104
-0.0016232459 0.0980608 -0.004199098 -0.0021087152 -0.023030963 -0.0112373885 0.1606231 0.03453528
0.004515386 -0.0017832293 0.18538913 -0.011064281 -0.046657924 -0.0817179 0.08864604 -0.003660224
-0.0016130384 0.14006187 -0.003362406 0.17205647 -0.008839204 0.01292275 0.20938358 0.12790617
0.07376017 0.21098867 -0.0007168935 -0.0042784675 0.0334484 0.020654647 -0.004135779 -0.009493909
-0.034914304 0.25338754 -0.011940683 0.17437622 0.22232017 -0.0051366584 0.08441071 -0.012254527
-0.011098733 0.18982957 0.059971876 0.18168978 -0.013494182 -0.016165372 0.039834306 -0.017713055
0.008328065 0.22405095 -0.00064922817 0.08108736 0.0027500584 -0.0017910706 -0.028064206 -0.0050739455
0.051498607 0.077879526 0.07041972 0.19184496 0.11525511 0.037952814 -0.014342051 -0.021367718
-0.016413154 -0.012701527 -0.048768558 -0.0009345092 -0.00038878064 -0.06620056 -0.012110462 0.024872521
-0.022878442 0.08767387 0.035023827 -0.000101786354 -0.008699022 -0.0020884962 -0.04976784 -0.0026439747
0.03352881 -0.020388152 -0.019378524 -0.0008675996 0.13430518 0.05835836 0.15920539 0.12704039
0.17903887 -0.000681338 -0.01768727 0.08165182 0.053232733 -0.0012374425 -0.00023976239 -0.01671991
0.19638996 -0.02075969 0.042378794 -0.0102710575 -0.0023236638 0.05825589 0.12602238 0.033281393
-0.023351166 -0.0002834356 0.15266982 -0.010240222 -0.00023538808 0.1046824 -0.00086849974 -0.017749814
0.08637782 0.08864128 -0.0014098092 -0.031640675 -0.005913841 -0.011546962 -0.0042852378 0.13520113

cbam2.ChannelGate.mlp.1.weight f4 [8, 128]
00000000: dc8e 213e da43 053e fb04 85b8 a4d0 923c
00000010: 4892 a93d 2b73 cd3d 100b 63b7 6311 273e
00000020: c7f8 a038 c1a6 013e 3b85 743c 67e1 28b7
00000030: 91b0 9d3d e686 beb7 d12f 063e e63d 983d
00000040: 3522 473c 2cf0 9eb7 1b8e 133e dde3 97ba
00000050: 1edd d73d 2602 4eba b68b 5f3d aa76 8b39
00000060: c5ff 773b 6b4c ec3d 0aab 43b8 416d 143e
00000070: 88cc ba39 c5e1 523d d5af 5f3d 7f0b 0d3e
00000080: ab05 de3d fc37 4b3d 6066 0ab8 f95f b039
00000090: 686d db3d 9e77 943d e73c bdbb 13ce 69b7
000000a0: 6011 443d b40d 203e 036d 01bb cf02 8b3d
000000b0: f4be 7b3d e972 933a 26e5 ae3d c805 9139
000000c0: 9036 893c 900b 3b3e b234 e03d 1a12 d33d
000000d0: 8590 a13b bf8b e53d d022 8a3c 41fc 513d
000000e0: b6c5 1c3d 09e3 823d c3f0 5ab7 0c10 983d
000000f0: 579d ad3d 51b6 b0b8 6ff5 0abb a69b 273e
00000100: b43a d33d 9648 073d 2d7e b63d 4d01 233d
00000110: 2332 fe3c 3220 8e3d 06dc ceb8 f7bc 083b
00000120: 7847 6bba 9473 28b9 294d 6b3d e660 9839
00000130: 8ebf d738 9552 1d3e 6e3c 7ab9 a60a aa3d
00000140: cdcf d63d 8401 6a3d 858b f03d a7c3 98b6
00000150: 51f2 adb8 b576 0fba 600a 073b c288 e2b7
00000160: 279d 7a3d f4e9 54b9 d236 ecb7 ddac 8939
00000170: f78a b03d c3b0 c03d 0203 133e 1b3f e33d
00000180: 6a80 033e f042 d8b6 0a6e 97b8 d894 f13d
00000190: 02cc 293d 60f3 e8b6 8cd3 dd37 2125 e5b9
000001a0: af7d c93d cd2a 913d 2fad 0f3e d946 0c3b
000001b0: c348 28b9 a69b d23d 0e3d 1d3e 018e d13d
000001c0: 4d39 45b8 4d9d d2b6 1e9a d73d e0f6 e7b8
000001d0: 19a6 25b7 0adf ca3d 5f30 5cb8 295f acb8
000001e0: dc1d f43d 26c6 cc3d d4c4 1eb7 f018 cd3d
000001f0: 51eb 71b8 9924 efb9 209d c1b4 1f4e 183e
00000200: 6249 8a3e 267d 583e e75c 04b9 ead7 953d
00000210: 7db8 263e 828c 043e 73dd 9abb 9a2e 723e
00000220: 33ae 8139 2e7d 5f3e 3296 9f3c 6aba b2b7
00000230: e969 dc3d 6024 2938 fb70 6d3e 68d2 b33d
00000240: 3ffa a13c 8810 c3b5 f578 8d3e 9a1a 00bb
00000250: 09a6 3d3e d063 0c3a 0520 b43d 005c 2d3a
00000260: b999 733b a8d9 5f3e 36cf 03b8 a828 893e
00000270: d39a be39 7618 d33d 6f39 4a3e 160d 653e
00000280: fa63 703e b502 433e f0c5 62b6 6ea4 5039
00000290: d30e 443e f6b8 253e 8e82 473b 5e71 12b8
000002a0: 6314 6a3d af04 393e 85d2 2a3b 7cea 323e
000002b0: debc c13d 1332 f53a 0c0f f23d 5071 46b9
000002c0: e336 9c3c 2744 953e 08b1 353e 1efe 2e3e
000002d0: 0dbf 133a e9b0 593e 4b19 c23b 8aa0 a43d
000002e0: 7fab 843d c1d3 493e 38a9 00b8 a3e6 333e
000002f0: 4ff6 203e 6452 09b9 ada4 b23a 07f8 893e
00000300: 190e 293e d949 a53d 4731 c33d 6966 033e
00000310: e2eb 0a3e 98cb f73d 5835 86b7 f7bc 8a3a
00000320: 0908 80bb 5483 9039 a1cb 0f3e 7415 5f3a
00000330: 44ef bb37 c092 363e 968e 0439 fc2e 293e
00000340: c103 173e ac7c 133e 1813 703e be45 0db6
00000350: cf66 ceb8 71c6 05ba 84f6 0839 3c97 2cb8
00000360: b5b9 123e 8a6a b1b9 f0ca 91b8 29b9 c1b7
00000370: 28ee 573e 718e 243e 425e 6f3e 77f9 2b3e
00000380: f61e 663e 5480 d9b5 8e93 24b9 c256 753e
00000390: 3a2a a43d 5370 28b8 f5e1 30b8 f819 05b9
000003a0: 8ed5 5a3e 1dac 293e 9ee5 433e 750f 583b
000003b0: a3a4 adb9 9ef0 763e b132 8a3e 1fa7 2f3e
000003c0: 2a7a 7639 638f e037 0925 7a3e 0409 b6b8
000003d0: a541 c9b6 895f 583e 3c29 cab7 4008 a7b6
000003e0: 93e4 543e 8326 223e 9374 c3b6 fbd3 363e
000003f0: 864d abb7 d057 ce38 f130 7cb9 08cb a13e
0.15777153 0.13014165 -6.342862e-05 0.017921753 0.08279854 0.10031732 -1.353283e-05 0.16315226
7.675733e-05 0.12661268 0.014924343 -1.0066061e-05 0.07699693 -2.2712582e-05 0.13104178 0.07433681
0.012154152 -1.8946906e-05 0.14409678 -0.0011588294 0.10540222 -0.00078585965 0.054576598 0.00026600558
0.003784166 0.11538013 -4.6650915e-05 0.14494802 0.00035629072 0.05148484 0.054611046 0.13773917
0.10840925 0.049613938 -3.2997108e-05 0.0003364084 0.10714227 0.07249378 -0.0057750824 -1.3935863e-05
0.047868133 0.15630227 -0.0019748814 0.06787645 0.061461404 0.0011249456 0.085398 0.00027660863
0.01674965 0.1826613 0.10947551 0.10306187 0.004930558 0.11208295 0.016862303 0.05126596
0.03827449 0.0639096 -1.3049869e-05 0.07424936 0.08477276 -8.426293e-05 -0.0021203419 0.16367969
0.10313931 0.033028208 0.08910785 0.039796162 0.031029766 0.069397345 -9.863828e-05 0.0020864585
-0.0008975188 -0.00016064785 0.057446633 0.00029063894 0.00010287679 0.15363534 -0.0002386437 0.08302812
0.104888536 0.05713035 0.11745361 -4.55273e-06 -8.294418e-05 -0.0005472706 0.002060555 -2.7004982e-05
0.06118503 -0.0002030505 -2.815892e-05 0.0002625947 0.086202554 0.094087146 0.14356616 0.11096021
0.12841955 -6.445094e-06 -7.2207375e-05 0.11795968 0.041454323 -6.9424714e-06 2.6443762e-05 -0.00043705947
0.09838425 0.07088242 0.14030908 0.0021404533 -0.00016048834 0.10283594 0.15355322 0.10232163
-4.7021826e-05 -6.2768e-06 0.105274424 -0.000110609224 -9.873439e-06 0.099058226 -5.2497136e-05 -8.219324e-05
0.11919758 0.09998731 -9.4633615e-06 0.10014522 -5.7678033e-05 -0.000456129 -3.6063375e-07 0.14873551
0.27009112 0.2114149 -0.0001262311 0.07316573 0.16281314 0.12944224 -0.004726106 0.2365059
0.00024734586 0.21825096 0.019480798 -2.130606e-05 0.10762388 4.0326617e-05 0.2318763 0.08780366
0.019772647 -1.4533443e-06 0.27631345 -0.0019547106 0.18520369 0.00053554494 0.0879517 0.00066131353
0.0037170483 0.21860373 -3.1425814e-05 0.2678883 0.00036354977 0.103074 0.19748472 0.22368273
0.23475638 0.19044001 -3.379184e-06 0.0001989768 0.1914628 0.16183838 0.0030442807 -3.4914694e-05
0.05714835 0.18068193 0.002606542 0.17472261 0.09459852 0.001870694 0.11819276 -0.00018924964
0.01906914 0.2915356 0.17743313 0.17089126 0.0005636074 0.21258892 0.0059234253 0.08038433
0.06478023 0.19709684 -3.0675175e-05 0.1756845 0.1571896 -0.00013096031 0.00136294 0.26947042
0.16509284 0.08070726 0.09530883 0.12832035 0.13566545 0.12099379 -1.5998885e-05 0.001058488
-0.003907208 0.00027563667 0.14042522 0.00085099717 2.2403554e-05 0.17829418 0.00012641618 0.1652183
0.14747526 0.14403027 0.23444784 -2.1051233e-06 -9.841995e-05 -0.00051031174 0.00013061805 -4.1148844e-05
0.14328654 -0.0003383945 -6.951939e-05 -2.3093615e-05 0.21086943 0.16069962 0.233758 0.16794382
0.22472748 -1.6205108e-06 -0.00015695227 0.23958877 0.080158666 -4.015893e-05 -4.217211e-05 -0.00012693543
0.21370527 0.16569562 0.19130561 0.0032968197 -0.00033119795 0.24115226 0.269918 0.17153595
0.00023505898 2.676965e-05 0.2442819 -8.6801156e-05 -5.997909e-06 0.21130194 -2.4099478e-05 -4.9779483e-06
0.20790319 0.15835004 -5.825024e-06 0.17854302 -2.0420888e-05 9.839202e-05 -0.00024050825 0.31600213

cbam2.ChannelGate.mlp.1.bias f4 [8]
00000000: 3727 383e 0ba2 863e 093e 0435 d54f 2fba
00000010: 46b8 11bc deee aa38 c402 10b9 5a78 543d
0.1798371 0.26295504 4.9264105e-07 -0.0006687616 -0.008894032 8.150724e-05 -0.0001373394 0.05187259

cbam2.ChannelGate.mlp.3.weight f4 [128, 8]
00000000: 6152 3d3e d954 103e fe63 9a3c 7703 303c
00000010: 3fc1 6839 9ca2 e836 fbd3 2c3a 7675 523e
00000020: e26e d83d 2a04 343e e062 6baf 8595 3635
00000030: 3351 7533 4951 f3b6 96c2 4633 cab3 753d
00000040: eb3f 16bd b59d 57bd 50cd e5af f68c 5cb7
00000050: 6477 58b3 ce51 4033 d44e d433 74a7 0fb7
00000060: 1499 f63c 5a80 d2bd 1a0b a7b0 9672 d5b5
00000070: dab8 13b3 59a0 0e36 766b f931 8795 c43b
00000080: a7e0 043e 6a29 2c3e e2af 9c32 54f6 aab4
00000090: f342 1134 73b3 2a36 f1ea c8b3 bdb7 963c
000000a0: 2734 f33d 8cfe 4a3e f5c3 5cb2 bd70 6436
000000b0: 7c99 f2b2 6c7f 4037 648d 0eb1 ca0b 0a3d
000000c0: af58 88bc 32a5 a7bc 9bb1 4ab3 51e3 8132
000000d0: b64b 5633 b040 b0b5 770e a6b3 9ff1 44bc
000000e0: 8418 c13d e9d8 5f3e f3f6 af34 146e cf34
000000f0: 7053 10b4 30ff 52b7 97e6 8433 c375 ef3c
00000100: 16a5 e2b9 6af2 13ba e89b 2131 b3a2 b2b2
00000110: 334e f8b2 660d 2732 d493 d0b2 5535 39b7
00000120: e36b ef3d 88dd fa3d 9288 6133 e40c c13c
00000130: ef24 3239 d8dc 44b5 245b 0f38 422c 213d
00000140: 5d6e 8f3a 04fb 073c be22 4033 21cc d7b4
00000150: 3a68 bbb2 1449 3633 f420 c730 e7e6 8ab8
00000160: a9d5 46bc f86d 15bd 69af 0f33 60b7 ba32
00000170: 2000 e432 986b 9cb2 a54e 8031 f051 2836
00000180: 0e7f ef3d 9dc3 4b3e fac5 b531 1dd6 cbb5
00000190: cab1 7f34 8e0f a1b6 5df0 b333 1219 893c
000001a0: 2cbf ef37 0bb3 40b8 96a9 a7b3 1406 a633
000001b0: 4613 1331 4e6e 7e33 a0e5 30b3 df43 30b6
000001c0: 5d71 c83d 3329 453e 4d0c 2535 9aa2 5234
000001d0: 991b 13b3 aab1 06b7 7e30 b93a 39e2 553c
000001e0: 24d7 bbbb 9c9c 85b8 10e3 4bb3 291f 0e3c
000001f0: de90 deb3 2a51 a3b5 04d1 5eb3 bc13 e03d
00000200: 2494 2bbd 67f3 27bd 4254 8132 e455 c333
00000210: dae5 6d33 664b 0633 4f76 7d32 b5a0 1b3b
00000220: da0c feb5 6c5a 8bb6 f8f6 d732 8229 1932
00000230: fe97 0533 234b a431 fe85 ffb3 2f34 80b4
00000240: 305e 3e3e 4e70 ae3e 71d2 11b9 0ace 6c33
00000250: 70c7 46b1 76d6 53b6 60e1 54b3 cd8f 243d
00000260: 894d 07ba 704a d7b9 f94c 5bb3 8efc 80b3
00000270: d3ba 5d33 4ac1 edb1 76be 0f33 7224 23b9
00000280: 6ba9 c93d 34fd fa3d 246a 6cb2 31cf b5b7
00000290: fb46 9832 c984 2437 bee1 17b2 dd21 e23c
000002a0: 258f 10bd d419 86bd ece2 7c33 fe65 3bb2
000002b0: 0abd 71b2 edca c934 90c0 f2b0 7247 b53a
000002c0: 7a53 d0bd b2c2 8dbd 6c83 7a33 717a 53bb
000002d0: 0e6b 3b32 c6d5 f2b9 2eab 1932 3059 e83c
000002e0: 21d5 9db9 6c23 dcb9 14ec 2634 60a7 39b1
000002f0: f476 b034 6463 e232 a8da f3b4 7000 b639
00000300: 6300 e0bc 3e61 7ebd 5630 4832 3e81 ec33
00000310: bcc0 5831 f86d 76b2 20a9 9831 311a a4bc
00000320: 1946 08be 17a0 5d3c f9d4 9f33 8176 2bbd
00000330: abdf a8b5 c8dd 1eb8 2507 3ab9 43d0 37bd
00000340: a44c 96b7 10a5 14b8 9c78 0532 40a3 f5b1
00000350: 6228 b032 c3e7 5933 5e7c efb2 9d59 46b6
00000360: 0f84 253e 91f0 503e 3693 4133 4549 7635
00000370: 808f 92bb 37e4 8737 5ed2 a8bb 7dc7 283d
00000380: f80f 8cbb 2610 0cbc 30ac 7b33 009e 41b3
00000390: cc50 b832 1942 fdb2 b3f9 ca32 2909 c939
000003a0: 2175 7abd 3c57 c13c 14cb 4732 243e baba
000003b0: 94dd 0d33 e4d1 49b6 0c77 c7b1 2ccb 5a38
000003c0: 852a 493e 641a 8f3e cb26 ab32 1f5e a734
000003d0: de2d 5333 6f6f 0e37 e0da 0233 9a92 293c
000003e0: 8295 aa3d 5b68 423e e8bc cf37 4a9f 8db5
000003f0: 1caf 0eb9 470f 9fb7 0b65 34bb 0337 0a3d
0.18488456 0.14094867 0.018846508 0.010743014 0.00022197234 6.933069e-06 0.0006592867 0.2055262
0.10568024 0.17579713 -2.1408253e-10 6.8017863e-07 5.7117358e-08 -7.251427e-06 4.6277442e-08 0.059985913
-0.03668205 -0.052640636 -4.180074e-10 -1.3145842e-05 -5.0400004e-08 4.4777885e-08 9.886358e-08 -8.562452e-06
0.03010229 -0.10278387 -1.2154004e-09 -1.5903086e-06 -3.4394226e-08 2.1252984e-06 7.2590707e-09 0.0059992704
0.12976323 0.16812673 1.8240772e-08 -3.1844195e-07 1.3528533e-07 2.5436427e-06 -9.355961e-08 0.01839816
0.11875182 0.19823664 -1.2850241e-08 3.404027e-06 -2.8242304e-08 1.14737595e-05 -2.074409e-09 0.03370265
-0.01664385 -0.020464513 -4.719332e-08 1.5120948e-08 4.9894616e-08 -1.3131848e-06 -7.7326085e-08 -0.012020498
0.09428504 0.21860088 3.277597e-07 3.8636847e-07 -1.34414e-07 -1.2576391e-05 6.188673e-08 0.029230958
-0.00043229078 -0.00056437275 2.3517206e-09 -2.0795914e-08 -2.890656e-08 9.723726e-09 -2.4281611e-08 -1.1039277e-05
0.116905 0.12249285 5.2511105e-08 0.023565717 0.00016989162 -7.333706e-07 3.4178738e-05 0.03934885
0.0010942925 0.008299593 4.473508e-08 -4.0195394e-07 -2.1817062e-08 4.244164e-08 1.4488521e-09 -6.623362e-05
-0.0121359015 -0.036481827 3.3454317e-08 2.173664e-08 2.654275e-08 -1.8209718e-08 3.734231e-09 2.5081645e-06
0.11694156 0.1989884 5.2903006e-09 -1.5186994e-06 2.3813405e-07 -4.7999847e-06 8.379059e-08 0.016735587
2.8580042e-05 -4.5943114e-05 -7.807391e-08 7.731083e-08 2.140227e-09 5.9239305e-08 -4.1187036e-08 -2.626555e-06
0.09787247 0.19253998 6.148519e-07 1.9616928e-07 -3.4251205e-08 -8.028388e-06 0.0014128832 0.013054424
-0.005732434 -6.371105e-05 -4.7471133e-08 0.008674421 -1.0364032e-07 -1.2168068e-06 -5.18785e-08 0.10941264
-0.041889325 -0.04100361 1.5055893e-08 9.0960185e-08 5.538991e-08 3.126788e-08 1.47534385e-08 0.0023746912
-1.8928215e-06 -4.1530493e-06 2.5141603e-08 8.91521e-09 3.110471e-08 4.7815703e-09 -1.1898736e-07 -2.3879826e-07
0.18590617 0.34070057 -0.00013906673 5.5135423e-08 -2.892616e-09 -3.1566283e-06 -4.9565074e-08 0.0401762
-0.0005161395 -0.00041063456 -5.1059917e-08 -6.006404e-08 5.1625488e-08 -6.9195822e-09 3.3468005e-08 -0.00015558468
0.09846767 0.12255326 -1.3761142e-08 -2.1673362e-05 1.7727407e-08 9.806078e-06 -8.840685e-09 0.027604038
-0.035292763 -0.06547895 5.8879706e-08 -1.0908023e-08 -1.4071029e-08 3.7586815e-07 -1.7662547e-09 0.0013830496
-0.10172172 -0.06921901 5.832719e-08 -0.0032269026 1.0909174e-08 -0.0004631711 8.944694e-09 0.02836284
-0.00030104167 -0.0004198806 1.554584e-07 -2.7016185e-09 3.2869104e-07 2.635506e-08 -4.542137e-07 0.0003471407
-0.027343934 -0.062104456 1.16525225e-08 1.10131154e-07 3.1541694e-09 -1.4344089e-08 4.4430095e-09 -0.02003202
-0.1330799 0.013526938 7.442754e-08 -0.04186106 -1.2582071e-06 -3.7876685e-05 -0.00017741004 -0.04487635
-1.7917082e-05 -3.5439676e-05 7.769042e-09 -7.148998e-09 2.050746e-08 5.0735036e-08 -2.7879818e-08 -2.955646e-06
0.16163658 0.20404269 4.5070202e-08 9.174876e-07 -0.004472673 1.6199525e-05 -0.005152031 0.04120587
-0.0042743646 -0.008548772 5.8597095e-08 -4.5080014e-08 2.1457161e-08 -2.9483134e-08 2.3629445e-08 0.00038344532
-0.06114686 0.023601167 1.1629499e-08 -0.0014209193 3.3030645e-08 -3.0073506e-06 -5.8051963e-09 5.216447e-05
0.19645126 0.27949822 1.9924661e-08 3.1174656e-07 4.916898e-08 8.489805e-06 3.046705e-08 0.010349894
0.083292976 0.18985121 2.476429e-05 -1.0551678e-06 -0.00013607409 -1.8961391e-05 -0.0027526047 0.03374387
