pishgu/models/test_org_domain/zara2.pt (torch, 446681 bytes, 33 tensors)

conv2Da.weight f4 [64, 2, 2, 2]
-0.30387625 -0.45053223 -0.3308475 -0.60520136 0.32370698 0.010343008 0.03916031 0.09355276
-0.2580145 -0.09136323 -0.57854605 0.04607635 0.08094742 -0.05483824 0.09229255 0.13503382
0.2051351 -0.25492826 0.6567928 -0.5358989 0.08772033 -0.08644096 0.054640304 0.059621535
0.28186604 0.16108079 0.52592313 0.13254616 0.052654445 0.19128038 0.07053765 0.029217511
-0.26980022 -0.05641927 -0.74017733 0.15520693 0.117592365 -0.007751295 -0.15833375 -0.25209892
-0.077221975 -0.7928035 -0.6187618 -1.1147538 -0.024247842 0.09485008 0.104251206 0.022307774
0.08737209 0.24706075 -0.52431685 0.7905682 0.107377656 -0.06903506 -0.05474883 0.012408535
-0.034942485 0.2735989 0.13814329 0.3960193 -0.107022926 0.09184505 -0.16426618 -0.19024715
-0.030421099 -0.03262342 0.7819653 -0.44170284 0.0926172 -0.13275439 0.07264956 -0.2834216
0.114494964 -0.20431739 0.80938536 -0.8700795 0.08204357 0.2319258 0.30998182 -0.0120228045
-0.10896858 -0.03593286 -0.2691654 -0.21300797 0.072271526 0.03929735 0.15440102 0.2027
0.26701343 -0.17312908 0.61681575 -0.42767772 0.101538986 0.075939976 -0.08133711 0.065886594
-0.047787074 -0.02449476 -0.046345502 -0.02733991 -0.074121214 -0.022017146 0.039927624 -0.07576149
0.41885677 0.19015238 0.45228338 0.22689785 -0.25810546 0.12517463 -0.04567003 0.11736234
0.24063101 -0.018512616 0.34543175 -0.05934701 -0.15195316 0.21273611 0.092838876 0.12709877
-0.044015583 -0.53378326 0.15474227 -1.1124877 0.22562276 -0.030679157 -0.0717539 0.15777697
-0.0050060404 0.00022123207 0.007945087 -0.00974101 -0.026179614 -0.031486552 0.103256136 -0.09415161
-0.20358822 0.011945869 -0.40178123 -0.20431706 0.17518826 0.063730076 -0.01328798 0.13718298
0.11042167 0.100922294 0.36641842 0.18708627 0.019560209 0.013113298 -0.07579785 0.12567228
0.05268887 -0.6961858 0.5555693 -1.2361354 0.05051051 0.08285323 0.022591362 0.11340955
0.21106504 0.12085133 0.90761566 -0.30002365 0.1422369 0.23236163 -0.13126358 -0.282838
-0.33734718 0.264737 -0.44383577 0.37585288 0.0011675553 -0.0927074 0.07341133 0.1282853
-0.20679688 0.014977995 -0.40139455 0.06558842 0.14690138 0.008069308 -0.066973254 0.2185838
-0.21344128 -0.38241333 0.14457841 -0.43519446 0.06446832 0.19004533 0.11835543 0.12842268
0.16315532 0.054582167 0.6571361 -0.14508663 0.060734652 -0.04286006 0.036648978 0.029213173
-0.23032323 0.012755814 -0.3549303 0.12346221 0.12767573 0.13191713 0.035810005 0.17216499
0.03729821 0.062450945 0.7039939 -0.2074299 0.06914772 0.14989355 -0.04488184 -0.24649234
0.22129649 0.35982677 0.6522039 0.47942972 -0.20442392 0.23257533 0.032128025 0.093657956
-0.062432863 -0.05827655 -0.26817134 -0.11597828 0.14304832 -0.024478521 -0.21538673 0.11666988
5.861787e-05 -9.927077e-05 -0.00025434533 -0.00046624086 -0.032400683 -0.017593022 -0.052705824 -0.004667754
-0.52286303 0.56908953 -0.8790937 1.1995306 0.0730014 0.042097483 0.07423287 -0.14604916
0.39758578 -0.47003585 0.49397704 -0.8864987 0.102799594 0.18747257 0.060799588 0.026786217
00000000: ab95 9bbe 29ac e6be d864 a9be 7aee 1abf
00000010: ecbc a53e b875 293c 9066 203d 9798 bf3d
00000020: 7a1a 84be a51c bbbd 981b 14bf 8eba 3c3d
00000030: c3c7 a53d 109e 60bd e003 bd3d 4e46 0a3e
00000040: f00e 523e f585 82be 9323 283f ac30 09bf
00000050: b7a6 b33d f507 b1bd 83ce 5f3d b635 743d
00000060: bf50 903e 5df2 243e e6a2 063f 2eba 073e
00000070: 30ac 573d 01df 433e 0b76 903d 9059 ef3c
00000080: 4123 8abe e417 67bd 437c 3dbf 91ee 1e3e
00000090: 44d4 f03d 93fe fdbb 3e22 22be 1c13 81be
000000a0: 8e26 9ebd 2cf5 4abf 2c67 1ebf 41b0 8ebf
000000b0: 69a3 c6bc c240 c23d a881 d53d cbbe b63c
000000c0: 23f0 b23d 7efd 7c3e a139 06bf ad62 4a3f
000000d0: d1e8 db3d 4162 8dbd 4f40 60bd 2b4d 4b3c
000000e0: da1f 0fbd 2815 8c3e 6f75 0d3e 0bc3 ca3e
000000f0: d62e dbbd 4219 bc3d 6535 28be 26d0 42be
00000100: ab35 f9bc 23a0 05bd e12e 483f e026 e2be
00000110: 16ae bd3d c4f0 07be 4bc9 943d a31c 91be
00000120: 567c ea3d 9438 51be e133 4f3f 88bd 5ebf
00000130: 7606 a83d f57d 6d3e f0b5 9e3e 4cfb 44bc
00000140: eb2a dfbd 562e 13bd 0cd0 89be c31e 5abe
00000150: 1803 943d 42f6 203d 4d1b 1e3e 9790 4f3e
00000160: fcb5 883e c048 31be a3e7 1d3f 93f8 dabe
00000170: acf3 cf3d 6b86 9b3d 1294 a6bd 8def 863d
00000180: 61bc 43bd 3ca9 c8bc c8d4 3dbd f2f7 dfbc
00000190: ddcc 97bd 4d5d b4bc 268b 233d d728 9bbd
000001a0: 6574 d63e 4eb7 423e b091 e73e e957 683e
000001b0: 6626 84be c72d 003e 7f10 3bbd ab5b f03d
000001c0: fa67 763e c5a7 97bc 6edc b03e da15 73bd
000001d0: 9c99 1bbe 7fd7 593e 4f22 be3d 2e26 023e
000001e0: af49 34bd 05a6 08bf c274 1e3e ff65 8ebf
000001f0: a709 673e db52 fbbc b5f3 92bd 4990 213e
00000200: b609 a4bb 88fa 6739 1c2c 023c c298 1fbc
00000210: a176 d6bc 0bf8 00bd f477 d33d 8fd2 c0bd
00000220: 6e79 50be 9bb8 433c 45b6 cdbe 7e38 51be
00000230: 8d64 333e ea84 823d d4b5 59bc b279 0c3e
00000240: c224 e23d 59b0 ce3d 329b bb3e 8b93 3f3e
00000250: bb3c a03c 29d9 563c e73b 9bbd 3cb0 003e
00000260: 49d0 573d 3c39 32bf ca39 0e3f af39 9ebf
00000270: 1ce4 4e3d f4ae a93d 8511 b93c 4443 e83d
00000280: 6f21 583e e780 f73d 8059 683f b39c 99be
00000290: 8da6 113e 35f0 6d3e f669 06be 24d0 90be
000002a0: c5b8 acbe 9c8b 873e 713e e3be ca6f c03e
000002b0: a808 993a 61dd bdbd ae58 963d 395d 033e
000002c0: 90c2 53be 4466 753c 9683 cdbe 3953 863d
000002d0: 516d 163e 2135 043c 4629 89bd 6fd4 5f3e
000002e0: 5a90 5abe aecb c3be 5d0c 143e cfd1 debe
000002f0: f707 843d 3e9b 423e 5564 f23d 3c81 033e
00000300: 3012 273e 8d91 5f3d 123a 283f 9791 14be
00000310: e6c4 783d 088e 2fbd 3d1d 163d 7750 ef3c
00000320: dad9 6bbe c3fd 503c 6db9 b5be c1d9 fc3d
00000330: 6dbd 023e 4915 073e 83ad 123d 054c 303e
00000340: 02c6 183d 90cc 7f3d f238 343f 8168 54be
00000350: 529d 8d3d b27d 193e 05d6 37bd 7d68 7cbe
00000360: 8c9b 623e 373b b83e d6f6 263f d077 f53e
00000370: 8154 51be 3a28 6e3e ad98 033d becf bf3d
00000380: 9ab9 7fbd 64b3 6ebd c14d 89be 0586 edbd
00000390: 427b 123e 2e87 c8bc 578e 5cbe 9ef0 ee3d
000003a0: 75dc 7538 972f d0b8 a759 85b9 ca71 f4b9
000003b0: 94b6 04bd 3e1f 90bc 10e2 57bd f5f3 98bb
000003c0: 5ada 05bf daaf 113f 490c 61bf 388a 993f
000003d0: c281 953d 696e 2c3d 6707 983d e98d 15be
000003e0: 5d90 cb3e 8aa8 f0be 8fea fc3e 94f1 62bf
000003f0: 9888 d23d cff8 3f3e fd08 793d c56e db3c

conv2Da.bias f4 [64]
0.26213083 0.17649001 0.18198541 0.15914537 -0.042544074 0.18638363 0.20919424 -0.12044526
0.14166814 0.049162723 -0.1683039 0.058252536 -0.04389146 -0.15267414 -0.17333588 -0.08369353
-0.013208597 0.030249208 0.017820762 0.27229613 0.11329648 0.05277955 -0.06694207 -0.15443234
0.046537846 -0.11592092 0.14918602 -0.15097068 0.099853486 -0.06482943 0.064693615 0.2871501
0.010804597 -0.20732722 0.09146741 0.12740274 0.1398187 0.06836601 0.31021634 0.11221503
-0.2109819 0.08370625 -0.009593581 -0.047092613 -0.17281348 0.38504153 0.067832805 -0.1387412
-0.034890443 0.24980621 0.32623842 -0.18806142 -0.0010084611 0.20807919 -0.011017649 0.029637199
0.1371861 -0.09345586 0.15318426 0.1425858 0.12936896 0.2928442 -0.1257811 0.047688246
00000000: 0336 863e ccb9 343e 625a 3a3e 01f7 223e
00000010: b242 2ebd 5adb 3e3e 0437 563e 01ac f6bd
00000020: 7411 113e da5e 493d dc57 2cbe 369a 6e3d
00000030: 88c7 33bd 9c56 1cbe f67e 31be 8367 abbd
00000040: df68 58bc 30cd f73c d9fc 913c 666a 8b3e
00000050: fc07 e83d 5f2f 583d ed18 89bd 8323 1ebe
00000060: 789e 3e3d f367 edbd 38c4 183e 0f98 1abe
00000070: fc7f cc3d 4bc5 84bd 167e 843d 5705 933e
00000080: c405 313c 964d 54be 4453 bb3d dd75 023e
00000090: a22c 0f3e 7b03 8c3d add4 9e3e fed0 e53d
000000a0: a40b 58be 2f6e ab3d 652e 1dbc 2fe4 40bd
000000b0: 04f6 30be 2a24 c53e edeb 8a3d 2c12 0ebe
000000c0: 48e9 0ebd 33cd 7f3e b908 a73e 2c93 40be
000000d0: 572e 84ba b612 553e 5f83 34bc b6c9 f23c
000000e0: 837a 0c3e c965 bfbd 56dc 1c3e 0302 123e
000000f0: 4c79 043e adef 953e c3cc 00be c054 433d

cbam1.ChannelGate.mlp.1.weight f4 [4, 64]
-2.4218025e-06 -1.2813513e-06 4.905585e-06 8.420878e-09 -1.2025278e-07 9.671174e-08 8.895158e-08 -2.5940173e-07
-1.2079234e-07 2.451931e-08 -1.7415374e-08 -1.2894373e-06 9.104863e-09 -3.4559244e-07 -5.4658884e-08 2.6135397e-06
2.1945393e-08 3.6435523e-08 4.9459523e-08 -4.322926e-08 -4.3575074e-05 1.0614838e-07 4.358421e-06 -1.7604674e-06
-2.4551486e-08 -0.0048898538 -7.083432e-06 2.2789743e-08 2.0618216e-07 -1.0030798e-07 4.258263e-09 -0.00055914023
3.999967e-08 4.3675648e-08 -1.8461063e-07 -3.2641555e-08 -3.7513082e-08 6.826508e-08 5.5245295e-07 -1.5198967e-07
6.534666e-09 2.8708197e-08 -7.0790634e-07 8.482196e-08 1.5508901e-07 -6.548739e-08 1.3360469e-07 -4.744689e-08
-5.389402e-08 0.00018226403 1.5370209e-06 6.409507e-08 3.6742503e-07 -0.002147326 1.1625765e-06 -5.859762e-07
6.170675e-08 -1.2908247e-08 -9.035228e-09 -6.540598e-05 -8.719964e-06 -5.819511e-08 7.044235e-08 -3.787882e-08
-0.14993124 0.015775008 0.022084376 -0.00072459056 -0.13644455 8.243203e-09 -0.033789005 -0.017869039
0.021960933 2.2921536e-07 -0.00057490525 -0.025152635 7.143231e-08 -0.01749166 -0.03385186 -0.15737954
9.8512835e-08 0.006082674 0.012325506 -0.10859512 -0.11089937 -4.3215877e-08 -0.10184778 -0.06676287
2.2924896e-08 0.035353884 -0.040057175 -8.9757656e-08 -0.09278858 -4.9516252e-08 3.6194162e-08 -0.07464444
-1.1806834e-07 -6.312917e-08 0.032249738 1.9963866e-07 2.9957675e-07 -0.051770203 0.0087600425 -0.07002436
9.0183576e-08 -0.07632552 -0.07511979 -0.02673422 0.04598997 -0.014176835 -0.0028546588 0.00017663024
-0.0077722194 -0.060631275 -0.11558854 5.848098e-08 -0.021069216 -0.038556043 -0.123300284 -0.037357595
-0.09674628 -0.01708446 -2.866852e-07 -0.148475 0.022005528 0.04543064 6.319873e-08 1.03124094e-07
0.09202002 -0.011823705 -0.112759605 0.01550344 0.06523695 0.043033715 0.18494512 0.024081288
0.026389893 -0.08355572 0.00586684 0.0746321 0.0075851935 0.029185575 -0.00040407118 0.024245841
-0.008863472 0.19413713 -0.099135764 -0.0995612 0.047345478 0.14885615 0.14298996 0.07224868
-0.16952795 0.054707225 0.083919 -0.2792875 0.14678808 0.016014189 0.1049007 -0.040552914
-0.0019617695 -0.12937225 -0.118764125 -0.11964982 -0.13992961 0.056257 0.14560282 0.10365381
0.03846679 -0.01944982 0.068062685 -0.09417943 0.05032606 -0.0192614 0.10043275 -0.116072945
0.039547127 0.035560086 0.14100726 -0.038277954 0.10748053 0.16248514 0.05356401 0.06732907
-0.007900941 0.07019479 -0.06806506 0.046716012 -0.07522868 0.23773813 -0.012446973 -0.18975398
-0.067666285 -0.093969196 -0.01878567 0.00781658 -0.008725274 9.021254e-08 -0.0047845496 -0.00066875323
-0.0038163455 -1.0212335e-07 -0.08886048 -0.110065855 2.741717e-07 -0.056140628 -0.016911818 0.006919818
2.7942866e-09 -0.008748754 0.007159402 -0.06929274 -0.12972191 -0.016288236 0.005047866 -0.08957344
5.0413718e-08 -0.06346704 -0.054649953 -0.0028286523 0.0045360625 -0.0153790945 6.688008e-08 -0.026738167
1.093038e-07 -0.04343068 0.023350177 1.0032659e-07 7.6468176e-08 -0.017771596 -0.087826885 -0.08673899
0.021338616 -0.031697486 -0.007037566 -4.2680756e-07 -0.032406025 -6.130447e-05 -0.008108913 -1.3682749e-08
-0.016602496 -0.0379161 -0.064628035 -0.0044098767 -0.09983515 0.009002064 -0.038737763 -0.10851363
-0.0021938211 0.0021225454 -5.225486e-08 0.012480838 -0.042807683 0.00459976 -1.3852102e-07 -0.015378809
00000000: 4086 22b6 e5fa abb5 a79a a436 6aab 1032
00000010: d51e 01b4 d7af cf33 a605 bf33 e743 8bb4
00000020: 25b3 01b4 889e d232 d098 95b2 ba10 adb5
00000030: 9c6b 1c32 dd89 b9b4 14c2 6ab3 4564 2f36
00000040: 6e82 bc32 487d 1c33 526d 5433 13ab 39b3
00000050: 61c4 36b8 b0f3 e333 8d3e 9236 3349 ecb5
00000060: 4ae5 d2b2 113b a0bb 38ae edb6 2dc3 c332
00000070: ec62 5d34 e568 d7b3 1450 9231 4493 12ba
00000080: 1acc 2b33 e295 3b33 6239 46b4 c531 0cb3
00000090: 121e 21b3 2099 9233 474c 1435 9a32 23b4
000000a0: 8887 e031 fe99 f632 f406 3eb5 5e27 b633
000000b0: 8b86 2634 13a2 8cb3 fa74 0f34 68c8 4bb3
000000c0: 1a79 67b3 211e 3f39 a34b ce35 a3a4 8933
000000d0: 8342 c534 27ba 0cbb d309 9c35 fa4b 1db5
000000e0: a583 8433 12c3 5db2 5a39 1bb2 912a 89b8
000000f0: f64b 12b7 33f2 79b3 1746 9733 34b0 22b3
00000100: 9387 19be 973a 813c 4bea b43c 73f2 3dba
00000110: 1fb8 0bbe fd9d 0d32 5766 0abd 1762 92bc
00000120: 6ae7 b33c 3d1e 7634 3db5 16ba e60c cebc
00000130: 5466 9933 ab4a 8fbc 3fa8 0abd 1a28 21be
00000140: 018e d333 2b51 c73b ebf0 493c 1e67 debd
00000150: 351f e3bd 5c9c 39b3 9295 d0bd f9ba 88bd
00000160: 61ec c432 3ccf 103d fe12 24bd cbc0 c0b3
00000170: f007 bebd b2ab 54b3 e773 1b33 2fdf 98bd
00000180: c28c fdb3 a191 87b3 4d18 043d 425c 5634
00000190: 84d5 a034 fe0c 54bd 4886 0f3c ef68 8fbd
000001a0: f2aa c133 8e50 9cbd 68d8 99bd b901 dbbc
000001b0: fb5f 3c3d f545 68bc 3a15 3bbb d235 3939
000001c0: 1aae febb 8058 78bd afb9 ecbd 842c 7b33
000001d0: 5999 acbc f1ec 1dbd dc84 fcbd 4704 19bd
000001e0: ea22 c6bd b6f4 8bbc b7e9 99b4 d509 18be
000001f0: f044 b43c 7b15 3a3d dfb7 8733 1275 dd33
00000200: fe74 bc3d 37b8 41bc 82ee e6bd 2402 7e3c
00000210: f39a 853d 1f44 303d 4162 3d3e 1f46 c53c
00000220: 9e2f d83c 431f abbd 9f3e c03b b7d8 983d
00000230: 378d f83b 9616 ef3c 84d9 d3b9 379f c63c
00000240: 1938 11bc e2cb 463e b107 cbbd bee6 cbbd
00000250: 55ed 413d bf6d 183e f66b 123e 1ef7 933d
00000260: bc98 2dbe af14 603d badd ab3d c5fe 8ebe
00000270: 9d4f 163e 3030 833c 2ed6 d63d d01a 26bd
00000280: 0891 00bb 297a 04be 9b3a f3bd f70a f5bd
00000290: b549 0fbe bd6d 663d e818 153e 7348 d43d
000002a0: 5a8f 1d3d 3b55 9fbc 7364 8b3d 25e1 c0bd
000002b0: b322 4e3d 15ca 9dbc b0af cd3d a7b7 edbd
000002c0: 2bfc 213d 74a7 113d 3564 103e 58c9 1cbd
000002d0: c11e dc3d 8162 263e ef65 5b3d d3e3 893d
000002e0: f372 01bc 49c2 8f3d b265 8bbd 4a59 3f3d
000002f0: 7f11 9abd a071 733e 63ee 4bbc de4e 42be
00000300: 9f94 8abd ec72 c0bd 68e4 99bc 1d11 003c
00000310: 74f4 0ebc deba c133 b6c7 9cbb 454f 2fba
00000320: a71b 7abb e84e dbb3 7cfc b5bd 356a e1bd
00000330: df31 9334 b7f3 65bd a78a 8abc a4bf e23b
00000340: 9c05 4031 ef56 0fbc 6b99 ea3b 5ae9 8dbd
00000350: d2d5 04be e86e 85bc 9268 a53b 4872 b7bd
00000360: 7886 5833 02fb 81bd a1d8 5fbd e960 39bb
00000370: 40a3 943b 99f8 7bbc b69f 8f33 000a dbbc
00000380: 66ba ea33 5ee4 31bd df48 bf3c 2073 d733
00000390: d336 a433 bd95 91bc 95de b3bd 36a4 b1bd
000003a0: 52ce ae3c 39d5 01bd 629b e6bb fc23 e5b4
000003b0: 2ebc 04bd 9690 80b8 3fdb 04bc 5e11 6bb2
000003c0: f501 88bc ea4d 1bbd b45b 84bd ba80 90bb
000003d0: 5f76 ccbd 657d 133c 7dab 1ebd 653c debd
000003e0: 36c6 0fbb 671a 0b3b d46e 60b3 6e7c 4c3c
000003f0: 1c57 2fbd 95b9 963b 5ebc 14b4 66f7 7bbc

cbam1.ChannelGate.mlp.1.bias f4 [4]
4.6024788e-08 -0.039947066 0.03758346 -0.014417261
00000000: caac 4533 899f 23bd 1df1 193d 6036 6cbc

cbam1.ChannelGate.mlp.3.weight f4 [64, 4]
4.5051652e-07 -0.01279481 0.30062845 0.0014860128 -1.1413802e-06 1.8733042e-05 -0.051100325 0.00042512955
1.2334202e-07 -0.033829045 0.4898948 -0.028790098 -9.453834e-08 0.0038399328 0.24274059 -0.00038536373
1.1647193e-06 0.008593195 0.16128553 -0.011109086 4.8807516e-07 1.7735198e-07 0.2991084 -4.4767037e-07
-7.3350486e-07 -3.436798e-06 0.26976153 -2.3241399e-05 -1.1137176e-07 0.030734893 0.23102647 -0.09162499
2.2992222e-07 9.030712e-07 0.32066798 -4.071689e-07 -4.3713992e-08 2.401332e-07 0.49962458 -3.6401232e-07
-1.7189019e-07 0.0069346484 0.2950076 0.029559474 -8.3376804e-08 -0.042340398 -0.06394867 0.02785834
-6.900669e-09 -5.968699e-07 -0.0050294893 -1.2742294e-07 8.172934e-07 0.21302243 -0.31527132 -0.26127127
2.1572347e-07 -0.067224234 0.043263137 0.019926256 2.7124221e-07 0.085871 -0.39011776 -0.15917964
-4.4777877e-07 -3.5421235e-07 -0.024942806 -6.144736e-07 -2.4425316e-07 -3.2247812e-07 0.09085481 -3.2633488e-07
-1.1870102e-08 3.382455e-07 -0.18761364 7.931404e-09 4.4214218e-07 -1.3132338e-06 0.5031274 -2.0081028e-07
2.663317e-07 0.08848337 0.4132216 -0.064548604 -3.1049376e-07 4.6526473e-08 0.09293996 3.3520473e-07
2.9965574e-07 -1.01614745e-07 0.038538955 7.015755e-07 -1.1743454e-07 -0.057701893 0.14887884 0.06377093
-5.7830285e-08 5.159663e-08 0.16963017 -3.8815028e-07 9.57217e-08 0.2556147 -0.3029524 0.06139017
1.9654678e-07 -0.0002831512 0.16800588 0.14542373 9.5910096e-08 5.695324e-07 0.35639507 -4.039436e-07
4.0703583e-09 1.7595904e-07 -0.14590566 -6.1932894e-07 -1.441539e-08 5.5618375e-07 0.00073137204 -9.117541e-08
-4.1744886e-07 -3.033173e-07 0.59607613 4.5601038e-07 2.7993843e-07 0.0031761022 -0.055717938 0.089644834
-7.397274e-07 4.307127e-07 0.0001633617 5.9983273e-07 2.7270306e-07 -8.530299e-08 0.0325808 1.7182118e-07
1.5130887e-08 1.1891515e-05 0.22819938 -1.2503345e-06 1.3579088e-07 -5.772654e-07 -0.107041575 -3.4422126e-07
2.873992e-07 1.3696406e-07 0.09676106 -2.874732e-07 -2.444684e-07 6.5944744e-07 -0.22506624 -4.0615333e-10
-7.9233155e-07 1.1991779e-06 -0.012087061 1.3154277e-05 3.5740834e-07 8.7333524e-07 -0.25671345 7.0105975e-06
8.857644e-08 1.0539301e-07 -0.2936183 8.1236905e-08 -1.26318715e-08 3.148394e-07 0.12148052 -3.0462893e-08
3.704289e-07 0.0024303189 0.32358196 -0.00014922571 -5.860942e-07 6.248937e-07 0.20663683 -5.172937e-07
-2.7320237e-07 1.380273e-06 0.0053095696 4.2150472e-07 1.1772062e-07 5.7753878e-06 0.23396951 9.9748795e-06
5.827317e-07 -9.295985e-08 -0.01991605 -9.190322e-08 1.525167e-07 -7.997918e-07 0.33887115 5.1214094e-08
-1.37044e-07 2.9193053e-08 -0.039904974 1.7210888e-07 3.95371e-08 0.11544143 -0.09603872 -0.02817175
2.6749396e-08 -4.8362537e-08 -0.22965968 2.9863824e-07 -9.623182e-10 1.2361335e-07 -0.13010979 8.1283827e-07
-9.4489614e-08 5.8705643e-07 -0.34576508 -4.3593218e-08 4.3202598e-07 -0.15911423 0.07388582 -0.06073317
-9.923024e-09 0.008448438 -0.16231228 -0.019585332 -3.813403e-07 0.00035306512 -0.2827876 -0.005495505
1.4545128e-07 -0.038645197 0.43507275 0.007938334 8.0092826e-07 5.2680383e-07 -0.06866645 -1.830186e-06
-2.597481e-07 1.4890695e-08 0.019715082 5.1656605e-07 -4.8571493e-08 0.016881421 -0.37391734 0.006142603
1.09357146e-07 -0.046474606 0.2382781 -0.2577145 1.0970655e-06 -0.028182542 0.29798445 -0.09788714
2.6687079e-07 -1.1040485e-07 0.003079742 -1.1167373e-07 5.164877e-07 1.989206e-08 -0.026810741 -2.5491468e-07
00000000: 85de f134 53a1 51bc f9eb 993e 51c6 c23a
00000010: 8631 99b5 e724 9d37 934e 51bd ece3 de39
00000020: ff6f 0434 5390 0abd 7ed3 fa3e 36d9 ebbc
00000030: 0105 cbb3 62a7 7b3b fd90 783e a50a cab9
00000040: 7353 9c35 79ca 0c3c 0928 253e e202 36bc
00000050: 4504 0335 246e 3e34 bc24 993e 5957 f0b4
00000060: 12e6 44b5 bda3 66b6 2f1e 8a3e 86f6 c2b7
00000070: 462b efb3 bec7 fb3c 3492 6c3e e2a5 bbbd
00000080: 8ae0 7634 956a 7235 982e a43e de98 dab4
00000090: 0bc0 3bb3 a8eb 8034 cbce ff3e 796d c3b4
000000a0: d190 38b4 0c3c e33b 3c0b 973e b626 f23c
000000b0: e20c b3b3 206d 2dbd 85f7 82bd 2c37 e43c
000000c0: ed1a edb1 9638 20b5 6ace a4bb c0d1 08b4
000000d0: fa63 5b35 8d22 5a3e 3e6b a1be 59c5 85be
000000e0: 9ea1 6734 dcac 89bd b034 313d 633c a33c
000000f0: 3f9f 9134 23dd af3d 84bd c7be fdff 22be
00000100: 3f66 f0b4 932a beb4 db54 ccbc 4ef2 24b5
00000110: e621 83b4 0e21 adb4 1612 ba3d 2033 afb4
00000120: 43ed 4bb2 1c98 b534 ca1d 40be af42 0832
00000130: 8f5f ed34 5f42 b0b5 f5cc 003f 4f9e 57b4
00000140: 5afc 8e34 c536 b53d c891 d33e 0f32 84bd
00000150: f0b1 a6b4 66d4 4733 4e57 be3d 30f6 b334
00000160: 5fe0 a034 4c37 dab3 06db 1d3d e753 3c35
00000170: 5230 fcb3 d258 6cbd b273 183e 559a 823d
00000180: 1261 78b3 189b 5d33 88b3 2d3e f862 d0b4
00000190: 908f cd33 eedf 823e 941c 9bbe 4274 7b3d
000001a0: 5e0a 5334 e973 94b9 bc09 2c3e f5e9 143e
000001b0: 22f7 cd33 f8e1 1835 6a79 b63e 96dd d8b4
000001c0: 40db 8b31 41ef 3c34 4b68 15be f63f 26b5
000001d0: 8ea7 77b2 a84c 1535 8cb9 3f3a 36cc c3b3
000001e0: bc1d e0b4 9dd7 a2b4 7298 183f 97d1 f434
000001f0: 724a 9634 2726 503b 7e38 64bd b697 b73d
00000200: ae91 46b5 b43c e734 134c 2b39 3104 2135
00000210: 0668 9234 d12f b7b3 7273 053d d97d 3834
00000220: 2cf9 8132 ab81 4737 19ad 693e 2bd1 a7b5
00000230: eacd 1134 60f5 1ab5 9d38 dbbd 69cd b8b4
00000240: d84b 9a34 6510 1334 aa2a c63d 0456 9ab4
00000250: 7b3f 83b4 e204 3135 c477 66be 0049 dfaf
00000260: 9cb0 54b5 70f3 a035 cf08 46bc 31b1 5c37
00000270: d4e1 bf34 246f 6a35 f26f 83be 933c eb36
00000280: 6a37 be33 6c54 e233 2355 96be 7674 ae33
00000290: 8f03 59b2 3307 a934 c7ca f83d 4ed6 02b3
000002a0: 5cdf c634 fc45 1f3b 89ac a53e 7979 1cb9
000002b0: 1654 1db5 5ebe 2735 9b98 533e 27dc 0ab5
000002c0: a6ac 92b4 d241 b935 e6fb ad3b 2b4b e234
000002d0: 98cd fc33 34ca c136 b495 6f3e c859 2737
000002e0: 046d 1c35 38a1 c7b3 fc26 a3bc 545c c5b3
000002f0: 79c3 2334 46b1 56b5 8580 ad3e 7ef6 5b33
00000300: 5e26 13b4 34c4 fa32 6673 23bd eecc 3834
00000310: 80cf 2933 8e6c ec3d f3af c4bd 71c8 e6bc
00000320: 8bc6 e532 2cb7 4fb3 e82b 6bbe 8754 a034
00000330: 9042 84b0 94ba 0434 803b 05be d231 5a35
00000340: 37ea cab3 3696 1d35 1f08 b1be 403b 3bb3
00000350: 33f1 e734 d7ee 22be 7351 973d 58c3 78bd
00000360: ec79 2ab2 516b 0a3c 3135 26be 6b71 a0bc
00000370: 03bb ccb4 991b b939 89c9 90be a313 b4bb
00000380: 582d 1c34 6d4a 1ebd dbc1 de3e c90f 023c
00000390: 5fff 5635 af69 0d35 ffa0 8cbd b6a4 f5b5
000003a0: 8273 8bb4 f8d1 7f32 8681 a13c 26aa 0a35
000003b0: ec9c 50b3 e84a 8a3c 1872 bfbe e347 c93b
000003c0: bad7 ea33 285c 3ebd 2dff 733e 28f3 83be
000003d0: e23e 9335 13df e6bc 6b91 983e 0e79 c8bd
000003e0: 7146 8f34 b517 edb3 7fd5 493b 48d1 efb3
000003f0: c4a4 0a35 1adf aa32 33a2 dbbc 35db 88b4

cbam1.ChannelGate.mlp.3.bias f4 [64]
0.4166903 0.45721236 -0.15200041 -0.037452687 -0.010954444 0.5674926 0.02715139 0.068467826
0.29448277 0.40221733 0.13876353 0.33146256 -0.01399253 0.08275217 0.33659118 0.43500704
0.016039945 0.12200328 -0.15410523 -0.10342253 0.3761503 0.108552 0.104362376 0.09065033
0.24405982 0.11456876 0.18739721 0.16729352 -0.10643645 -0.00014062901 0.57635105 0.5233099
-0.00023829292 -0.05996761 0.26034606 0.22866675 -0.17781383 -0.18115778 0.29712588 -0.21686287
0.28038916 0.01111454 -0.013011239 0.07709432 -0.027136076 -0.21335863 -0.027338065 0.5731435
-0.10402651 -0.30334538 0.47821528 -0.09985675 -0.28211614 -0.058434937 0.14848402 0.34458876
0.50174624 0.00044249182 -0.03677039 0.28376314 0.4058503 0.4512105 -0.0017953485 -0.105143115
00000000: 6e58 d53e bd17 ea3e ffa5 1bbe fd67 19bd
00000010: 457a 33bc 3247 113f 986c de3c dc38 8c3d
00000020: 72c6 963e 6eef cd3e 0718 0e3e 76b5 a93e
00000030: ed40 65bc f879 a93d ae55 ac3e 3eb9 de3e
00000040: 3466 833c dbdc f93d c3cd 1dbe 31cf d3bd
00000050: c696 c03e 8350 de3d f1bb d53d e1a6 b93d
00000060: d1ea 793e 07a3 ea3d 0ee5 3f3e fe4e 2b3e
00000070: 5afb d9bd d075 13b9 be8b 133f a3f7 053f
00000080: 45de 79b9 99a0 75bd 144c 853e 9e27 6a3e
00000090: d414 36be 6d81 39be e220 983e 4d11 5ebe
000000a0: 2b8f 8f3e c219 363c 172d 55bc a0e3 9d3d
000000b0: 7a4c debc af7a 5abe 14f4 dfbc 88b9 123f
000000c0: da0b d5bd 1650 9bbe a2d8 f43e b281 ccbd
000000d0: 8771 90be 7959 6fbd 320c 183e f06d b03e
000000e0: 7172 003f 3ffe e739 8c9c 16bd 6749 913e
000000f0: 9ccb cf3e 1005 e73e e651 ebba 4655 d7bd

cbam1.SpatialGate.spatial.conv.weight f4 [1, 2, 7, 7]
4.73357e-09 5.2412922e-08 8.152807e-08 0.20199087 -6.435313e-09 -8.03481e-08 -4.3471893e-08 7.6777894e-08
1.4347726e-08 -6.966568e-08 0.19664453 -2.3117735e-08 -1.3383694e-10 1.1093409e-08 7.4745486e-08 -1.1998672e-08
-1.1248613e-08 0.14785734 4.2232386e-08 6.397872e-08 -1.2166887e-08 -1.2859907e-08 -2.8888003e-09 -6.582055e-08
-0.062003706 4.3215376e-08 5.570796e-08 -5.6255672e-08 -1.54429e-09 6.3258994e-08 -7.793092e-08 0.057602357
-8.938442e-08 -4.290893e-09 -9.728247e-09 -1.33714595e-08 -2.354066e-08 -1.5028103e-09 0.03767186 5.4384156e-08
-6.747392e-09 -7.290967e-08 1.9978915e-08 2.6712206e-08 -1.6694624e-08 -0.21120897 -5.1290048e-09 -7.00536e-09
-4.9585225e-11 -6.7687665e-08 -1.1810494e-08 9.116369e-09 0.36053428 -2.425523e-09 8.59953e-09 -7.6768295e-08
-5.1579498e-08 1.4957676e-08 3.496824e-08 0.18928327 -3.2153594e-08 6.897941e-09 -9.14482e-09 1.8462675e-08
-1.3508977e-08 5.5194516e-09 0.05086003 -7.498053e-08 3.322632e-08 5.165723e-08 -1.6077953e-08 -6.871366e-08
3.634095e-08 0.05080791 -8.377721e-08 -3.3617265e-08 -1.5055878e-08 6.7892756e-08 5.5678013e-09 -3.2319203e-08
-0.09362128 -3.3549924e-08 7.526659e-08 -3.7784016e-08 8.91388e-09 1.6541515e-09 1.7471576e-08 0.10945433
-2.8372778e-08 -6.903595e-08 -7.714805e-09 -7.707048e-09 -7.842393e-09 -5.067098e-08 -0.21996342 -1.23663835e-08
1.2147046e-08 9.5235684e-08
00000000: eca4 a231 9e1c 6133 8814 af33 b2d6 4e3e
00000010: 9d1d ddb1 d68b acb3 dab5 3ab3 18e1 a433
00000020: f77d 7632 1d9b 95b3 2f5d 493e 7094 c6b2
00000030: c027 13af 5495 3e32 c483 a033 b822 4eb2
00000040: ec3f 41b2 ea67 173e 0063 3533 ac64 8933
00000050: 8906 51b2 78ee 5cb2 5084 46b1 3b59 8db3
00000060: 99f7 7dbd cf9b 3933 8d43 6f33 c49d 71b3
00000070: e03e d4b0 00d9 8733 fa5a a7b3 73f0 6b3d
00000080: 9bf3 bfb3 186f 93b1 4821 27b2 4db8 65b2
00000090: 7536 cab2 708b ceb0 cf4d 1a3d 0394 6933
000000a0: b0d6 e7b1 8492 9cb3 199e ab32 c374 e532
000000b0: de67 8fb2 2a47 58be 343b b0b1 ccb3 f0b1
000000c0: 0014 5aae b05b 91b3 1ae7 4ab2 379e 1c32
000000d0: f397 b83e 40ae 26b1 22bd 1332 d1db a4b3
000000e0: 4288 5db3 477c 8032 fd2f 1633 79d3 413e
000000f0: 4019 0ab3 ee02 ed31 581b 1db2 da97 9e32
00000100: 1c15 68b2 9ca5 bd31 9b52 503d fb04 a1b3
00000110: bab4 0e33 badd 5d33 cb1b 8ab2 bc8f 93b3
00000120: 4c15 1c33 f41b 503d 02e9 b3b3 9362 10b3
00000130: 3a54 81b2 70cc 9133 e64e bf31 57cf 0ab3
00000140: 83bc bfbd 8818 10b3 3fa2 a133 f747 22b3
00000150: a923 1932 4858 e330 6714 9632 9729 e03d
00000160: 66b8 f3b2 ea40 94b3 128a 04b2 f567 04b2
00000170: 36bb 06b2 55a1 59b3 173e 61be ee73 54b2
00000180: 46af 5032 5f84 cc33

conv2Db.weight f4 [128, 64, 2, 1]
0.00021201864 -0.013876249 -0.0007164605 0.010318944 1.5115927e-05 3.5188976e-05 7.8974575e-05 9.3891154e-05
6.1417163e-06 -0.00070580386 5.3665404e-05 7.8765326e-05 -2.6749003e-05 -0.0165373 -2.183863e-06 -0.003300262
-0.000103186336 0.00010784349 4.176414e-06 0.00013528856 0.00015050285 -0.00041276173 1.4478542e-05 -0.00018794788
-8.944262e-07 -2.0861053e-06 7.678391e-05 2.3809913e-05 1.0226643e-05 -5.7046207e-05 9.619551e-06 -0.0031952225
-2.1151041e-05 4.3332125e-06 4.3185835e-05 0.0002888994 -0.00016041152 -6.503757e-05 0.00017127 0.00011811754
0.0003805053 -0.00789343 -0.000103909224 0.0004124954 -0.001385723 -0.0068463357 -1.7539805e-05 8.135993e-05
-4.0640323e-05 0.00021598431 -0.0063859653 -0.008066202 4.302207e-05 -0.01884021 -1.2012175e-05 3.082931e-05
7.175884e-05 0.0034408201 -1.775847e-07 -7.473008e-07 -2.779813e-05 -0.00012791464 -0.0015822188 -0.005236872
4.7633756e-07 1.4278947e-07 -0.000111120346 2.8626637e-05 1.2939305e-05 -6.662049e-05 4.864702e-05 2.2981787e-05
4.2980764e-06 5.278344e-05 1.714803e-05 -0.0071522365 0.00013679519 -0.0014978249 -1.6835047e-05 4.940269e-05
-9.6088974e-05 4.895119e-07 -0.011187592 0.008480713 -0.00022062036 -0.0070614084 1.6407575e-06 -2.9229785e-05
-3.4766747e-06 -0.053722452 2.1105112e-05 -2.2998938e-05 9.3837974e-05 -0.00011075468 0.00013416677 -5.06605e-06
-1.6728374e-05 0.0017427744 -0.00059703307 0.01749784 6.297985e-05 -0.06619645 -1.2810452e-05 5.650731e-05
-1.9126539e-05 3.4200068e-05 4.3648928e-05 3.5362016e-05 -1.03998e-05 0.0064259353 -1.9459685e-06 3.957772e-05
-0.00028352754 0.0007276574 -1.7421514e-06 -4.1454214e-06 -3.1338368e-06 -1.7990533e-06 2.152037e-05 -0.0023118265
-5.8699938e-05 0.00012360193 3.3344644e-05 0.00013721215 3.1679102e-07 -1.8648054e-06 -7.0787966e-05 5.5287408e-05
-0.12530166 0.099574886 -0.10944981 0.07177565 -0.0062179375 -0.18422046 -0.04172919 -0.0025618388
-0.0027644224 0.033477932 0.0081771305 -0.115254074 0.038646612 0.19502266 0.01719111 0.037558623
-0.0016001514 -0.17020273 0.025905602 -0.20138727 -0.028958239 0.03664036 0.058626987 -0.2142618
3.7003025e-05 -0.015635267 0.09903832 -0.029747894 -0.053812712 0.06157589 -0.045396265 -0.13892448
-0.00015326719 -0.00021174054 0.01948018 0.059053 0.08025199 0.06620607 -0.01110819 -0.102115735
0.017459799 -0.1952337 0.09366199 0.14740282 -0.07461355 -0.033025842 -0.08786898 -0.0398797
0.07070463 -0.07600831 0.08619472 -0.02924104 0.03381072 -0.06742781 0.01615575 0.00699848
0.121647425 0.04827827 0.00027350674 -0.00015629416 0.036966864 0.48797515 -0.11607681 -0.1508789
-0.00070720445 -0.00094902713 0.11712752 0.009794989 0.028135953 0.071168594 -0.01240085 -0.081509
0.019402888 0.04190404 -0.010599324 0.030453652 0.20368943 0.24105161 0.117371924 0.025682265
4.201787e-05 0.033244736 0.19987483 -0.05592449 -0.007300852 0.1001898 -0.0020083308 0.01235802
-3.5839243e-05 0.00070021383 0.100398645 -0.018126568 0.1476749 -0.034076408 0.03768192 0.35364306
8.964752e-05 0.026492914 0.09689525 0.020218143 -0.036679678 0.034990106 0.05936167 -0.018579083
0.055533834 0.02562383 0.03917557 0.07659154 -0.01410933 0.070189655 -0.011199345 -0.059509743
0.037116773 0.14790343 -0.009508997 0.0060005863 0.01159744 0.046230298 0.14224876 -0.026518848
-0.010173459 -0.12919368 0.07135611 0.42631322 -5.1737297e-05 0.0004294184 0.08841986 -0.042616304
00000000: 5251 5e39 3559 63bc dad0 3bba ca10 293c
00000010: 6a9a 7d37 e097 1338 279f a538 6ee7 c438
00000020: f114 ce36 b205 39ba ca16 6138 d02e a538
00000030: 0c63 e0b7 3b79 87bc 7b8e 12b6 3549 58bb
00000040: be65 d8b8 082a e238 2023 8c36 3fdc 0d39
00000050: 4dd0 1d39 f167 d8b9 dde8 7237 e013 45b9
00000060: 8018 70b5 04ff 0bb6 0c07 a138 66bb c737
00000070: 1993 2b37 e644 6fb8 a863 2137 f066 51bb
00000080: 846d b1b7 0366 9136 7022 3538 6c77 9739
00000090: 2434 28b9 c864 88b8 f196 3339 dfb5 f738
000000a0: 8f7e c739 7253 01bc d7e9 d9b8 3244 d839
000000b0: 26a1 b5ba 3a57 e0bb 7222 93b7 c89f aa38
000000c0: 3775 2ab8 d979 6239 5c41 d1bb 1a28 04bc
000000d0: 9972 3438 c956 9abc e687 49b7 b84e 0138
000000e0: 3c7d 9638 627f 613b 1cae 3eb4 1f9a 48b5
000000f0: 0830 e9b7 d320 06b9 7462 cfba 119a abbb
00000100: 56bb ff34 ac51 1934 4809 e9b8 3c23 f037
00000110: e415 5937 9ab6 8bb8 570a 4c38 03c9 c037
00000120: 3238 9036 ca63 5d38 1dd9 8f37 4f5d eabb
00000130: ae70 0f39 aa52 c4ba fd38 8db7 bc35 4f38
00000140: 6083 c9b8 0067 0335 294c 37bc b0f2 0a3c
00000150: 5456 67b9 6363 e7bb 0038 dc35 7c32 f5b7
00000160: d150 69b6 130c 5cbd e20a b137 d8ed c0b7
00000170: e1ca c438 f744 e8b8 1eaf 0c39 0afd a9b6
00000180: e953 8cb7 ce6d e43a 3682 1cba a157 8f3c
00000190: 0d14 8438 0192 87bd 79ec 56b7 4302 6d38
000001a0: ee71 a0b7 0b72 0f38 ae13 3738 ad51 1438
000001b0: cd7a 2eb7 a790 d23b 7c97 02b6 4100 2638
000001c0: 6ca6 94b9 43c0 3e3a ded3 e9b5 e618 8bb6
000001d0: e84e 52b6 0077 f1b5 a586 b437 0382 17bb
000001e0: 9434 76b8 249b 0139 8adb 0b38 9be0 0f39
000001f0: 6d13 aa34 3a4a fab5 0074 94b8 67e4 6738
00000200: 144f 00be ebed cb3d 3927 e0bd 1dff 923d
00000210: d7bf cbbb 4aa4 3cbe 3aec 2abd 86e4 27bb
00000220: 502b 35bb 2820 093d 5ff9 053c 540a ecbd
00000230: e94b 1e3d 05b4 473e 5fd4 8c3c 12d7 193d
00000240: 2cbc d1ba a049 2ebe fc37 d43c 7738 4ebe
00000250: d439 edbc 3414 163d da22 703d 7267 5bbe
00000260: b233 1b38 8815 80bc 9ad4 ca3d dbb1 f3bc
00000270: b86a 5cbd 0037 7c3d 6ff1 39bd 3842 0ebe
00000280: 59b6 20b9 ab06 5eb9 e694 9f3c 8fe1 713d
00000290: 285b a43d 0c97 873d 20ff 35bc 0e22 d1bd
000002a0: da07 8f3c 58eb 47be dbd1 bf3d c4f0 163e
000002b0: fdce 98bd 1b46 07bd a7f4 b3bd e558 23bd
000002c0: 97cd 903d 3faa 9bbd db86 b03d e88a efbc
000002d0: 1c7d 0a3d 9717 8abd 1059 843c 8153 e53b
000002e0: 4922 f93d 6fbf 453d 7465 8f39 e5e2 23b9
000002f0: 916a 173d e1d7 f93e aeb9 edbd 0080 1abe
00000300: b063 39ba 22c8 78ba 8ee0 ef3d 297b 203c
00000310: 5f7d e63c d7c0 913d ef2c 4bbc 31ee a6bd
00000320: cef2 9e3c 92a3 2b3d c9a8 2dbc f079 f93c
00000330: f693 503e 3cd6 763e b160 f03d 9d63 d23c
00000340: 583c 3038 a22b 083d fdab 4c3e 1411 65bd
00000350: fc3b efbb 4f30 cd3d 339e 03bb 4b79 4a3c
00000360: 1852 16b8 8e8e 373a ce9d cd3d 2b7e 94bc
00000370: 1738 173e b493 0bbd 5b58 1a3d b410 b53e
00000380: 2501 bc38 ab07 d93c 0471 c63d 85a0 a53c
00000390: 6e3d 16bd c951 0f3d 3925 733d 2933 98bc
000003a0: 7277 633d 11e9 d13c 9076 203d 06dc 9c3d
000003b0: d22a 67bc 98bf 8f3d 757d 37bc 7dc0 73bd
000003c0: c207 183d ff73 173e a0cb 1bbc 91a0 c43b
000003d0: 3003 3e3c fb5b 3d3d a9a9 113e 0e3e d9bc
000003e0: 94ae 26bc 594b 04be 2723 923d ba45 da3e
000003f0: 8000 59b8 9023 e139 7915 b53d 6f8e 2ebd

conv2Db.bias f4 [128]
-0.0073963706 0.15999925 -0.0011935217 -0.0059657535 -0.021983879 -0.045239422 0.09509155 0.07797855
0.024945633 0.020141842 -0.09816907 -0.038598057 -0.024493827 0.066944376 0.07611546 -0.06958228
0.042048827 0.04975335 -0.0017073151 0.087258786 0.023554925 -0.009166655 -0.0894936 -0.034989946
0.046749793 0.052871924 -0.09332684 0.15653926 -0.0127346115 0.16551971 0.025735023 -0.00082633353
0.11325757 0.09128799 -0.0039886427 0.058411676 0.0112676555 -0.118106306 0.1189507 -0.08888738
0.05312882 0.029903367 -0.0013793396 0.070464686 0.15284011 -0.023185844 -0.06814986 0.040976796
-0.014004792 -0.07293479 -0.0581029 0.1001546 -0.006835803 0.046132497 -0.013275702 0.11971446
0.052412864 -0.039452083 -0.1397103 -0.047513876 -0.018973822 -0.040776372 0.02336517 -0.002631681
-0.00011916454 -0.04016694 0.019068852 -0.021500485 -0.07117651 -0.0063463203 -0.01595228 -0.06770648
-0.045574706 -0.11711265 -0.07570752 -0.0058395253 -0.03086525 0.11518284 -0.016935699 0.1005038
-0.032115657 -0.018971812 0.023520466 -0.0035146028 -0.01769336 -0.055937886 0.072366714 -0.00027119293
0.045657374 -0.00044143363 0.06513495 -0.07222601 0.00022602908 0.016458973 0.0465705 -0.006558729
-0.008524758 0.07602781 0.13147512 -0.0066409884 -0.0024270567 0.0120372875 -0.011148896 -0.00988659
-0.0144826025 -0.03736765 0.12976827 -0.059477426 0.009768256 0.10112422 0.08320445 -0.07571156
0.08010501 0.009707231 0.004572341 -0.032063987 -0.049004305 0.08723037 -0.045292974 -0.0532631
0.025248863 0.09391954 -0.018976666 0.02804856 0.0013071259 -0.06883446 -0.028800191 0.058406204
00000000: 415d f2bb d8d6 233e f16f 9cba 5e7c c3bb
00000010: 8917 b4bc f94c 39bd 5cbf c23d 38b3 9f3d
00000020: c95a cc3c 8100 a53c de0c c9bd ff18 1ebd
00000030: 47a7 c8bc 221a 893d 6ce2 9b3d 2881 8ebd
00000040: 643b 2c3d 2bca 4b3d fdc7 dfba bcb4 b23d
00000050: 42f6 c03c bd2f 16bc 6c48 b7bd 9e51 0fbd
00000060: b67c 3f3d 3b90 583d 2422 bfbd d44b 203e
00000070: d5a4 50bc 007e 293e 41d2 d23c 4e9e 58ba
00000080: 96f3 e73d 33f5 ba3d 29b3 82bb 1541 6f3d
00000090: f99b 383c b8e1 f1bd 6d9c f33d 960a b6bd
000000a0: 9b9d 593d e8f7 f43c f5ca b4ba ca4f 903d
000000b0: 1e82 1c3e 3df0 bdbc 2792 8bbd 49d7 273d
000000c0: 5b74 65bc d65e 95bd 4efd 6dbd db1d cd3d
000000d0: dffe dfbb 6ef5 3c3d 5482 59bc db2c f53d
000000e0: dfae 563d 8298 21bd 3810 0fbe e99d 42bd
000000f0: fd6e 9bbc 2005 27bd 5068 bf3c 4878 2cbb
00000100: fae7 f9b8 1786 24bd 4836 9c3c c921 b0bc
00000110: fdc4 91bd cbf4 cfbb 5bae 82bc b2a9 8abd
00000120: 8bac 3abd c2d8 efbd 8b0c 9bbd 7d59 bfbb
00000130: 1fd9 fcbc fbe4 eb3d bcbc 8abc f0d4 cd3d
00000140: b58b 03bd c66a 9bbc fead c03c 4055 66bb
00000150: aaf1 90bc 201f 65bd 0035 943d e62e 8eb9
00000160: 3a03 3b3d 3870 e7b9 7965 853d 3beb 93bd
00000170: 3802 6d39 f8d4 863c b5c0 3e3d 9bea d6bb
00000180: 6dab 0bbc 78b4 9b3d 6aa1 063e a69c d9bb
00000190: 410f 1fbb 0b38 453c dca9 36bc 5dfb 21bc
000001a0: 7048 6dbc d20e 19bd f9e1 043e 9a9e 73bd
000001b0: 090b 203c 371a cf3d 1867 aa3d aa0e 9bbd
000001c0: 180e a43d 140b 1f3c 94d3 953b 8755 03bd
000001d0: bdb8 48bd d6a5 b23d 2085 39bd 692a 5abd
000001e0: b4d6 ce3c e358 c03d f474 9bbc 18c6 e53c
000001f0: de53 ab3a 15f9 8cbd 61ee ebbc 583b 6f3d

cbam2.ChannelGate.mlp.1.weight f4 [8, 128]
-0.0002534659 0.019496314 -2.1283588e-05 -4.2489984e-05 0.025746694 0.0044652172 0.019628739 0.066612944
0.11914539 0.16091898 0.115046315 0.01862075 0.096800596 0.08671016 0.1451827 0.102795616
0.07419924 0.083991274 0.018416164 0.12205335 0.12059272 0.00065775553 0.346342 -0.00029030256
0.023617314 0.17251031 0.06816743 0.096259736 -0.00014318818 0.13535802 0.09647255 -9.384366e-06
0.15046817 0.084289506 -4.744997e-05 0.11212285 0.0003778705 0.14543253 0.1164321 0.023693707
0.07735591 -0.0034763184 0.10491195 0.17295545 0.14823729 -0.00010008242 0.089379795 0.050200883
-0.0019558666 -0.0005903123 0.0056780907 0.14496104 -5.5855126e-05 0.05922316 -0.00041131052 0.031068645
0.02090897 0.15400799 0.057931256 0.0031897333 0.0408869 -0.00028671182 0.13746993 0.00012260381
2.351046e-06 0.046732534 0.14188097 0.05157814 0.07054567 -9.4356335e-05 0.16171673 0.13005276
0.1827871 0.05944382 0.016835643 -0.00015851755 0.055239074 0.118323006 -0.00030960958 0.12324641
-6.925636e-05 -0.000176812 0.0273494 0.10499713 -0.00050781993 0.021610294 0.18759623 2.4826157e-05
0.07331937 -6.108497e-05 0.07434406 0.17891476 0.00010711611 0.085285775 0.12719776 0.07666983
0.09937646 0.04322552 0.036483105 -0.00015966497 6.119425e-05 0.03606675 0.0026892405 -4.196934e-05
-0.0014438223 0.060395826 0.13486235 0.035997666 0.047928482 0.09862812 0.16097154 -0.00014806836
0.10241956 -0.009680701 0.1070792 0.002909177 3.856392e-05 0.12110526 -0.00028370228 0.07987166
0.098736465 0.114774786 -4.5072673e-05 0.07943807 2.950985e-05 0.00042000308 -0.010259331 0.07527458
0.0010646629 0.27142936 0.00022026467 -0.00048324923 0.15185925 0.00296157 -0.11767906 -0.25514823
-0.02632725 -0.13058358 0.23261115 0.0686941 0.26292914 0.32592982 -0.2177466 0.24615707
0.09029899 0.08624526 0.04341799 0.11289578 0.082013376 -0.00013765208 0.11316476 -4.1058942e-05
0.24237956 0.058697496 -0.15448783 0.31495303 -0.0004673223 0.017141035 0.12433224 -0.0025777146
0.23067571 0.26979652 0.0010543091 -0.2577328 -0.0008340689 0.058176063 0.2881577 0.036780834
0.0700542 -0.011679356 0.07956174 -0.09936953 -0.109204546 0.0019674252 0.21738793 0.14240484
0.0106742075 -0.0006369421 0.007112913 -0.15623932 0.0005603104 0.08306158 0.00055520714 0.20063399
-0.21977562 -0.1550412 -0.10575372 0.004106189 4.802132e-05 -0.0004101954 -0.16129018 0.004965097
0.00018384469 0.0969163 -0.23972057 0.1612749 -0.23450762 0.0007813022 0.2554132 0.1018532
-0.2081587 -0.04933242 0.02749287 0.004441149 0.25327933 -0.04072693 0.002431323 -0.15027061
0.0015706576 0.0015939609 0.19842468 0.1782433 -0.00027222585 0.062015187 0.00403975 0.00016271896
0.06918859 8.939224e-05 0.18789701 0.29222906 0.00129623 0.20490932 0.20560679 0.27652034
0.19527163 0.110002086 0.1584565 0.0011987896 0.0006465899 0.16553238 2.511169e-05 0.016209414
0.00051435886 -0.011253394 -0.109130114 -0.06704552 0.17957574 -0.13977218 0.1951224 -0.0008486966
-0.17055732 0.1863591 0.22654851 -0.0003796036 -0.0009944919 -0.11209788 -0.0013507268 0.05567581
0.13962418 -0.19451709 0.0025155642 0.13213487 0.0014913963 0.00387839 -0.019864898 0.10626507
00000000: 9ee3 84b9 bcb6 9f3c 288a b2b7 4637 32b8
00000010: bbea d23c f550 923b 73cc a03c 5e6c 883d
00000020: 8002 f43d f2c7 243e 679d eb3d 8b8a 983c
00000030: 643f c63d 1995 b13d c6aa 143e 8286 d23d
00000040: c5f5 973d 9e03 ac3d 7fdd 963c 1bf7 f93d
00000050: 51f9 f63d 3a6d 2c3a bd53 b13e c033 98b9
00000060: 1979 c13c 8ba6 303e 5e9b 8b3d d323 c53d
00000070: c924 16b9 4b9b 0a3e 6693 c53d 8c71 1db7
00000080: 5414 1a3e fa9f ac3d 0405 47b8 aaa0 e53d
00000090: ec1c c639 44ec 143e f473 ee3d 4e19 c23c
000000a0: c66c 9e3d f2d2 63bb 14dc d63d 3c1b 313e
000000b0: 84cb 173e 57e3 d1b8 c10c b73d 719f 4d3d
000000c0: ff2d 00bb 30bf 1aba 470f ba3b ab70 143e
000000d0: fc45 6ab8 fc93 723d 2aa5 d7b9 ac83 fe3c
000000e0: 4a49 ab3c 45b4 1d3e 5349 6d3d d80a 513b
000000f0: 0679 273d cf51 96b9 ebc4 0c3e 368f 0039
00000100: aac6 1d36 9d6a 3f3d 3f49 113e 9a43 533d
00000110: 407a 903d 2ce1 c5b8 1299 253e 8d2c 053e
00000120: 8b2c 3b3e 5d7b 733d e7ea 893c bb37 26b9
00000130: 5e42 623d 5553 f23d 1853 a2b9 9d68 fc3d
00000140: ba3d 91b8 9c66 39b9 d90b e03c bc08 d73d
00000150: 381f 05ba 1208 b13c 3a19 403e c441 d037
00000160: 7728 963d be1a 80b8 b341 983d 6e35 373e
00000170: 86a3 e038 4faa ae3d 2140 023e 1205 9d3d
00000180: e385 cb3d 3e0d 313d 4f6f 153d bd6b 27b9
00000190: 6a55 8038 baba 133d f83d 303b 3c08 30b8
000001a0: a33e bdba 9d61 773d 5b19 0a3e 4a72 133d
000001b0: a850 443d 8afd c93d b9d5 243e cc42 1bb9
000001c0: 59c1 d13d ce9b 1ebc 574c db3d e4a7 3e3b
000001d0: b2bf 2138 0906 f83d e0bd 94b9 c193 a33d
000001e0: 5836 ca3d 0b0f eb3d 6a0c 3db8 6db0 a23d
000001f0: ec8b f737 dc33 dc39 c116 28bc 8f29 9a3d
00000200: 298c 8b3a caf8 8a3e d9f6 6639 9d5c fdb9
00000210: fe80 1b3e e616 423b b801 f1bd caa2 82be
00000220: 3fac d7bc b4b7 05be 9e31 6e3e 7eaf 8c3d
00000230: a69e 863e 46e0 a63e f7f8 5ebe 9910 7c3e
00000240: adee b83d 5ba1 b03d 10d7 313d e735 e73d
00000250: a1f6 a73d b356 10b9 edc2 e73d b436 2cb8
00000260: 5932 783e c96c 703d 0f32 1ebe 8641 a13e
00000270: f002 f5b9 5b6b 8c3c e7a1 fe3d e0ee 28bb
00000280: 4136 6c3e c522 8a3e be30 8a3a 8ef5 83be
00000290: 6ba5 5aba 064a 6e3d 6889 933e 80a7 163d
000002a0: 9478 8f3d c55a 3fbc 44f1 a23d 4182 cbbd
000002b0: a2a6 dfbd ebef 003b f19a 5e3e 93d2 113e
000002c0: dfe2 2e3c 76f8 26ba 7013 e93b 33fd 1fbe
000002d0: cbe1 123a 311c aa3d 528b 113a ff72 4d3e
000002e0: dc0c 61be 1fc3 1ebe 6895 d8bd 368d 863b
000002f0: 806a 4938 7f0f d7b9 4129 25be 41b2 a23b
00000300: 6fc6 4039 0e7c c63d 4f79 75be 3f25 253e
00000310: c422 70be 4ed0 4c3a 85c5 823e 6998 d03d
00000320: 8e27 55be cb10 4abd ba38 e13c 0f87 913b
00000330: d4ad 813e 48d1 26bd d556 1f3b 8ae0 19be
00000340: 86de cd3a 74ec d03a d72f 4b3e 6985 363e
00000350: 89b9 8eb9 a303 7e3d e15f 843b 8a9f 2a39
00000360: bfb2 8d3d 1878 bb38 1368 403e 0c9f 953e
00000370: 43e6 a93a c0d3 513e 968a 523e 1394 8d3e
00000380: 49f5 473e c648 e13d 6c42 223e b420 9d3a
00000390: ea7f 293a 5281 293e f2a6 d237 9bc9 843c
000003a0: 0ad6 063a 2860 38bc 9c7f dfbd 294f 89bd
000003b0: b4e2 373e 7020 0fbe 2bce 473e 117b 5eba
000003c0: 94a6 2ebe ebd4 3e3e 55fc 673e 8805 c7b9
000003d0: 9c59 82ba 9393 e5bd df0a b1ba 510c 643d
000003e0: a4f9 0e3e 7d2f 47be 2adc 243b 5d4e 073e
000003f0: f57a c33a 962c 7e3b b6bb a2bc 80a1 d93d

cbam2.ChannelGate.mlp.1.bias f4 [8]
0.050359774 0.10850869 -0.00744574 -0.0035528874 0.002635543 -0.01707056 -0.07999122 0.06455821
00000000: 0d46 4e3d ce39 de3d 65fb f3bb 8fd7 68bb
00000010: 13b9 2c3b 8fd7 8bbc 70d2 a3bd 1837 843d

cbam2.ChannelGate.mlp.3.weight f4 [128, 8]
-8.539476e-05 -7.1606206e-05 -2.3823016e-07 5.124539e-09 3.0176022e-07 3.1546218e-08 3.3215525e-07 -0.00017749437
-0.007672711 0.031058406 5.450374e-08 -1.2789562e-07 -1.0533783e-07 -1.8084936e-07 -9.500882e-07 -0.21886238
0.00025623434 0.00022864822 -1.906097e-07 -1.1631281e-08 2.0546764e-07 1.4905983e-07 3.1404954e-07 2.3247216e-05
5.4064556e-05 -0.0001321274 1.5687692e-06 1.8119977e-07 -3.7587513e-06 -2.4823862e-07 -6.012856e-08 -3.9682745e-05
0.14957006 0.061028685 -4.287506e-08 -1.9390085e-09 -7.97926e-08 2.816731e-07 -3.3447867e-07 0.11694778
-0.004319343 -0.0015654718 -0.0076719294 -4.7972588e-08 0.0030678185 -0.00045844636 -0.00076716254 -0.0010524078
-0.089193985 0.03520703 -0.052625567 3.0002928e-07 0.00435482 -0.009370249 -0.009672316 -0.32331452
-0.030902058 0.16950224 -7.04331e-08 8.069784e-09 -1.2939267e-09 -1.0912494e-07 -2.502189e-07 -0.12713605
0.09406518 0.3114743 -1.2234887e-07 8.032897e-08 1.6117183e-07 -1.1754114e-08 -2.5248266e-08 0.12962817
0.13799948 0.12541884 -1.1087836e-07 3.892834e-08 -2.4599245e-07 7.9111345e-08 -3.767527e-07 0.14957774
-0.18258569 0.2557488 2.7841495e-06 0.00035055977 1.8162298e-06 -0.0046450817 2.6096424e-07 0.122851804
0.19240622 0.11084999 2.8356885e-06 -1.0535183e-08 9.663776e-07 9.760349e-07 5.1826385e-07 0.17642516
0.27732065 0.19682677 0.03986242 -5.458687e-06 -0.02280604 0.0049207867 -0.064866655 0.15839674
0.08986669 0.13186556 -7.415024e-07 5.0664687e-07 2.538314e-07 -4.7969354e-07 5.4898795e-08 0.3522637
-0.053100005 0.18699053 2.2290934e-08 -9.092864e-08 2.75096e-07 1.933935e-07 5.476517e-08 0.17738616
0.36927122 0.102438316 -1.1260541e-07 0.042342156 2.2387622e-08 0.028508063 2.762995e-07 -0.13112795
-0.2567154 0.15477934 -1.3665172e-07 -1.6055825e-08 -2.3205196e-08 -2.1254293e-07 2.975168e-07 0.16492856
-0.10563923 -0.10210079 3.703774e-07 1.1478851e-07 -1.6327769e-07 -2.1384638e-07 -1.3783124e-08 -0.14667927
0.28535601 -0.1058816 -4.30866e-10 -6.68464e-08 2.2976337e-07 3.9292058e-07 3.9918724e-08 -0.14520767
0.1561444 0.11259889 4.0181797e-07 -9.229101e-09 -1.615258e-07 4.575768e-08 2.6821104e-07 0.062664896
0.353964 0.16416785 3.223783e-07 -1.8238218e-07 3.392166e-07 8.987444e-08 6.303849e-08 -0.12387817
4.067572e-05 0.0001039811 4.291674e-08 -0.00020409696 -1.2952006e-08 0.003937383 -1.3517086e-07 -0.045189235
0.24620259 0.13018358 -0.0010202532 4.3155345e-07 8.649562e-06 -7.916987e-06 -0.0019206607 0.24079616
0.008241497 0.0070076943 -9.367618e-09 3.0725639e-07 -2.55634e-07 1.7852516e-07 -1.7420717e-07 0.011753419
0.2814776 0.19978458 4.2552715e-06 -2.2929092e-07 -2.783182e-07 8.653504e-07 1.1782187e-05 0.1937211
0.051391136 0.2790739 -3.0081955e-07 8.62892e-08 1.3648224e-07 -2.991064e-07 -1.0642266e-07 0.118161075
0.27694654 0.02360198 -1.07300146e-07 0.0049057864 -9.876801e-08 -0.026533073 -5.1114267e-08 0.16161092
0.07076423 0.25352418 6.783518e-06 -4.074939e-08 3.7476033e-07 -5.247685e-07 6.1323612e-06 0.19185737
-2.642258e-05 -0.000101947735 4.4271496e-07 -2.2853202e-07 3.4417837e-09 2.364714e-07 -1.3782486e-10 0.0002003138
0.21214707 -0.16289783 -1.5957955e-06 0.002125778 3.96775e-06 -0.013200612 -2.3449102e-06 0.10577502
-0.26998565 0.19778103 -2.0977183e-07 0.015726112 -1.7026967e-07 -0.021349087 -1.9604746e-08 -0.034679156
-0.0036990482 -0.00048183402 5.490451e-08 -1.1181651e-08 -9.537342e-08 9.332085e-09 3.516917e-07 -0.0021561105
00000000: f615 b3b8 4a2b 96b8 35cc 7fb4 ec13 b031
00000010: 9c01 a234 6f7d 0733 1253 b234 c81d 3ab9
00000020: 5d6b fbbb 336e fe3c 7f17 6a33 ae53 09b4
00000030: 1636 e2b3 7e2f 42b4 9009 7fb5 761d 60be
00000040: 3157 8639 4ac1 6f39 65aa 4cb4 ead2 47b2
00000050: 849e 5c34 410d 2034 a49a a834 0403 c337
00000060: 60c3 6238 ae8b 0ab9 808e d235 d08f 4234
00000070: db3e 7cb6 a845 85b4 0720 81b3 0671 26b8
00000080: e528 193e 37f9 793d a125 38b3 663f 05b1
00000090: 725a abb3 db38 9734 6692 b3b4 5182 ef3d
000000a0: 4689 8dbb 8430 cdba cf64 fbbb 6b0a 4eb3
000000b0: 740d 493b a15b f0b9 681b 49ba f2f0 89ba
000000c0: 56ab b6bd 3f35 103d e88d 57bd b613 a134
000000d0: e1b2 8e3b ac85 19bc a278 1ebc 7b89 a5be
000000e0: 5026 fdbc ff91 2d3e 0241 97b3 49a3 0a32
000000f0: 00d6 b1b0 1258 eab3 d355 86b4 f42f 02be
00000100: 3fa5 c03d 8f79 9f3e 005f 03b4 5181 ac33
00000110: 930e 2d34 24ef 49b2 86e1 d8b2 3fbd 043e
00000120: bc4f 0d3e cc6d 003e 061c eeb3 2a32 2733
00000130: f210 84b4 ece3 a933 7f44 cab4 e82a 193e
00000140: bef7 3abe 82f1 823e 53d7 3a36 56cb b739
00000150: 2ec5 f335 c535 98bb a71a 8c34 ba99 fb3d
00000160: 2306 453e 5205 e33d c24c 3e36 3afe 34b2
00000170: 7bb4 8135 4e00 8335 d21e 0b35 cca8 343e
00000180: f9fc 8d3e f58c 493e c746 233d c429 b7b6
00000190: bbd3 babc 8d3e a13b cfd8 84bd c132 223e
000001a0: 070c b83d c407 073e a80b 47b5 8200 0835
000001b0: 5246 8834 4ac4 00b5 ddc9 6b33 e85b b43e
000001c0: 647f 59bd 727a 3f3e 487a bf32 8c44 c3b3
000001d0: e8b0 9334 9aa7 4f34 f136 6b33 b8a4 353e
000001e0: 1e11 bd3e 2ecb d13d 7bd1 f1b3 f86e 2d3d
000001f0: e74e c032 be89 e93c 5056 9434 6846 06be
00000200: 3370 83be 7a7e 1e3e 8aba 12b4 22eb 89b2
00000210: c454 c7b2 5b37 64b4 66ba 9f34 08e3 283e
00000220: 6159 d8bd 381a d1bd 48d8 c634 a781 f633
00000230: 6e51 2fb4 a59d 65b4 d2ca 6cb2 1733 16be
00000240: 2f1a 923e 74d8 d8bd 00df ecaf 328d 8fb3
00000250: e0b4 7634 98f2 d234 1a73 2b33 52b1 14be
00000260: 51e4 1f3e 3f9a e63d 71b9 d734 048e 1eb2
00000270: e06f 2db4 1a87 4433 a5fe 8f34 7456 803d
00000280: c53a b53e 9e1b 283e 5613 ad34 d5d4 43b4
00000290: 931d b634 ff00 c133 c75f 8733 d7b3 fdbd
000002a0: 399b 2a38 6e10 da38 7453 3833 dc02 56b9
000002b0: 8683 5eb2 2a05 813b 7c23 11b4 5918 39bd
000002c0: 881c 7c3e d84e 053e 04ba 85ba 41b0 e734
000002d0: 961d 1137 33d3 04b7 aebe fbba 4593 763e
000002e0: 5807 073c cda0 e53b 38ef 20b2 fff4 a434
000002f0: 123e 89b4 9fb0 3f34 b40d 3bb4 6a91 403c
00000300: d51d 903e 5494 4c3e 81c8 8e36 0233 76b4
00000310: c36b 95b4 6d4a 6835 1cac 4537 d35e 463e
00000320: 837f 523d c6e2 8e3e 5380 a1b4 fd4d b933
00000330: f48b 1234 df94 a0b4 7a8a e4b3 6ffe f13d
00000340: f0cb 8d3e f158 c13c e16c e6b3 b8c0 a03b
00000350: 4a1a d4b3 e35b d9bc bb88 5bb3 557d 253e
00000360: d6ec 903d eccd 813e fa9d e336 6e04 2fb3
00000370: ab32 c934 d1dd 0cb5 95c4 cd36 4276 443e
00000380: 0fa6 ddb7 c6cc d5b8 48ae ed34 6762 75b4
00000390: 8084 6c31 c3e8 7d34 408a 17af 540b 5239
000003a0: 153d 593e b0ce 26be 1e2f d6b5 a350 0b3b
000003b0: b722 8536 6147 58bc 405d 1db6 93a0 d83d
000003c0: 8f3b 8abe 1c87 4a3e a43d 61b4 0cd4 803c
000003d0: 5fd3 36b4 48e4 aebc 4b67 a8b2 bb0b 0ebd
000003e0: bb6b 72bb ab9e fcb9 26d0 6b33 6c19 40b2
000003f0: 18d0 ccb3 f252 2032 24d0 bc34 884d 0dbb
