pishgu/models/test_new/VIRAT_ActEV.pt (torch, 448727 bytes, 33 tensors)

conv2Da.weight f4 [64, 2, 2, 2]
000000 53 42 fc bd 6b f9 53 bf 43 1b c7 be f4 ef 6e bf
       -0.12317338 -0.82802457 -0.38887987 -0.9333489
000010 e9 0f 5d be 18 5b 0e 3e bd f6 a2 bd 4f 0d f4 3d
       -0.215881 0.13901937 -0.07957218 0.11916601
000020 0a c2 f4 38 ef 79 ae 39 4e 5b 9a 3b 29 c5 22 3b
       0.00011670969 0.00033278714 0.0047105914 0.0024836755
000030 6c d9 c9 3d bd a6 0a 3e be 9f ec 3d ed ec 7e 3d
       0.09855923 0.13540168 0.11553906 0.06223767
000040 ba 71 22 3c c6 7a 18 3b dc b0 a5 3b 2d 5f 06 3a
       0.00991481 0.0023266538 0.0050564837 0.00051258766
000050 ce cc 32 bb 36 35 7a bd f8 98 25 3e 25 38 f5 3c
       -0.0027282718 -0.061085902 0.16171634 0.029933998
000060 be 30 8c bd c8 af 21 be 2f 93 9f 3c 23 9b aa bd
       -0.06845234 -0.15789711 0.019479362 -0.08330371
000070 e4 2b e6 bc 1f 8b a6 bd 9d 42 c5 3d ef e1 85 bd
       -0.0280971 -0.08132004 0.09631846 -0.06537234
000080 73 56 29 bd ca 3d 89 3c 80 52 e9 3e b0 87 91 bd
       -0.04134221 0.016753096 0.45570755 -0.071059585
000090 ae c5 e9 3d 1c d9 48 3e ad 9c b0 bd a1 0c 93 be
       0.114146575 0.1961407 -0.086236335 -0.28720573
0000a0 cc 73 17 b9 f9 23 ac 39 77 10 29 3b 1f 67 6f 3a
       -0.0001444362 0.00032833198 0.0025797167 0.00091324927
0000b0 1b 7b 88 3d 57 a7 72 bc da e6 82 bc a3 ca ae 39
       0.066641055 -0.014810405 -0.01597922 0.00033338842
0000c0 52 6b 8c 3e fa 66 e6 bc ac 26 93 be 61 4b bf 3d
       0.2742563 -0.028125275 -0.28740442 0.09340549
0000d0 54 d7 dd 3d fc ae 14 3c 5c 19 38 bd cb d2 a6 bd
       0.10832086 0.009074923 -0.04494606 -0.08145674
0000e0 f3 6e 40 be 8c 83 cf 3d 14 8e 37 3e d3 ec 08 be
       -0.18792324 0.101325125 0.17925292 -0.13371591
0000f0 4e 94 4c bd 4d 2a a1 3d c0 82 37 bc 34 21 71 bd
       -0.049946122 0.07869396 -0.011200607 -0.058869556
000100 48 0c 33 be e4 74 cd 3b 70 03 21 bf 92 7b a2 3d
       -0.17485154 0.006270038 -0.6289587 0.079337254
000110 d7 f2 25 3d 00 c5 59 3d 64 fe 23 3e b0 87 19 3e
       0.040514793 0.05316639 0.16015011 0.14993167
000120 be 53 99 3d ef a5 2a 3f 32 5a 57 3d 33 1c 69 3f
       0.07486676 0.66659445 0.05257625 0.91058654
000130 13 0e 59 be c2 9e 15 3d cd d2 1c 3d d9 c3 cf bd
       -0.21196775 0.036528356 0.038286973 -0.10144777
000140 09 dc 5d be 8f e5 9b 3e f7 e0 39 bf 91 df 6c 3e
       -0.21665968 0.30448577 -0.72608894 0.23132159
000150 2e ff 6b bd a2 ab ec bc 07 a3 96 3d e4 c1 15 3e
       -0.057616405 -0.028890435 0.07355314 0.14624745
000160 af 1e e7 be a0 e3 70 be a4 3d 9f 3e a2 aa 41 3e
       -0.45140597 -0.23524332 0.31101716 0.18912748
000170 d5 7f 04 bd f0 af d4 bc a2 70 97 bd da e3 11 3e
       -0.032348473 -0.0259628 -0.0739453 0.14247075
000180 70 a5 09 be b0 21 cc 3e c6 be b8 3d 5a 75 20 3f
       -0.13442016 0.39869452 0.09020762 0.62679064
000190 c1 f3 1d 3f dc 06 96 3c 18 5d dd bd 48 09 a9 bd
       0.61700064 0.018313818 -0.10808772 -0.082537234
0001a0 2c d3 8a 3d d3 53 0c bc f7 61 27 bd f2 41 c7 3c
       0.06778559 -0.008564907 -0.04086491 0.024323437
0001b0 98 15 3e 3d 77 82 d5 bd 0f 08 b8 ba 59 c6 50 bd
       0.046407312 -0.10425275 -0.0014040488 -0.05097041
0001c0 5f 5c 15 bd 6d 99 ff be 38 a2 24 bd 53 d2 2c bf
       -0.036465045 -0.49921742 -0.040193766 -0.6750843
0001d0 7a ed f4 bd e0 74 c3 bc 61 3a 98 bd 26 a9 51 be
       -0.119593576 -0.023859441 -0.0743301 -0.20474681
0001e0 b8 2e 8f bc ce f4 d2 3e 02 0d b2 be 7d ab e1 3e
       -0.017478332 0.41202396 -0.3477555 0.44076148
0001f0 19 95 b3 bd 49 af e5 bd 8c dd 0b 3e bb 43 c4 bd
       -0.087686725 -0.112150736 0.13658732 -0.09583231
000200 e6 80 98 be e6 91 89 3e be 7f 71 bf 2b 4f 73 3e
       -0.29785842 0.26869124 -0.94335544 0.23760669
000210 83 ab d3 3c 17 b0 7b bd 6e 89 ac ba 3e 5d c4 3d
       0.02583862 -0.06144723 -0.0013163516 0.09588097
000220 9c b3 2a bd b0 5b 92 bd 9b 5d 0e bf c1 d0 2e bd
       -0.041675195 -0.07146394 -0.5561158 -0.042679552
000230 71 fd 07 3e 67 b4 13 bd d9 34 ef 3c d9 75 be 3d
       0.13280274 -0.036060717 0.029200004 0.092998214
000240 84 d5 56 be 4e 38 ae ba d0 fb 90 be 8d ec 86 3c
       -0.20979887 -0.0013291927 -0.28317118 0.016470218
000250 4f 63 c3 bc c2 bc d7 3c 24 cc 94 bd 46 a3 b7 3d
       -0.023851065 0.026335124 -0.07265499 0.08966689
000260 0f a4 52 be 49 35 c4 3e d3 2c 3e bf 1b 4b ec 3e
       -0.20570396 0.38321903 -0.74287146 0.4615105
000270 1b fd 31 3d d1 01 c2 bd f6 74 82 bc 3a 04 dc 3d
       0.04345427 -0.09473003 -0.015924912 0.10742994
000280 ef 71 2c 3d 6d 22 a5 3e dd b8 7a 3d 4a 16 f1 3e
       0.042100843 0.32252827 0.061211456 0.47087318
000290 56 d1 07 3e 9c ef 1b 3e d8 52 ea bd 5c f3 02 be
       0.13263449 0.15228122 -0.114415824 -0.12788147
0002a0 a8 d6 9e bd f9 1b 9d bd 6e 27 2a 3e 29 0d 21 be
       -0.07755786 -0.07671351 0.16616604 -0.15727676
0002b0 25 d2 92 3e 5e 40 0a be fe 96 55 3d 06 79 2f be
       0.28675953 -0.13501117 0.05214595 -0.1713601
0002c0 f6 05 0e bf ea 8d 0e 3e cd d0 aa bf 9c d1 78 3e
       -0.55477846 0.13921323 -1.3344971 0.2429871
0002d0 b4 9d 46 be f2 a5 9a bc 91 2a 31 be 79 7e 51 3d
       -0.19396096 -0.018877957 -0.17301394 0.051146004
0002e0 de c7 a0 3d a5 b1 a8 b9 e2 36 33 3d fa 6f 12 b8
       0.07850622 -0.00032175813 0.043753512 -3.49134e-05
0002f0 d4 a8 5c 3d bf cc 2f be 38 bb c1 3d 2f ee c9 3d
       0.053871945 -0.17167948 0.09459537 0.09859883
000300 00 d6 32 bd af 77 88 be 5f d3 c2 3d 6a 4b 3b 3e
       -0.043661118 -0.2665381 0.09512972 0.18290487
000310 a8 b7 72 bc d5 d3 e3 bd ac 05 af 3d c2 75 1d 3e
       -0.014814295 -0.11124388 0.08546004 0.15376952
000320 0c 3a 1a b9 50 c2 88 39 fd 7d bf 3b 22 4f 20 3b
       -0.00014708209 0.00026084716 0.0058438764 0.002446123
000330 ac 3f db 3d 04 7a fe 3c 98 cf 11 bd c0 eb de b9
       0.10705504 0.031064041 -0.035598367 -0.00042518787
000340 2d 2f 39 bd d9 e7 5b 3e fc df 4d 3c 6a 91 b9 3e
       -0.045211006 0.21475162 0.012565609 0.36243755
000350 16 1b 5e bd e2 06 d8 bd a2 02 00 bd c1 15 9d bd
       -0.05422505 -0.10548188 -0.03125251 -0.07670165
000360 36 d8 80 39 c8 a3 88 b7 ad 86 db b9 ef 58 de 38
       0.00024575152 -1.628873e-05 -0.00041871276 0.0001060235
000370 bf 60 19 bb f0 8f 52 ba 8a 92 19 3d 3b d2 a2 3c
       -0.0023403612 -0.00080323126 0.037493266 0.019875636
000380 8c e6 c9 3d 72 9a b5 3e 9a 83 c0 bd 56 1a cb 3e
       0.098584265 0.35469395 -0.09400101 0.3966853
000390 b6 d7 83 bb 11 3f 76 bd 4e ba 03 3e b4 66 65 bd
       -0.0040235175 -0.06011874 0.12864038 -0.05600615
0003a0 ac 7a fa be 14 af 14 3f fa f7 ba 3e f2 45 cf be
       -0.48921716 0.5807965 0.36517316 -0.40483052
0003b0 d3 42 ae bd c1 35 02 3d 21 a7 45 bc 94 17 32 be
       -0.085088395 0.031789545 -0.012063772 -0.17391807
0003c0 87 fa 7b 3e cd 5a ca 3e ef ed da 3e 55 d4 f1 3e
       0.24607287 0.395224 0.42759654 0.4723231
0003d0 65 21 02 be 7c 5f 07 3e 5a 38 cb 3d 67 fb 91 be
       -0.12708052 0.13220018 0.099228576 -0.28512117
0003e0 c1 de d8 3e bc 58 37 be 70 73 33 3f 92 33 eb bd
       0.42357448 -0.17904943 0.7009802 -0.11484446
0003f0 5d 80 c5 bd 3f 1b d8 3c 0c 22 ac 3d 6e 27 d2 3d
       -0.09643624 0.02638018 0.084049314 0.10261427

conv2Da.bias f4 [64]
000000 53 f1 db 3e a8 fe 27 bb 48 df fd ba ee 88 dc bc
       0.42957553 -0.0025633965 -0.0019368911 -0.026920762
000010 dc 31 d8 3e 97 fd 89 ba 28 28 8d be 6a 30 94 be
       0.4222554 -0.0010527846 -0.275697 -0.28943187
000020 02 7c 9e 3d 4b 32 31 3f a4 d7 70 3e 3e 6c 4a be
       0.07738496 0.69217366 0.2351976 -0.19767854
000030 24 f5 27 be 38 ea d2 38 1a ae 01 3d 7f 59 ac 3e
       -0.16402107 0.00010057207 0.031660177 0.3366203
000040 e2 1e d3 3e e1 52 bb 3d 04 47 bf 37 7b e1 60 3e
       0.412345 0.09146667 2.2802044e-05 0.21961014
000050 07 2b be bd f8 99 27 3d e0 a1 41 3e 84 3b 2a 38
       -0.092855506 0.04091832 0.18909407 4.0586587e-05
000060 70 b3 1a be 9c 48 86 b9 2f f2 3d 3e 13 3f ba b8
       -0.15107512 -0.0002561257 0.18549417 -8.8809196e-05
000070 1b b2 24 3d db c0 07 bf 27 05 35 3e 6c 77 9b 3e
       0.040208917 -0.5302865 0.17677747 0.3036455
000080 57 8e 66 bc 15 5c 90 b8 d8 a5 9f 3e fd ce 48 3c
       -0.014072022 -6.883607e-05 0.31181216 0.012256381
000090 5d 6d 08 3e 2c 01 43 bc 5e 68 7a be 22 2c 0f 3e
       0.13322969 -0.011902135 -0.24453875 0.13981679
0000a0 9b 98 25 bb 47 e0 b8 bd e7 13 c0 bc e8 db 3b be
       -0.0025267962 -0.090271525 -0.02344699 -0.18345606
0000b0 d4 7d a6 36 47 4a 42 3b ec 40 d6 b9 f8 01 5d ba
       4.961834e-06 0.0029646324 -0.0004086563 -0.00084307743
0000c0 53 26 d3 3e 18 7d c2 bc 0e a2 ec 3e f9 08 13 bf
       0.41240177 -0.02374129 0.46217388 -0.57435566
0000d0 ff 22 88 ba c3 80 c0 3e 8d 8b ef 3e 27 fe c6 3e
       -0.0010386406 0.37598237 0.46786156 0.38865778
0000e0 4a 9d 68 3e 32 3e c5 3c 56 7b 2e bd 10 3e 0e bb
       0.22716251 0.024077509 -0.04259809 -0.0021704473
0000f0 c2 4f 17 3e 40 30 5d 3a 78 ea b4 3e e7 1c 71 bb
       0.14776519 0.0008437671 0.35335135 -0.0036790909

cbam1.ChannelGate.mlp.1.weight f4 [4, 64]
000000 49 e9 83 bd ce e6 d7 bc d2 d7 50 bd 51 b5 c0 bd
       -0.0644098 -0.026355173 -0.050987072 -0.09409583
000010 91 2f 89 3a 87 49 fe 3a 5e d4 f1 3b ea b8 dc a5
       0.0010466446 0.0019400575 0.0073800525 -3.828922e-16
000020 09 36 97 bd 51 56 3d 20 32 3f 7d 3c 7e cf 1c bd
       -0.07383353 1.6037482e-19 0.0154569615 -0.038283817
000030 3b b5 89 3c 07 a2 53 a1 c2 4d 38 bb fb 57 9f bd
       0.01681005 -7.170402e-19 -0.002812252 -0.07780453
000040 86 c0 ba b9 0c 8c 02 3d 2d 46 18 bd 9a 4c c5 3b
       -0.00035620126 0.03187184 -0.0371763 0.0060210945
000050 5e 6b 8c bd 89 0b e0 bc 61 e1 61 bc 18 8a 78 bb
       -0.06856416 -0.02734925 -0.013786645 -0.0037924107
000060 18 d1 2f bd e9 d4 25 bc b5 46 05 ba 73 14 a0 3a
       -0.042924017 -0.0101215625 -0.00050840835 0.0012213126
000070 82 8d 6f bd ac 6f 4a bc c8 35 d1 bc 1c cf 1e 20
       -0.05848456 -0.012355726 -0.02553834 1.3451647e-19
000080 04 84 8c 3c fb 31 6d 3c 29 f1 3a 9e f2 a5 2d bc
       0.017152794 0.014477248 -9.896629e-21 -0.0105986465
000090 74 22 62 bd ec 38 a8 3c 91 8f e4 bd 7a f8 13 3d
       -0.05520864 0.020534955 -0.111601956 0.036125638
0000a0 c7 77 06 bd 8c f2 a5 27 ac 56 a6 bd 8f 34 3c bc
       -0.032829072 4.605967e-15 -0.08122 -0.01148714
0000b0 eb 4d 63 b9 97 03 29 bd 48 74 ba bc 96 ea 8f bc
       -0.00021677434 -0.04126319 -0.022760525 -0.017567914
0000c0 75 12 3f 3c 75 5a f6 1c c9 aa 55 3a 34 95 19 bc
       0.011662115 1.6302297e-21 0.0008150754 -0.009373952
0000d0 b5 70 23 3c aa e7 bb 3a e1 e7 e8 b4 81 c1 27 ba
       0.009975602 0.0014336009 -4.3382082e-07 -0.0006399379
0000e0 c7 f2 b4 bd 5a 2f 95 bd 71 89 c0 bd eb ae 42 bc
       -0.088353686 -0.07284422 -0.09401215 -0.011882524
0000f0 c6 7d 90 1d 1c 4e b7 bd 2d 61 42 21 d6 a5 ab bd
       3.824653e-21 -0.08950445 6.585837e-19 -0.0838124
000100 c6 3f 58 bc bb 16 04 3c cb f0 23 3c 3b 43 cd 33
       -0.0131987985 0.00806206 0.01000614 9.5582855e-08
000110 80 96 8d bc a6 77 a1 b9 4f 80 70 bc fb 7a 95 ba
       -0.017283678 -0.00030797458 -0.014679029 -0.0011404449
000120 77 a6 2d bc 91 79 4a 33 d0 11 9c bc bd c9 8a 3b
       -0.01059877 4.7142354e-08 -0.019051462 0.004235475
000130 bb 61 27 bd 73 14 8e b3 5c d8 35 30 87 69 63 3a
       -0.040864687 -6.61611e-08 6.615488e-10 0.00086750876
000140 eb a9 e8 bc db bc 1a bc 7b 7b e8 bc a6 9a 97 bc
       -0.028401336 -0.009444441 -0.028379193 -0.01850636
000150 c4 81 b6 bb 30 84 a1 3b 16 b5 e6 bc 54 23 2b 39
       -0.0055696685 0.004929088 -0.02816252 0.00016320992
000160 e6 f0 02 3c 82 1c b6 bb ec 87 30 3c 72 7f b5 3a
       0.007992005 -0.0055575976 0.010774594 0.0013847186
000170 1c 25 21 b6 a8 eb b0 bb 15 e3 ac 3c 79 81 02 bb
       -2.401247e-06 -0.005399186 0.021104375 -0.0019913597
000180 12 2d 51 bc 62 5e cb bc 62 81 94 ba bd 13 57 bc
       -0.012767093 -0.024825279 -0.0011330063 -0.013127265
000190 fc 14 88 bc 28 68 6a 33 3a 59 5c bb 58 09 64 bc
       -0.016611569 5.45771e-08 -0.003362252 -0.013918243
0001a0 32 6c c7 3a 07 7a 80 ba 7a 2a 09 bc 43 ed 31 3b
       0.001521474 -0.0009801992 -0.008371944 0.0027149476
0001b0 32 12 db bb a8 61 34 bb ae b6 70 bc c2 31 5c bb
       -0.0066855187 -0.0027524028 -0.014691992 -0.0033598994
0001c0 2b e7 26 bc 27 aa c1 b0 b6 04 59 b4 d7 5f c5 31
       -0.010186951 -1.4090958e-09 -2.0211414e-07 5.7443503e-09
0001d0 e8 cd 86 ba f9 c6 cd bc 25 70 01 bd 64 1c 2c 33
       -0.0010284754 -0.025119292 -0.03160109 4.0072692e-08
0001e0 af 19 88 b9 1d 76 93 3c d0 80 f9 bb 25 1e 58 3b
       -0.00025959077 0.018000657 -0.0076142326 0.0032976952
0001f0 18 b6 2c b7 11 70 05 bc 01 56 1c bc f7 0f d8 bc
       -1.0294396e-05 -0.0081443945 -0.009541989 -0.0263748
000200 78 11 cc bc c9 41 f7 bd a2 02 90 bd 79 77 2a bd
       -0.024910673 -0.120730944 -0.07031752 -0.041617844
000210 c2 48 80 3c 78 89 b2 bc 16 d7 51 bd ca 61 42 b7
       0.015659694 -0.021794066 -0.051230513 -1.1586069e-05
000220 07 69 8c bd a4 3a b6 b6 bd d1 af bd 98 62 3c ba
       -0.0685597 -5.4308493e-06 -0.08584926 -0.00071863225
000230 ec 84 77 39 e4 60 1d bc ec 68 28 37 83 43 c4 bd
       0.00023605273 -0.00960562 1.0038009e-05 -0.09583189
000240 0a 77 52 37 d3 b5 0c bd a7 23 9b 3b d8 99 d5 3c
       1.2544691e-05 -0.03435309 0.0047344747 0.026074335
000250 67 0f 1b bc 68 7b 0c ba 72 73 1c 3c 9b 15 ff 3c
       -0.009464121 -0.0005358965 0.009549009 0.031138232
000260 c1 1e e8 3a 7c a4 f5 3c 3b 19 12 bd d6 7f c5 bb
       0.0017709361 0.029985659 -0.035668593 -0.006027202
000270 a0 83 18 3d 6b f3 ee 3b 03 5e 9e bd 53 23 b6 33
       0.037234902 0.0072922013 -0.07732775 8.481461e-08
000280 f2 0a 8d bd aa 09 fd bc 6f cc 6d ba 24 51 0c 3d
       -0.06886853 -0.030888397 -0.00090712955 0.03425707
000290 80 75 a1 3c 1c 30 51 3c 4f ec e3 3b 03 b2 2f bd
       0.019709349 0.012767818 0.0069556604 -0.042894375
0002a0 01 65 d9 bc 52 7a 1a 39 5e 35 9c bd 76 96 b7 3c
       -0.02653742 0.00014732152 -0.076273665 0.022410613
0002b0 a1 8e b5 bc 03 e0 98 3c b9 f8 5c 3d 41 ff 95 ba
       -0.022162737 0.018661505 0.053948138 -0.001144387
0002c0 d7 a6 c4 3b 28 ce ba 2f 2d 14 d5 3a e6 b1 bc 39
       0.006001334 3.3979686e-10 0.0016256623 0.000359907
0002d0 40 67 01 3c 28 f4 f0 3a da a4 54 bb 67 5c 13 bb
       0.007898152 0.0018383311 -0.0032446892 -0.0022485496
0002e0 8a 8b 39 bc d3 1d 23 bd f0 f3 3a 3d 58 20 2c bd
       -0.011324773 -0.039823364 0.045642793 -0.042023033
0002f0 de c5 cd af 94 9c 83 bd 2d 02 12 bd 84 7b 1b be
       -3.7429876e-10 -0.06426349 -0.035646606 -0.15183836
000300 e4 4e eb 3c 30 ae dd 3d 77 0f b0 3d 7a 55 df bb
       0.028724141 0.10824239 0.085967 -0.0068156095
000310 e2 73 c8 3d 5a 8a 90 3d b9 1a 92 3d 23 63 3a 3c
       0.09787728 0.070576385 0.07134003 0.011376175
000320 2c ce 4e 3e 60 fb 0d bc 8e 5f 02 3d d5 5b 82 3d
       0.20195836 -0.0086658895 0.03182941 0.06365172
000330 50 14 89 3e 1e fb ae 3c 75 ea 75 3c 36 0c 0e 3d
       0.2677331 0.021359976 0.015009512 0.034679614
000340 35 4e 2c 3d 98 91 0a 3e d2 2c 85 ba fe 42 a8 3d
       0.04206677 0.13532102 -0.0010160452 0.08215903
000350 b1 bf d2 3c d3 85 3a 3e 61 6c 63 bc 83 cc fc 3c
       0.025726171 0.18215112 -0.01388082 0.030859238
000360 0d 58 34 3d 00 26 de 3d a4 7d ec 3c de 6c f7 3b
       0.044029284 0.10847092 0.028868504 0.00755082
000370 17 96 bb 3c a3 d5 c8 3d e5 ae 02 3e d5 65 9c 3d
       0.022898717 0.09806373 0.1276203 0.076366104
000380 36 b6 75 3d 2e 37 2f 3d 36 0d b5 3d 6f 60 e2 3d
       0.059988223 0.042777233 0.088404104 0.110535495
000390 1b cd 0f 3e 6b d9 9f 3d 03 3a f6 3d 26 2e 56 3d
       0.14043085 0.07805141 0.120227836 0.052290104
0003a0 67 bc d4 3d c6 ba ed b9 e9 a4 40 3e ee 3d 4d 3d
       0.103874974 -0.0004534332 0.18812908 0.05010789
0003b0 8e a5 6f ba db 41 04 3d 6f f0 07 3e ba 12 4c 3c
       -0.0009141796 0.032289367 0.13275312 0.012455637
0003c0 14 80 9c bc a3 28 b8 3a c4 55 c1 ba 10 6d fe 37
       -0.019104041 0.0014050197 -0.0014750292 3.0329946e-05
0003d0 ab 34 39 3d 5d d1 ab bb 40 eb 19 3d f5 7a ff bb
       0.045216244 -0.005243464 0.037577868 -0.00779664
0003e0 93 2d 6f bb eb c9 f9 3d 62 a4 83 3d 92 95 8c 3d
       -0.003649567 0.12196716 0.06427838 0.06864466
0003f0 ac 83 85 bb 37 48 b5 3d c7 85 b2 3c 40 b9 3f 3e
       -0.0040745344 0.088516645 0.021792306 0.18723011

cbam1.ChannelGate.mlp.1.bias f4 [4]
000000 0f d9 b7 a9 f4 92 a6 b1 92 c1 a3 b0 37 1e b4 bb
       -8.164486e-14 -4.8479425e-09 -1.1914827e-09 -0.005496766

cbam1.ChannelGate.mlp.3.weight f4 [64, 4]
000000 08 d4 d2 9e a9 01 00 2d 36 2c 92 ae f9 bd a0 3d
       -2.2322309e-20 7.276326e-12 -6.647165e-11 0.078487344
000010 13 c9 36 3d 1e 2c 86 ac 6b 2e 7c bd 6b 15 9d bd
       0.044625353 -3.813407e-12 -0.061567705 -0.07670101
000020 05 da 1f 21 0a ef 92 ab 1b 5a 39 3d e3 31 91 bd
       5.415984e-19 -1.0440271e-12 0.045251947 -0.07089593
000030 e3 78 df 9e 98 b9 04 28 39 1b 68 be e0 30 7d 3e
       -2.3661041e-20 7.367716e-15 -0.22666635 0.24725676
000040 da 2c 2d 9e a2 6f 10 30 c0 28 b2 b0 23 2e 91 3e
       -9.167819e-21 5.2545535e-10 -1.2962786e-09 0.28355512
000050 62 84 9e 1e 20 c8 47 2c 79 52 c0 2d 5b e3 8e bd
       1.6783653e-20 2.8390693e-12 2.1864498e-11 -0.06976958
000060 78 b6 8e a0 5d ee 34 be 6e fc 74 be 70 25 fc 3d
       -2.4176483e-19 -0.17669053 -0.2392442 0.12311828
000070 df 43 2a 9e 41 c3 ce 2c 38 23 23 2d f5 83 c0 3d
       -9.0137605e-21 5.8765497e-12 9.273297e-12 0.09400169
000080 5e 0d e6 1d 8f 33 ae 2e 2e f7 09 2e c2 c1 ab bd
       6.0894314e-21 7.9217626e-11 3.1369733e-11 -0.08386566
000090 08 fb 81 1e 2f 64 0f 31 93 c0 fa 2f de fc 5c 3e
       1.376223e-20 2.0866187e-09 4.5611567e-10 0.21580836
0000a0 75 75 8d b7 5c 07 04 af f2 18 8f b9 2d 70 52 3e
       -1.6863205e-05 -1.2007945e-10 -0.0002729367 0.20550604
0000b0 f7 2a ef 9e 58 d1 82 3d 63 2e 24 2f 27 99 92 3d
       -2.5322879e-20 0.063875854 1.4932193e-10 0.07158118
0000c0 b5 9a bd bb 9a f8 5b 3e 63 9b 1c 3c 83 24 c6 3d
       -0.005786265 0.21481553 0.009558531 0.09674933
0000d0 7b 78 08 20 75 cd f3 ad 80 ef aa 2d 2c e7 77 bd
       1.1559512e-19 -2.7717143e-11 1.9433122e-11 -0.060523197
0000e0 00 8b cd 1e 38 4d 7b ae 6f cc 61 bb e3 b5 00 3e
       2.1762708e-20 -5.7139377e-11 -0.0034454127 0.12569384
0000f0 ee 71 91 1f ba 40 92 2b 86 59 29 ac 6f 34 0d 3e
       6.159837e-20 1.0391889e-12 -2.406604e-12 0.13789533
000100 63 8e 45 1e 9f 9a 0d 2f 82 23 88 ae 65 a5 55 3d
       1.0458538e-20 1.2878808e-10 -6.1908714e-11 0.052159686
000110 74 1e cb a2 51 90 d4 2e d4 8d 9a 2e 0f 46 91 3d
       -5.5055504e-18 9.6662796e-11 7.028303e-11 0.07093441
000120 79 53 08 1f e2 d5 b6 3d 6a 68 2d 2e af 63 91 bd
       2.8868167e-20 0.08927514 3.9428384e-11 -0.07099091
000130 87 1a 83 1f be b0 86 ac cd 1f 25 2c 64 9e 40 3d
       5.5524544e-20 -3.8281314e-12 2.3465563e-12 0.047026053
000140 69 77 8e 21 30 d3 9d ae 6b ad 78 b1 58 37 7b be
       9.653902e-19 -7.177048e-11 -3.6187326e-09 -0.2453283
000150 6c f8 e0 1c 5c a3 bd 30 ec 1e 5a b3 91 f8 9f 3d
       1.4887292e-21 1.3797989e-09 -5.0785204e-08 0.07811082
000160 70 2b bd 9c 32 d8 de ae 6f f8 a6 2f e6 e7 eb 3d
       -1.2518199e-21 -1.0133795e-10 3.0371747e-10 0.115188405
000170 d6 95 09 1e a5 af 72 bd f0 1f 42 ad 26 b2 16 be
       7.283705e-21 -0.05924954 -1.1034715e-11 -0.14716396
000180 12 dc 94 9d 7c 5c 94 bd 31 02 cd 2c ca b5 08 3e
       -3.940282e-21 -0.072442025 5.8266937e-12 0.13350597
000190 80 94 04 9b b2 21 42 30 80 ba 40 ad ac 1d af bd
       -1.0966767e-22 7.0624673e-10 -1.0955348e-11 -0.08550581
0001a0 18 75 dc 9d 89 d5 f0 3b a6 37 0a 30 8f c4 18 3e
       -5.8354587e-21 0.007349674 5.028319e-10 0.14918731
0001b0 5f 93 8e 9d 2b 30 83 b8 65 14 5b ae 7e 0e f6 bc
       -3.7739465e-21 -6.255539e-05 -4.981295e-11 -0.030036207
0001c0 88 c2 d0 9e 08 06 14 ac 7e 83 2b ab 87 d0 2f be
       -2.2103313e-20 -2.1035413e-12 -6.0933886e-13 -0.1716939
0001d0 f8 b9 7e 9f 44 29 46 3c cd 5d b3 2d 92 e2 11 3e
       -5.3940422e-20 0.012094799 2.03916e-11 0.14246586
0001e0 03 e2 2d 9f ea 63 01 3a e8 9d 81 af fe f5 1d 3e
       -3.6821127e-20 0.0004935848 -2.3577162e-10 0.1542587
0001f0 91 43 0e 9f 18 60 be b0 49 7a d4 32 c8 5a 83 3e
       -3.012556e-20 -1.3851631e-09 2.4735657e-08 0.25655198
000200 04 e7 1c 2b b3 31 cd 2c 8f 2e 1b be 1a e6 35 3e
       5.574293e-13 5.831968e-12 -0.1515448 0.17763558
000210 46 68 c9 9f 93 d5 3f bd 85 d0 81 2f 98 5a 7a bd
       -8.529932e-20 -0.04683454 2.3613125e-10 -0.061121553
000220 90 8d 01 9f e7 8d 85 3a 5a 93 89 31 6c 49 df 3d
       -2.743391e-20 0.0010189385 4.0039767e-09 0.10902676
000230 e7 05 a8 9f d8 d2 5c 2f 12 36 24 31 ea df 96 3d
       -7.116053e-20 2.008379e-10 2.3895876e-09 0.07366927
000240 8a f1 4c 1f 8f 04 90 bd 73 57 ce ab 31 a5 94 3e
       4.3398477e-20 -0.070321195 -1.4661452e-12 0.2903228
000250 da cf 11 1f 4b 38 c2 29 35 07 9b 2b f5 1d de bc
       3.0876875e-20 8.625096e-14 1.1015413e-12 -0.027113894
000260 64 46 f0 1e 10 52 3b ad e7 04 4f be 2b 7b ad 3d
       2.5440101e-20 -1.0647941e-11 -0.20216714 0.08470758
000270 c5 cf 9d a1 65 b6 98 ac 76 27 94 be 90 68 0e 3e
       -1.069373e-18 -4.3403497e-12 -0.28936356 0.13907075
000280 44 ae 8f 1f f3 97 93 2b 06 87 4d ab ef 33 0a be
       6.0851154e-20 1.0487153e-12 -7.3018013e-13 -0.13496374
000290 52 0e 81 20 14 d5 0c 29 0a b4 4a 2b d5 5e 69 3d
       2.1862926e-19 3.127106e-14 7.201467e-13 0.056975204
0002a0 38 3d 0b 21 40 00 de a9 98 02 c8 33 9e 92 0b 3e
       4.7176054e-19 -9.858824e-14 9.3136975e-08 0.13630149
0002b0 1e be f8 9e be 40 8b 31 36 8b 58 32 1f 1b 84 3e
       -2.6336652e-20 4.0527928e-09 1.2604508e-08 0.25801942
0002c0 06 c5 f6 1f f0 db 0c aa be 08 b7 2c 77 b4 03 bd
       1.04511e-19 -1.2510804e-13 5.2021434e-12 -0.032154527
0002d0 36 bc 84 9e e5 96 25 3e ca 9c a0 b1 ec a1 65 3d
       -1.4053886e-20 0.16170843 -4.6744377e-09 0.056062624
0002e0 be 2f f0 1f 05 f4 d2 b8 e3 e9 76 ac 04 cd 2f bd
       1.01722936e-19 -0.000100590325 -3.5088536e-12 -0.042920128
0002f0 8a 3b 4d 2f 2c a2 3a ae e5 cc d5 3a 8d fb 20 bd
       1.8665794e-10 -4.243554e-11 0.0016311674 -0.039302398
000300 ce 75 ce 9f 17 8e 64 2e 0e f5 8b bb a9 42 56 3e
       -8.7439285e-20 5.19674e-11 -0.004271156 0.20923866
000310 31 5d 32 9e ac 3d 82 2c 07 52 ea ac 28 56 28 be
       -9.442513e-21 3.701669e-12 -6.659787e-12 -0.16439116
000320 00 30 08 1e 55 18 49 2e da bf 8a 2d 7b 27 07 3e
       7.209706e-21 4.572372e-11 1.5773983e-11 0.13198654
000330 e1 89 81 23 ce 90 51 ac a6 81 e7 b0 a2 6b 1c 3e
       1.4044602e-17 -2.978107e-12 -1.684431e-09 0.15275434
000340 ee 36 fd 9e 86 42 a8 2d bf 3d b5 2d 48 e7 c0 bd
       -2.6810135e-20 1.9128931e-11 2.0604738e-11 -0.094191134
000350 72 65 0e 1d 2c 2a 06 ad 7c f4 51 2f c8 92 05 3e
       1.884599e-21 -7.626382e-12 1.9095298e-10 0.13044274
000360 20 74 fd 1f eb 1c 3e ae b9 39 8b bd a2 30 dd 3d
       1.0734178e-19 -4.3226683e-11 -0.06798119 0.108002916
000370 3e 36 77 1d 30 76 8a ae 6b 07 28 30 48 d9 3b 3e
       3.271822e-21 -6.296508e-11 6.1128586e-10 0.18344605
000380 18 45 f0 9c 04 57 7f 2d 11 51 10 2e 61 68 0b 3e
       -1.5899728e-21 1.4514393e-11 3.281381e-11 0.13614036
000390 76 be 9e 1d 79 e9 b2 ac 50 9b c5 ad 23 7b c3 bd
       4.2019184e-21 -5.084985e-12 -2.246528e-11 -0.09544971
0003a0 90 8a 34 9c b2 3c e9 2e 26 b7 17 b0 6d a2 a5 3d
       -5.973609e-22 1.0606395e-10 -5.519375e-10 0.08087621
0003b0 bc 43 94 2f 5c 1b 9a 2e d8 38 31 39 8e ff 20 bd
       2.696917e-10 7.007969e-11 0.00016901211 -0.039306216
0003c0 68 0a ed 9f 18 a2 81 36 3b c9 ef 2d 8b b1 22 3e
       -1.0039062e-19 3.86337e-06 2.7260518e-11 0.1588804
0003d0 18 c2 13 20 3f 94 d1 b4 7e b2 ac 2d db b7 51 bd
       1.2515605e-19 -3.9037147e-07 1.9633403e-11 -0.05120073
0003e0 b6 a4 1a 1f a3 04 9e 3a 13 79 d6 31 ce 70 9d 3d
       3.2747014e-20 0.0012055825 6.2419843e-09 0.076875314
0003f0 5b 8f 61 a1 e0 06 d1 b0 8d 5c cd 3d cf b9 ca bd
       -7.6422695e-19 -1.5208705e-09 0.10027418 -0.098987214

cbam1.ChannelGate.mlp.3.bias f4 [64]
000000 b2 7f 4c ba 21 8f 85 39 84 2b 3d 36 fc f5 bf b0
       -0.00078010105 0.00025474376 2.8188524e-06 -1.3966992e-09
000010 a2 31 a5 bb 6f a1 27 37 24 e8 71 36 10 62 98 37
       -0.005041317 9.991562e-06 3.6046922e-06 1.8165476e-05
000020 bb 22 10 be a8 eb 67 ba 57 a9 16 3c 4f 10 03 3a
       -0.14075749 -0.0008847066 0.009195647 0.00049996836
000030 9d ce a2 3b 5e 16 0e b9 fe b5 95 b8 fd 27 01 b8
       0.004968478 -0.00013550508 -7.138772e-05 -3.079324e-05
000040 e7 e8 1b bd da eb 4f b9 b6 cc 7a ba 4c 49 e4 bc
       -0.03806391 -0.0001982892 -0.00095672475 -0.027866982
000050 1e b8 96 bd d8 16 ae 3a 3c 65 90 ba d2 59 d6 b6
       -0.07359336 0.0013281954 -0.0011016498 -6.3881535e-06
000060 17 47 b9 37 f1 24 72 b7 ed 40 00 b6 2d 27 10 b9
       2.2086822e-05 -1.4432925e-05 -1.9111278e-06 -0.00013747504
000070 c4 54 81 b5 a6 4e fe 38 ab 63 c9 bb b8 34 57 3e
       -9.635919e-07 0.00012126313 -0.0061459146 0.21016204
000080 de 1f fc 38 08 a1 6a ba 62 90 14 3c 6c cc 49 39
       0.00012022232 -0.0008950387 0.009067627 0.00019245007
000090 c0 49 d8 2f 4d f6 38 bb 3e db 2c 3a f5 84 2b b8
       3.9342574e-10 -0.0028222979 0.0006593949 -4.0893403e-05
0000a0 e2 eb 88 b2 70 f1 14 b8 bf ec de ba 46 6e 4b 3e
       -1.593975e-08 -3.5510806e-05 -0.0017007812 0.19866285
0000b0 45 8c 06 38 44 bc 44 3b 80 01 60 bb 2a 11 f4 39
       3.2078726e-05 0.0030019442 -0.0034180582 0.00046552095
0000c0 ea 15 6a 3d 8a 30 82 35 c6 de 5e b9 be 0e cc 36
       0.057149805 9.699882e-07 -0.0002125456 6.08139e-06
0000d0 83 e7 02 36 4e c0 5d b7 c6 70 15 bb 88 7d 09 3e
       1.9506267e-06 -1.3217401e-05 -0.0022802814 0.13426793
0000e0 27 13 14 b9 16 f0 ba b9 3f a1 48 bb 08 34 84 ba
       -0.00014121515 -0.00035655563 -0.0030613688 -0.0010086307
0000f0 af e9 29 3b f0 25 97 ba 86 71 45 ba 6f 91 5e b9
       0.002592664 -0.0011531692 -0.000753187 -0.00021225748

cbam1.SpatialGate.spatial.conv.weight f4 [1, 2, 7, 7]
000000 d8 f1 a8 9b 16 b3 76 9d c7 66 23 1d bd aa 27 3d
       -2.7949556e-22 -3.2650414e-21 2.1626005e-21 0.040934313
000010 64 84 04 9e 73 45 22 1d 72 00 28 9e b0 81 03 9c
       -7.0153996e-21 2.1476426e-21 -8.893938e-21 -4.351188e-22
000020 0a 41 c1 9d 76 4e ad 9c d0 97 e8 be 78 c2 ae 1c
       -5.1153923e-21 -1.1468461e-21 -0.45428324 1.1564623e-21
000030 bc 87 af 9c 81 9c 4f 9e 40 ee 54 1d ab dd 90 1d
       -1.1615615e-21 -1.0990853e-20 2.8181139e-21 3.834568e-21
000040 21 91 b8 1c 36 43 1f 3e 86 66 f6 9c 00 d3 d5 1b
       1.2213614e-21 0.15552983 -1.6305416e-21 3.537425e-22
000050 5e 7b 5e 9d 50 90 ac 1b 60 59 02 9d 10 d7 b4 9b
       -2.9445235e-21 2.8548273e-22 -1.7251563e-21 -2.9917483e-22
000060 a9 4f 8e be 27 35 45 1e c6 4b f9 9c 74 5d d7 1d
       -0.2779515 1.0440085e-20 -1.6497025e-21 5.7006654e-21
000070 ac 5e a8 9d 9a c4 dc 9d 9c 21 1b 9e 3c 18 df b9
       -4.456712e-21 -5.8436796e-21 -8.212582e-21 -0.0004255193
000080 b4 81 c9 9c c8 f1 6a 9c 00 38 44 1a 55 eb b4 1c
       -1.3334592e-21 -7.77366e-22 4.0577086e-23 1.1972233e-21
000090 5e c8 52 9d 2a d2 52 9d 71 36 f2 3c 47 22 50 1d
       -2.7896856e-21 -2.790192e-21 0.029566975 2.7546292e-21
0000a0 f9 e2 c8 9d 28 e6 cb 1c 90 75 b5 1b 64 f4 3c 1e
       -5.3174243e-21 1.3492907e-21 3.001991e-22 1.0003176e-20
0000b0 f4 1a ef 9c a7 26 02 be ac 45 ea 1c d6 b6 a4 9c
       -1.5822661e-21 -0.12710057 1.5502831e-21 -1.0899872e-21
0000c0 a7 1b de 9d ad f6 41 9d 4d 84 98 1d 53 66 66 1d
       -5.8791503e-21 -2.5670866e-21 4.037086e-21 3.0493147e-21
0000d0 15 3e 59 3e b7 23 ad 9c 71 4f d2 1c de 4b 0c 9e
       0.21215089 -1.1457412e-21 1.3917169e-21 -7.427227e-21
0000e0 2a 92 64 9d a2 d7 2f 9e c0 42 21 9b cd 56 13 be
       -3.0251114e-21 -9.309015e-21 -1.3339176e-22 -0.1438858
0000f0 12 82 90 9d 92 cd 89 1c c6 f4 12 1d 7f a6 8e 9d
       -3.8250972e-21 9.119038e-22 1.9449484e-21 -3.775924e-21
000100 8c 19 4f 9e 5c d7 b5 9c bc 14 87 3c cc e5 23 9e
       -1.0963772e-20 -1.2033244e-21 0.01648938 -8.676669e-21
000110 6b dc 8d 9d 5a 1e 33 9d a2 d2 0b 1e 9c cb 7d 1d
       -3.7550296e-21 -2.3706144e-21 7.4021566e-21 3.3589535e-21
000120 c2 23 da 1c da 90 61 be 94 4b 87 1c 1d 68 81 9d
       1.4435273e-21 -0.22027913 8.953087e-22 -3.4253666e-21
000130 20 c7 fb 9c 6e a5 89 1c 93 5f 62 9d 80 c1 53 9c
       -1.6661259e-21 9.108662e-22 -2.9960262e-21 -7.0064137e-22
000140 77 52 a9 3c 1c ab f7 9b 73 b7 e1 1d 5a 66 ae 1c
       0.020669205 -4.09733e-22 5.9746686e-21 1.1540811e-21
000150 72 a8 b0 9c cc bc a3 9d 1e 65 53 9e 72 82 97 3d
       -1.1690245e-21 -4.3340952e-21 -1.11911575e-20 0.07397927
000160 06 b0 f7 1d 9e d7 05 9d 17 d3 3a 1e 4e 8e 95 9d
       6.556236e-21 -1.7713875e-21 9.89041e-21 -3.958711e-21
000170 25 41 0b 1e be c0 33 1e c1 18 a1 be 54 40 65 1e
       7.37207e-21 9.516039e-21 -0.31464198 1.2136462e-20
000180 98 ec c0 1d 7a 29 61 1e
       5.106661e-21 1.1919978e-20

conv2Db.weight f4 [128, 64, 2, 1]
000000 ca 13 ac 3a 32 f0 d2 b6 5d 32 29 36 d1 39 16 ae
       0.0013128456 -6.28645e-06 2.5212278e-06 -3.4157403e-11
000010 d5 f6 33 2e 03 85 ba ba 4c a1 e3 b5 da 84 4b b8
       4.091912e-11 -0.0014230314 -1.6959762e-06 -4.85227e-05
000020 d1 b3 1a ba ce 36 0c b7 a3 2d 12 b1 8e 16 09 2e
       -0.00059014285 -8.3574105e-06 -2.1271738e-09 3.1170226e-11
000030 1b 83 0e b3 0f d9 2d 36 ff df 09 34 7b 7c 2a b4
       -3.318119e-08 2.5905354e-06 1.2840609e-07 -1.587777e-07
000040 5e 52 1a bc 8e 8c 7a bc d1 62 c0 b3 fc 25 3c b7
       -0.009419052 -0.0152923 -8.958671e-08 -1.1214517e-05
000050 1e c3 2c 32 8d 4f 3a 35 34 e5 62 b1 c2 55 68 b2
       1.0056082e-08 6.940616e-07 -3.3017615e-09 -1.3523676e-08
000060 9c ff 5e b7 32 54 b3 b6 65 ef b5 af aa fb 26 2e
       -1.3291745e-05 -5.3444173e-06 -3.3093808e-10 3.7967553e-11
000070 9f a8 8a b5 3f 52 dd b6 51 0b ba 31 a9 e1 c2 bb
       -1.0330876e-06 -6.595888e-06 5.414599e-09 -0.005947311
000080 b6 3b c4 b1 d7 d3 c5 34 45 7e 92 3b ba 47 68 bb
       -5.711139e-09 3.6848243e-07 0.004470619 -0.0035443143
000090 dd 9f 07 ba aa 55 ce b0 37 8e 93 b5 d2 e2 3e 34
       -0.0005173663 -1.501282e-09 -1.0993743e-06 1.7777646e-07
0000a0 db 99 ed 39 22 83 7e 33 cf fb f0 b8 30 ca 5f bb
       0.00045318794 5.9258248e-08 -0.00011490995 -0.0034147613
0000b0 6b 0d 04 b6 97 ff a9 35 57 f9 74 ac 26 87 9e bb
       -1.9677343e-06 1.2665868e-06 -3.4812897e-12 -0.0048378883
0000c0 d6 cd e9 b3 bb 4c 8c b4 63 b0 4a b1 98 49 bd 2d
       -1.0887349e-07 -2.613286e-07 -2.9495133e-09 2.1519495e-11
0000d0 ce 62 3f b2 c5 9b 9a b6 9b 04 a4 ad cf cd 69 31
       -1.1140129e-08 -4.6076916e-06 -1.8646687e-11 3.4022951e-09
0000e0 10 1a 2e 2b 00 91 24 a9 18 4e 4e 34 72 15 9d 35
       6.1853387e-13 -3.6541083e-14 1.9213655e-07 1.1703653e-06
0000f0 06 46 ec 34 01 cc 0e b7 7b 5c a0 b5 fa e3 fa b6
       4.4009374e-07 -8.511358e-06 -1.1947844e-06 -7.4771206e-06
000100 15 18 9d b9 44 d3 11 35 0c 2c 9d ba 30 f5 40 ab
       -0.00029963316 5.432414e-07 -0.0011991276 -6.855237e-13
000110 03 89 c2 b5 45 55 ce b7 2e 0b 9b bc 78 12 02 bc
       -1.4494002e-06 -2.459682e-05 -0.01892623 -0.007938974
000120 3f f1 b7 b9 40 c1 bd b6 d9 1c e3 af 94 1a 99 31
       -0.00035084222 -5.655136e-06 -4.1311557e-10 4.4559076e-09
000130 84 08 f7 b8 ae 7e 33 b6 8c 00 30 b4 43 3e 3b b7
       -0.00011779464 -2.6746816e-06 -1.6391476e-07 -1.1160565e-05
000140 b4 3e 97 2b 06 aa b5 a8 03 f6 14 32 3c 56 a6 34
       1.0746599e-12 -2.0168773e-14 8.67067e-09 3.0982653e-07
000150 22 8c 0d 3b 12 a0 62 b8 96 f2 4f b9 30 4d 07 b7
       0.0021598418 -5.4031676e-05 -0.00019831429 -8.064599e-06
000160 0a 0e eb ad 18 7b 1e ae 68 dd 53 b4 6b f9 dc b7
       -2.6722641e-11 -3.603437e-11 -1.9731453e-07 -2.6342188e-05
000170 21 da a1 32 22 c9 12 2e 9b 73 01 2d e8 db 10 af
       1.884206e-08 3.33752e-11 7.358471e-12 -1.317485e-10
000180 00 e8 78 32 30 bd 58 34 78 9d fb 2a 6d 56 37 2b
       1.4488251e-08 2.0185394e-07 4.4695823e-13 6.51346e-13
000190 69 5a 27 b7 8a 8e e8 b5 c0 66 81 35 b6 cd af b4
       -9.975026e-06 -1.7326831e-06 9.641153e-07 -3.2745965e-07
0001a0 e6 ad a6 ae cc 32 f2 ad f6 1c 06 b5 1b df 63 35
       -7.5796966e-11 -2.7534773e-11 -4.9961034e-07 8.488875e-07
0001b0 ce 1d 5a 34 d3 f1 72 35 11 de a9 b1 82 4d 1b b7
       2.0313675e-07 9.0503926e-07 -4.9437934e-09 -9.256766e-06
0001c0 b3 0d 0f b7 d8 ed 37 3a 76 6a 8e b8 72 e1 d4 ba
       -8.526654e-06 0.00070163375 -6.7909175e-05 -0.0016241504
0001d0 eb 95 c7 b9 02 58 36 35 54 7f bf b0 fb f8 94 30
       -0.00038067935 6.792835e-07 -1.3933268e-09 1.0839182e-09
0001e0 7c 1a c8 35 ae e8 89 36 e7 aa 4e 31 f0 4e a2 2f
       1.4908869e-06 4.1100056e-06 3.0074092e-09 2.9523717e-10
0001f0 ae fa 99 b4 04 e3 cc b6 9a ec 4b bb 63 5d bf 3b
       -2.8680864e-07 -6.106102e-06 -0.0031116367 0.00583999
000200 9c 77 07 3d 49 8b 79 bb 30 6d 47 b8 e6 d3 9b b7
       0.033073053 -0.0038077405 -4.7546986e-05 -1.8576113e-05
000210 2b 5d 80 37 c4 a1 9e b7 ee f0 c3 bb c9 66 ec bc
       1.5302174e-05 -1.8910396e-05 -0.005979649 -0.028857606
000220 04 ea 05 3c ad 5b f7 3d de a4 87 b8 e4 f5 c9 36
       0.008173469 0.12078033 -6.4680105e-05 6.0188922e-06
000230 24 db 67 bd 61 d6 93 bd 61 d4 e8 3d 1a b5 6c 3b
       -0.056605473 -0.07218624 0.11368633 0.0036118687
000240 ba ab 28 bd 7e 57 ab bd 47 38 90 bc c2 66 b1 bd
       -0.041179396 -0.08366297 -0.01760496 -0.086621776
000250 a7 c1 47 3c 3b 58 33 bd ff 52 93 3d 04 30 57 be
       0.012192166 -0.043785315 0.071935646 -0.2101441
000260 68 d8 f9 bd 0d ad 4b bd 60 e7 ad 3b 96 5d 31 bb
       -0.12199479 -0.04972558 0.005307123 -0.0027063838
000270 0c d8 7d 3d d1 a4 80 3c 11 f2 9b 3d c9 99 32 3c
       0.061973616 0.01570359 0.0761453 0.010900923
000280 e5 3d a9 bc 73 55 a8 bd 97 d9 9f bd 4c 36 be bc
       -0.020659396 -0.08219423 -0.07805174 -0.02321925
000290 a2 65 14 b7 30 69 bf 36 a2 6f ff 3c 19 f0 fa 3c
       -8.845151e-06 5.704489e-06 0.03118116 0.030632066
0002a0 fa 42 4c 3b 46 33 c2 3c e2 19 c6 bd 6c 8c ac 3d
       0.003116785 0.02370609 -0.096729055 0.08425221
0002b0 c1 a9 03 bc 4d d9 8b bd c2 1d f9 36 5d ac 82 b7
       -0.008036078 -0.06828556 7.4242425e-06 -1.557747e-05
0002c0 77 6a 26 bd da 7d 9e bc 6c 2d cb b7 be 60 1a 38
       -0.040628877 -0.01934712 -2.4220637e-05 3.680656e-05
0002d0 36 13 5c 3d 6b ca 6f bd 43 f8 00 b7 9d 09 0a b9
       0.05372926 -0.05854265 -7.6871975e-06 -0.00013164287
0002e0 66 5b 7c 3b 4a 4e b0 3c e8 5c fc 3d 21 31 29 be
       0.0038506626 0.021521706 0.12322408 -0.16522647
0002f0 e0 27 ca 3d 77 75 16 3e 92 65 0b 3e 8d 52 61 3e
       0.09870887 0.14693247 0.13612965 0.22004147
000300 7b 6e 1c bd f4 89 aa bc 08 1a 49 b9 5d 84 12 38
       -0.0381913 -0.020817734 -0.00019178551 3.4932385e-05
000310 0e 10 20 3e 04 c5 86 3e 0f 23 17 be 61 7f 82 bd
       0.15631124 0.26322186 -0.14759468 -0.06371952
000320 52 b2 21 bd 3b d2 9c 3d 70 93 db b9 d1 d7 bb bb
       -0.0394767 0.07657286 -0.00041880785 -0.0057325144
000330 3f 59 0a be 5b 68 f0 3b a7 ec b4 bb 6b 79 8c bd
       -0.13510607 0.007336659 -0.005521375 -0.06859096
000340 2a d9 a4 b4 ae 21 d5 34 7d ba 83 3b c0 7b b3 3c
       -3.0705388e-07 3.9698847e-07 0.004020034 0.021909595
000350 91 94 ae bd bf ba 43 bc 63 bc e4 3d 39 4f 42 3e
       -0.085244305 -0.011946379 0.111687444 0.18975534
000360 89 c7 01 3a 1a 8e 94 38 f9 9e 1f 3d 43 de ab be
       0.00049506925 7.0836584e-05 0.038969968 -0.3356801
000370 36 b2 15 ba 26 80 e1 b8 2e 40 12 b9 1e 2d b4 ba
       -0.00057104544 -0.000107527056 -0.00013947554 -0.0013746356
000380 b2 ff 86 bb 09 6b ca bd cf d9 9b 3c f3 70 c3 3b
       -0.0041198367 -0.098836966 0.019024758 0.0059643923
000390 a0 5b e9 3c bd 02 22 bc c1 8c 4b 3e 6e 67 af be
       0.028486073 -0.009888348 0.19877912 -0.34258598
0003a0 f7 89 0b 37 07 06 41 37 2c 32 33 3c 29 45 2f bd
       8.317168e-06 1.15051e-05 0.010937255 -0.042790566
0003b0 90 24 9b 3a c0 ce 20 bc a9 08 1f bc cb 04 c9 bd
       0.0011836458 -0.009814918 -0.009706655 -0.09815367
0003c0 3b 39 4d 3d 7c 36 79 3d 2f cb ba b6 71 ac e4 bc
       0.050103407 0.060842976 -5.5668856e-06 -0.027914258
0003d0 ae 43 26 3d 14 a0 ab 3c f5 8d 39 3a 28 4c 0c 3a
       0.040591888 0.020950355 0.0007078343 0.00053519243
0003e0 cc 89 53 3c 17 b9 15 bf 12 ec 8c ba b3 3c b4 3a
       0.012911271 -0.5848555 -0.0010751507 0.0013751
0003f0 cc 72 25 bd 9f 56 95 bd c6 a9 80 b8 f2 75 a9 37
       -0.040392682 -0.07291912 -6.1351384e-05 2.0201293e-05

conv2Db.bias f4 [128]
000000 da 8e 31 b6 52 04 1b 3c 79 60 09 bc 6a 07 ce bb
       -2.6458206e-06 0.009461479 -0.008384817 -0.006287505
000010 0c 0f 07 bd 34 9a b3 3a 79 2d d8 3d 63 c5 bf 3a
       -0.032973334 0.0013702572 0.10555548 0.0014630969
000020 b2 71 1c 39 00 6d 9c 3e b5 97 d7 ba 67 92 1a 3e
       0.00014919674 0.3055191 -0.001644841 0.1509491
000030 c4 06 04 35 e4 06 21 3e af 9f ec 3e 91 3e be 3a
       4.918368e-07 0.15725285 0.4621558 0.0014514496
000040 c7 75 b0 3e 3e fc 41 ba fd 33 f1 38 a3 84 3f 3c
       0.34464857 -0.0007399953 0.00011501459 0.011689338
000050 62 d4 17 3e 38 80 b5 3d b8 b8 1c bc 4f 07 c6 36
       0.14827111 0.088623464 -0.009565525 5.9017107e-06
000060 73 c1 be 3e a8 76 d0 3d 07 2d 02 ba 4c bc a6 38
       0.37256965 0.10178882 -0.0004965816 7.95057e-05
000070 16 08 fe 3e 76 d2 59 38 00 5a fa 38 3f cb e0 bb
       0.49615544 5.193284e-05 0.00011937693 -0.0068601663
000080 c1 8f 06 3b 3e b0 49 b9 e3 9d 0b bb 7e b2 43 3c
       0.0020532461 -0.00019234509 -0.0021303825 0.011944411
000090 5b 01 98 3d d3 2f 60 38 6f 58 6b bb 15 5c 7c 3e
       0.074221335 5.34503e-05 -0.0035910865 0.24644502
0000a0 80 e7 80 3e 23 25 ca 3d 46 1d 96 b8 6a 31 f8 b9
       0.2517662 0.098703645 -7.15801e-05 -0.00047339062
0000b0 26 41 da 3c 33 46 b4 3d c9 06 9c bd 1c 0c 24 3e
       0.026642393 0.08802452 -0.07618482 0.16020244
0000c0 a7 4f 22 be 25 00 3a 3a b8 99 c6 b8 72 a7 f8 bb
       -0.15850697 0.00070953585 -9.470008e-05 -0.0075883204
0000d0 c3 5e ae 38 b6 7c 56 38 00 cc 08 34 69 78 ae 3c
       8.314617e-05 5.1137722e-05 1.2740202e-07 0.02129765
0000e0 10 97 8a 3b 2d 59 37 3d eb 30 c3 3c ec 11 79 3a
       0.004229434 0.04476278 0.023827037 0.0009501267
0000f0 94 3a 03 b8 df c1 40 bd c0 e3 04 39 81 d3 33 3d
       -3.128739e-05 -0.04705989 0.00012673344 0.043902878
000100 50 6c a7 37 05 10 09 bb 5e d8 4c 3e 25 f0 97 3d
       1.9958388e-05 -0.002091409 0.20004413 0.07418851
000110 9a aa 6d 3d 64 47 73 34 b0 2e f7 35 2f 37 91 39
       0.058024026 2.265711e-07 1.8416522e-06 0.0002769767
000120 ee 7a a0 bb ea e6 00 36 1a 7a 7d 39 2a b1 3e b9
       -0.004897467 1.9207896e-06 0.00024173447 -0.00018185811
000130 cf 2f 5d bc bb c9 27 3a cf 6b d3 b8 fa 9b cb 37
       -0.013500168 0.00064006046 -0.00010081345 2.4272118e-05
000140 7b 29 99 39 cd 67 58 bb 4a 5a 41 39 fa 07 4c 39
       0.0002921334 -0.0033020854 0.0001843955 0.00019457928
000150 83 56 af 38 93 ee 5d b8 b2 91 56 ba 4d 17 95 b9
       8.360764e-05 -5.2912696e-05 -0.00081851624 -0.00028436855
000160 a9 77 c7 3b ff 14 cb 3b dd 76 46 b7 5b d3 64 37
       0.0060872626 0.0061975713 -1.1829395e-05 1.3639069e-05
000170 22 ce 42 34 37 50 64 bb 07 bc d1 3e 39 93 26 3d
       1.8142649e-07 -0.003483785 0.40963766 0.040667746
000180 71 a9 c5 3d ba f2 bc bb 28 10 17 3e 97 6f 9b b9
       0.09651459 -0.00576624 0.14752257 -0.00029647045
000190 b8 da b5 b9 c7 13 a6 39 dc e5 f4 34 e5 2a 08 3e
       -0.00034685968 0.00031676723 4.5615786e-07 0.13297613
0001a0 69 1b 56 39 e7 5e 06 3e d4 ef 29 3e 8c a3 bd 3d
       0.00020418841 0.1312214 0.16595393 0.0925971
0001b0 0e fd 6e bc c2 21 ee 3d 1f 74 a2 3e fd 5b 8d 3d
       -0.0145867 0.116275325 0.31729218 0.06902311
0001c0 dd aa dc 35 2c 7c f3 b8 bf 2c ac 39 c2 6d b7 3c
       1.6441005e-06 -0.00011610272 0.00032839735 0.022391204
0001d0 0c 24 02 3b 49 dc 2e 3b d8 df ef 3b 09 d9 56 36
       0.0019857911 0.0026681593 0.0073203854 3.2014816e-06
0001e0 97 b2 b8 bb bb e9 a5 3a 7d ad 0f bb 70 fe 83 ba
       -0.005636524 0.0012658158 -0.0021923475 -0.0010070335
0001f0 8f 5c c4 b8 19 99 98 ba 85 d4 81 3d d8 7d 5a 3e
       -9.363249e-05 -0.0011642306 0.06339363 0.21337068

cbam2.ChannelGate.mlp.1.weight f4 [8, 128]
000000 6d 4d 19 ad 5a c8 32 31 f9 6e 4f ae 10 cc a5 af
       -8.714235e-12 2.6016296e-09 -4.7164914e-11 -3.015832e-10
000010 ed 4f b0 2d 59 b8 cd 2c d5 8a 59 ba 69 1d f3 ac
       2.0044378e-11 5.846917e-12 -0.00082985807 -6.9097406e-12
000020 23 42 d1 ad ae 9b 03 32 f5 f6 93 30 97 e5 f0 ae
       -2.378992e-11 7.660601e-09 1.0765847e-09 -1.095472e-10
000030 90 6e 19 ac 64 c7 a0 b0 0a fa 84 af 20 2e 99 2f
       -2.1803982e-12 -1.1698202e-09 -2.4188324e-10 2.7863312e-10
000040 4a 29 d2 b1 86 b5 59 ae 2b be e8 ab c6 bb b3 2e
       -6.1164984e-09 -4.9501313e-11 -1.6537374e-12 8.173333e-11
000050 5f bb 15 b7 f3 2d fe b4 a0 f1 b3 b6 f0 56 9b 2f
       -8.924718e-06 -4.734462e-07 -5.3627446e-06 2.8256109e-10
000060 48 9a 81 b0 13 ec 04 b7 2c 65 27 af 54 61 9d 2c
       -9.429835e-10 -7.922778e-06 -1.5224505e-10 4.473014e-12
000070 09 1a 91 b4 39 85 c1 2d cc bc 5a 2d 1e 94 c9 b2
       -2.7027298e-07 2.2000722e-11 1.2433787e-11 -2.3466836e-08
000080 7a 48 9d ad 28 ac 58 2f 68 21 01 2e 60 7d b1 31
       -1.788102e-11 1.9706248e-10 2.9360875e-11 5.1656315e-09
000090 ed 2e 49 b1 75 19 cc 29 6b d5 df b3 72 48 6a b4
       -2.9276024e-09 9.063836e-14 -1.0423067e-07 -2.1819304e-07
0000a0 f3 20 d2 b1 3f a6 cb 31 d0 9a 14 2f 19 2a 6a 2d
       -6.1155503e-09 5.9269776e-09 1.3515522e-10 1.3310708e-11
0000b0 ca 90 ae ad fa 26 d8 b4 3b 61 a2 31 a6 5f d2 31
       -1.9845809e-11 -4.0261494e-07 4.7258744e-09 6.1226784e-09
0000c0 3e 5a 55 af 2c 3d 4a 2f 92 b6 d0 ac fc 52 6d b8
       -1.9404298e-10 1.8393526e-10 -5.931985e-12 -5.658249e-05
0000d0 bf fd bc 2d 67 9c 54 2f 00 b9 92 2b bc 37 a2 b0
       2.1485811e-11 1.9336853e-10 1.0425272e-12 -1.1802892e-09
0000e0 81 34 03 30 72 1b 24 31 aa fd 9a b1 5c 99 39 b3
       4.7732135e-10 2.3880742e-09 -4.510828e-09 -4.321315e-08
0000f0 be cc 87 2b ec b1 52 ba 60 ca 2e 30 34 5a b3 b0
       9.649154e-13 -0.00080373767 6.3588423e-10 -1.3049601e-09
000100 18 ea fb 2d 5d 63 a0 af 9d e3 cd 31 8b 73 b9 31
       2.8639355e-11 -2.9174432e-10 5.992162e-09 5.3973443e-09
000110 19 ae 9b b3 d6 cc 25 ad 7e 2b 6a 2f 9a b7 e6 ad
       -7.249418e-08 -9.424647e-12 2.1297628e-10 -2.6229508e-11
000120 46 9d 22 b3 f3 0b 84 2f 60 33 29 2d 77 e8 20 2d
       -3.7861604e-08 2.401915e-10 9.617945e-12 9.146565e-12
000130 ee 61 f5 ae 91 75 06 b0 76 cf 7c ac 9b aa 8a ae
       -1.1158706e-10 -4.891599e-10 -3.5926518e-12 -6.305819e-11
000140 f4 04 92 ac 2e 36 71 2d ac 04 b5 ae 8e 9d d7 2d
       -4.1501195e-12 1.3711294e-11 -8.231757e-11 2.4512638e-11
000150 88 83 5d ac 8b f4 ef ab 60 ee 91 b0 12 7d 33 29
       -3.1479003e-12 -1.7049846e-12 -1.0617889e-09 3.9854465e-14
000160 8a 01 6d 31 4c f5 29 2e 19 22 06 ae 40 2d cc 2d
       3.4488914e-09 3.864402e-11 -3.0498357e-11 2.321221e-11
000170 96 ca 72 af c0 6f 89 ad ac d2 da 30 7f eb 02 31
       -2.2081745e-10 -1.5624724e-11 1.5921464e-09 1.9051354e-09
000180 56 0c 39 b5 c4 1c 1d 2f 55 d3 f6 31 c0 b3 58 2c
       -6.893582e-07 1.4289286e-10 7.183568e-09 3.0795227e-12
000190 3f ad a6 2f 0c f5 76 2f c8 5d 2c 2d bc a1 9b 30
       3.0318323e-10 2.2460628e-10 9.797892e-12 1.1323702e-09
0001a0 1d fb bf 2e a8 ee 18 b7 c0 2c b0 af 5a f3 30 b5
       8.730281e-11 -9.1154725e-06 -3.204601e-10 -6.591923e-07
0001b0 67 8c 5f b5 f4 04 60 b6 67 50 f5 ad 57 39 23 30
       -8.3278286e-07 -3.3381484e-06 -2.7888981e-11 5.938054e-10
0001c0 15 3b b6 b1 f1 11 1c 2c 6a ef 20 ad ea 20 d7 30
       -5.303614e-09 2.2178893e-12 -9.148108e-12 1.5652664e-09
0001d0 f9 29 77 b2 78 bc 54 2f 5e 65 24 b1 07 0d a6 a7
       -1.4386836e-08 1.9348245e-10 -2.3922762e-09 -4.608838e-15
0001e0 93 1c 59 31 00 9c 13 a9 e6 09 78 2b 7e 02 2d 2e
       3.1593899e-09 -3.2775865e-14 8.8121036e-13 3.933786e-11
0001f0 d0 79 a5 ac a8 1f a6 ad da 9f 0b b7 fa db ac 31
       -4.703106e-12 -1.8886073e-11 -8.322264e-06 5.0308673e-09
000200 2d e9 3f 39 7c 19 9a bb d1 47 1c bb 7c d7 87 bb
       0.00018302044 -0.004702745 -0.0023846517 -0.004145561
000210 34 8a f1 23 5e 5b 37 ba 02 23 10 9f 34 5e 0f b9
       2.6187804e-17 -0.0006994511 -3.0522144e-20 -0.00013672636
000220 c8 a9 a2 bb eb 48 83 b6 70 d2 10 bb 1b a2 b7 ba
       -0.004964087 -3.912593e-06 -0.0022098087 -0.0014010103
000230 90 e1 84 bc de c4 31 bc 00 14 fd bc 16 31 08 1f
       -0.016220838 -0.010850159 -0.030893326 2.8839723e-20
000240 79 4d bc ba 12 47 6f ad 21 9e 0a bd b0 5c 61 bb
       -0.001436635 -1.3601358e-11 -0.03384221 -0.0034387521
000250 7e 3b 5f bb 20 55 d3 9c 65 22 4a b9 40 f8 7d b9
       -0.003406256 -1.3984813e-21 -0.00019277034 -0.0002422044
000260 21 c5 37 39 12 cb 4f b8 2f 44 23 1e 2c b9 9f bc
       0.00017525676 -4.954177e-05 8.643248e-21 -0.019497477
000270 61 31 3a b6 f4 0c d5 bb 78 ba e0 b9 07 e5 37 bd
       -2.7744902e-06 -0.0065017883 -0.0004286354 -0.044896152
000280 24 de 20 ba ef 15 91 9f 28 cf 80 b2 4b ab 0d 1e
       -0.0006136617 -6.1446175e-20 -1.4995365e-08 7.4999e-21
000290 d1 66 94 1d d3 bd 63 9e fb ef 42 bb 36 af f7 b7
       3.9281583e-21 -1.2056535e-20 -0.002974509 -2.9526283e-05
0002a0 2c ef 16 1e cd d2 1e 9e b9 19 2c bc 58 90 a4 9e
       7.9903935e-21 -8.408043e-21 -0.01050418 -1.7423875e-20
0002b0 84 17 16 b5 6e c2 9f b8 7a 7b 87 9f bd 07 30 1f
       -5.5913574e-07 -7.617926e-05 -5.7379e-20 3.727585e-20
0002c0 11 e4 05 39 8e 08 57 bb df c7 ad b9 74 42 9f 21
       0.0001276883 -0.0032811495 -0.00033146047 1.0791849e-18
0002d0 d2 cb 4e ba 5f 4c d1 1d 84 cd 60 1c 5b 9d 11 33
       -0.0007888648 5.5400805e-21 7.4381006e-22 3.3903557e-08
0002e0 2f 5b 4c b9 10 97 f7 1d 6a d0 96 3b dd f7 b9 ba
       -0.00019488925 6.553655e-21 0.0046024816 -0.0014188249
0002f0 b0 e8 fc 9c bd 2d 50 bc b6 02 59 bd e5 51 ea b8
       -1.6736109e-21 -0.012706217 -0.0529811 -0.000111732435
000300 f8 ca 5a bc 86 6f b3 bc 8e 5c 0e bc 00 cd 91 19
       -0.013354056 -0.021903764 -0.008689059 1.5075447e-23
000310 ca bf b7 bc af e2 8e a0 7f 57 c7 39 77 6d 05 1e
       -0.02243032 -2.4205742e-19 0.00038021427 7.063598e-21
000320 06 68 a0 b8 f5 14 11 bb 0c a7 a4 3b 34 8a 8a 1e
       -7.6487704e-05 -0.0022137736 0.0050247964 1.4668478e-20
000330 ad ba ee 3a a2 cb dc bc b6 fb 44 9e ad 76 f3 3a
       0.0018213593 -0.026952568 -1.0428206e-20 0.0018574797
000340 ac 21 e6 b7 c0 2e b7 ba cf a7 06 1e be 0f 0f ba
       -2.7433816e-05 -0.0013975725 7.128603e-21 -0.0005457363
000350 b4 d1 75 b6 c5 6d d5 37 e7 18 5e bc aa 01 af 9e
       -3.6629908e-06 2.5442694e-05 -0.013555742 -1.8529534e-20
000360 3c 1a af 9d 10 0c 89 b9 7a 46 28 ba a2 06 6a ad
       -4.634924e-21 -0.00026139664 -0.0006419193 -1.3302833e-11
000370 d4 70 ef b4 78 ad 69 bb 0c 31 14 9e 78 9b 0d 9c
       -4.4599312e-07 -0.0035656374 -7.8451974e-21 -4.6853925e-22
000380 bb 6c d7 b9 88 80 8d 1b 60 d6 35 ae 42 49 00 39
       -0.00041089006 2.3409555e-22 -4.134504e-11 0.00012234322
000390 26 ec c3 35 ad 6a 07 9f 8d e9 2e bc 63 56 da 1e
       1.459736e-06 -2.8675602e-20 -0.0106758 2.3117377e-20
0003a0 18 51 2c 20 2a 77 a1 b6 b0 ef a5 22 a3 75 7e bb
       1.4595798e-19 -4.8120464e-06 4.497712e-18 -0.0038827441
0003b0 eb 51 58 28 15 d0 26 bc 17 14 c9 3b 41 bd 2d 3b
       1.2008172e-14 -0.010181447 0.006136428 0.002651051
0003c0 ea e2 02 bb 33 6c b8 3b 9f a7 cb a6 61 7f 88 b7
       -0.0019971677 0.0056281327 -1.4131388e-15 -1.6271779e-05
0003d0 dd 13 91 b2 2b 67 bd b9 11 9b 09 bb c9 42 1e 1e
       -1.6889254e-08 -0.00036125755 -0.0020996968 8.378261e-21
0003e0 f0 76 3e bb 6b 3b 5c 9e d3 4e 31 bc 60 b2 34 ba
       -0.0029062591 -1.165899e-20 -0.010822016 -0.0006893035
0003f0 ea 86 4e 9d 73 2d a5 ba c1 a7 96 ba f5 aa 54 23
       -2.7333622e-21 -0.0012602046 -0.0011494086 1.1528745e-17

cbam2.ChannelGate.mlp.1.bias f4 [8]
000000 00 f0 e7 af 91 d3 28 a4 6d fa c8 1f da bc 1c af
       -4.2189185e-10 -3.6608397e-17 8.511759e-20 -1.4255211e-10
000010 b0 9d 6f 1f 93 d0 9f 1d da 4c cc a2 56 eb 08 3d
       5.0740655e-20 4.230261e-21 -5.537568e-18 0.03342756
